Model_Tm/Fold4_best_model.pkl (torch_old, 421841 bytes, 13 tensors)

gcn.gc1.weight f4 [133, 512]
0.016828977 0.0042937063 0.03412505 -0.059202373 0.0063151 -0.0027918594 0.0017794449 -0.024592802
-0.010383307 0.01707246 0.0047579575 0.042766947 -0.02167349 0.016109273 -0.036018975 -0.00065686856
0.014294811 0.01917461 -0.015405691 0.002707499 0.044087283 0.024282001 -0.023452641 0.0045011947
0.004874856 -0.008555157 -0.0018913858 0.0068757823 0.015638664 0.023272043 -0.018266235 0.013367599
-0.01374119 -0.0035022157 -0.0289213 -0.0096471915 0.013016434 -0.0051664873 -0.05240598 -0.0058728433
0.01501129 -0.007997185 0.0045152176 0.00050932646 -0.0048593786 0.024504337 -0.0016399343 0.0006097614
-0.0495336 -0.06827148 0.005213936 -0.016788373 0.022284526 -0.020414153 -0.004954254 -1.5372429e-05
0.00045497072 0.007379185 0.002722024 -0.043794006 -0.005860661 0.006917121 -0.024353962 0.028323943
0.01517155 0.01859528 0.029645897 0.0117025785 -0.01694316 0.02556694 0.01532825 0.011612611
0.0096599925 -0.027228907 -0.013763943 -0.04902757 0.049584836 0.0163925 0.0015200888 0.011817848
0.006756228 0.005230092 -0.0047790254 -0.020812752 -0.012424672 -0.015021678 0.023078917 0.0008697965
-0.004744652 -0.00091357087 0.013296337 -0.024844712 0.004504746 -0.00556274 -0.0029579967 0.01787362
0.028560326 -0.007672977 -0.00012586746 0.014380718 -0.007385968 -0.058926255 0.0013987907 0.0063678194
-0.029085228 -0.012028933 -0.023813289 0.040939603 -0.030954903 -0.00025254636 -0.006723064 -0.012784335
-0.0034109515 0.016475018 0.094917625 0.03195796 -0.026457632 -0.006642598 0.022884341 0.00786404
-0.023489533 0.009754978 -0.0025417444 0.020152984 -0.0026384483 0.004130787 0.00096292177 -0.0019816472
0.026627561 0.033598244 0.00037540094 -0.020555582 -0.007173257 -0.0001485638 -0.023521636 0.029247068
-0.017264297 -0.042169504 -0.022805048 -0.044612978 -0.030895885 0.01098868 -0.023356091 0.015889624
-0.01437306 -0.018183423 0.022299508 -0.0010872559 0.030790698 0.004711664 -0.037341073 -0.006670904
0.00026896526 0.036237758 -0.0047325725 -0.022652969 -0.015671626 0.048716534 0.022742637 0.019184757
0.00901988 -0.06994229 -0.019368367 0.024875637 0.015391265 -0.014105002 -0.0028273077 0.012371302
-0.0025728373 0.0036665387 -0.02538425 0.001580055 0.0003092575 -0.011098605 -7.2612165e-05 0.01384687
0.003768944 0.021989468 0.0001056088 0.00831432 -0.020731278 -0.0004762056 -0.010121544 0.002026549
-0.016423024 -0.020036772 0.009210018 -0.045877963 0.021102086 -0.011983714 -0.006555428 0.0071200514
-0.00080831064 -0.0022357013 -0.014416022 0.0061144326 -0.005785752 0.01238567 -0.012877414 -0.010177677
0.0032607678 -0.0107078105 0.0076929177 -0.00504926 0.016633717 0.021344937 0.038994916 0.022463888
0.018520249 0.041636944 -0.010051647 -0.014830233 0.010566107 -0.006459375 0.002848418 -0.01552088
-0.04570748 -0.03894256 -0.0062138517 0.006486226 -0.010171558 -0.0020725012 -3.1367257e-05 0.018070605
-0.010341044 -0.00043508722 -0.0004650538 -0.014957255 0.03202354 -0.005901887 0.007864059 0.04679075
0.010042327 0.021160819 -0.000259613 -0.010112556 0.05068591 0.03275474 0.017238582 -0.02548404
0.01461225 -0.0085302405 -0.037706714 -0.013073999 0.028029863 0.041463293 0.08600399 -0.010289659
0.017827835 0.038743522 -0.0020418891 0.0073960293 -0.0019411347 0.012992554 0.008032867 0.04268474
00000000: ecdc 893c 38b2 8c3b b5c6 0b3d 307e 72bd
00000010: e6ee ce3b a1f7 36bb 433c e93a d876 c9bc
00000020: bf1e 2abc 8bdb 8b3c a4e8 9b3b 652c 2f3d
00000030: 9a8c b1bc 98f7 833c a288 13bd b431 2cba
00000040: c834 6a3c 1214 9d3c 2768 7cbc 4c70 313b
00000050: de94 343d 0ceb c63c c11f c0bc c27e 933b
00000060: 42bd 9f3b ee2a 0cbc 60e8 f7ba 3e4e e13b
00000070: a81c 803c 03a5 be3c 12a3 95bc c603 5b3c
00000080: ba22 61bc 6e85 65bb 5dec ecbc 410f 1ebc
00000090: e242 553c a34b a9bb a7a7 56bd fb70 c0bb
000000a0: eaf1 753c a006 03bc 64f4 933b 5284 053a
000000b0: 6c3b 9fbb 52bd c83c 10f3 d6ba 65d8 1f3a
000000c0: bfe3 4abd ebd1 8bbd aad9 aa3b c587 89bc
000000d0: 0a8e b63c 953b a7bc 4b57 a2bb 0af4 80b7
000000e0: 2389 ee39 17cd f13b fc63 323b 5861 33bd
000000f0: ca0a c0bb 04a9 e23b f681 c7bc 9d07 e83c
00000100: 1892 783c 2155 983c f4db f23c 2cbc 3f3c
00000110: 62cc 8abc c271 d13c 5723 7b3c d242 3e3c
00000120: f244 1e3c 280f dfbc 2982 61bc 22d1 48bd
00000130: 7819 4b3d 9049 863c b73d c73a a69f 413c
00000140: 5963 dd3b 3161 ab3b 5f99 9cbb 817f aabc
00000150: da90 4bbc 7c1d 76bc ff0f bd3c 0e03 643a
00000160: 0779 9bbb b47c 6fba e1d8 593c 2387 cbbc
00000170: 8c9c 933b a547 b6bb f3da 41bb b36b 923c
00000180: 58f7 e93c 996d fbbb 4afb 03b9 1a9d 6b3c
00000190: fe05 f2bb a85c 71bd a157 b73a 24a9 d03b
000001a0: 2544 eebc 0015 45bc 1614 c3bc 49b0 273d
000001b0: 2395 fdbc 3368 84b9 264d dcbb 6375 51bc
000001c0: 458a 5fbb 9ef6 863c 2c64 c23d 5ae6 023d
000001d0: adbd d8bc 27aa d9bb f177 bb3c 2dd8 003c
000001e0: 1f6d c0bc 58d3 1f3c 6593 26bb df17 a53c
000001f0: d1e9 2cbb 8e5b 873b 966c 7c3a 86de 01bb
00000200: 0b22 da3c 509e 093d 76d1 c439 2e64 a8bc
00000210: a40d ebbb cbc7 1bb9 72b0 c0bc 8c97 ef3c
00000220: db6d 8dbc eeb9 2cbd a7d1 babc 19bc 36bd
00000230: 5e19 fdbc dd09 343c 4655 bfbc f52a 823c
00000240: fc7c 6bbc 67f5 94bc 75ad b63c 4182 8eba
00000250: c63c fc3c 4d64 9a3b f4f2 18bd 9997 dabb
00000260: e803 8d39 0b6e 143d b213 9bbb b892 b9bc
00000270: c861 80bc fd8a 473d c44e ba3c 5a29 9d3c
00000280: 1ec8 133c e73d 8fbd 69aa 9ebc fec7 cb3c
00000290: a52b 7c3c ab18 67bc 5a4a 39bb 00b1 4a3c
000002a0: 0c9d 28bb 504a 703b a1f2 cfbc d919 cf3a
000002b0: d723 a239 ecd6 35bc 5c47 98b8 fbdd 623c
000002c0: 6300 773b 4223 b43c 4b7a dd38 c938 083c
000002d0: a4d4 a9bc 3cab f9b9 d5d4 25bc dacf 043b
000002e0: 9489 86bc 2824 a4bc 9ee5 163c 88ea 3bbd
000002f0: 48de ac3c 5757 44bc eace d6bb 524f e93b
00000300: cfe4 53ba d884 12bb 2e31 6cbc 945b c83b
00000310: 6896 bdbb 44ed 4a3c cafb 52bc 45c0 26bc
00000320: 9bb2 553b d06f 2fbc df14 fc3b 4374 a5bb
00000330: 6f43 883c 94db ae3c 22b9 1f3d 3006 b83c
00000340: c7b7 973c 808b 2a3d aaaf 24bc 81fa 72bc
00000350: 771d 2d3c 2aa9 d3bb 86ac 3a3b 4a4b 7ebc
00000360: c437 3bbd 3c82 1fbd 919d cbbb 688a d43b
00000370: 9ba6 26bc cdd2 07bb 5690 03b8 ce08 943c
00000380: 7b6d 29bc 6b1c e4b9 77d2 f3b9 460f 75bc
00000390: 1e2b 033d 9e64 c1bb 41d8 003c a8a7 3f3d
000003a0: 9388 243c 7459 ad3c ab1c 88b9 22af 25bc
000003b0: 079c 4f3d d629 063d ed37 8d3c e8c3 d0bc
000003c0: 3868 6f3c 6cc2 0bbc 5b72 1abd 5434 56bc
000003d0: e29e e53c 6ad5 293d dc22 b03d f595 28bc
000003e0: ae0b 923c 87b1 1e3d 37d1 05bb 645a f23b
000003f0: ac6d feba b9de 543c 499c 033c 32d6 2e3d

gcn.gc1.bias f4 [512]
0.034452215 0.0044314875 -0.05780438 0.037591953 0.049113717 0.028842973 -0.0020457676 -0.017162098
0.031852413 -0.055369332 0.010985304 -0.041769996 0.019329049 -0.024003632 0.03755593 -0.0005878813
0.046127714 0.02414698 0.01865944 0.022860605 -0.0034352564 -0.046404522 0.025033867 -0.020328455
-0.029184429 0.051013056 -0.056559008 0.04671676 0.011862688 0.024413522 -0.010163075 0.047689103
-0.022006232 0.010818306 0.0014854597 0.036031455 0.031984255 0.011533742 0.026490875 0.013845198
0.023811195 0.011217946 -0.01905189 -0.009906597 -0.039327104 0.0068795457 -0.09997593 0.043279868
-0.05893045 0.040148064 -0.028235475 0.03471184 -0.0044296854 0.051979065 -0.027138662 -0.033867132
-8.573352e-05 0.012562615 0.033749733 0.010317703 0.057525083 0.03017854 -0.011188289 -0.04931863
0.059870344 0.041963775 -0.03384437 0.04796037 0.083097816 0.0012010402 0.048034884 0.029379997
-0.042548962 0.062681 0.063917 0.07310891 -0.032129057 -0.06579613 -0.017831909 0.042532653
0.028173214 -0.025448374 -0.019183002 0.01978837 -0.058017097 -0.02525313 -0.0009497097 -0.028664347
0.043897886 0.018312527 0.034047134 -0.004349854 0.020914003 0.042080153 0.031035272 0.073491
-0.017008806 -0.05435849 -0.014986026 -0.021102455 -0.0018242204 0.04319668 0.002131832 0.04740912
0.0024726905 -0.08885772 0.012546995 -0.06709928 -0.014590864 -0.0040184828 0.055048157 0.013458139
0.019695077 0.01213847 -0.04442121 -0.034278676 -0.0057183607 -0.08877503 0.0017726225 -0.037357416
0.04777723 0.06373717 0.0049150474 0.0006972409 0.013968441 -0.022593688 -0.01292171 0.0071487436
0.03456243 -0.008060103 0.02389092 0.012728052 0.0023613486 0.00015293217 0.029412314 -0.06083409
-0.02376323 0.023509283 0.013348579 0.014584959 -0.04461008 -0.033480663 0.018898483 -0.02284425
-0.03689483 -0.008195563 -0.0800695 0.0043549244 0.04429908 0.03957242 -0.020053582 0.015698435
0.0024581472 -0.027809372 0.015856136 0.010652223 0.0056583676 -0.06551592 0.053748302 0.011177599
0.014309003 0.0082699135 0.031306062 -0.060904164 0.028418893 0.0090262685 -0.017739546 0.0440525
-0.0053800517 -0.04102129 0.0036352333 -0.04397185 0.040022742 0.01810809 0.004594455 -0.0799991
0.023762051 0.019975103 0.0041666175 -0.011424786 0.07412009 -0.014736065 -0.011774344 0.018882535
0.02249128 0.06296523 0.0019121221 -0.018934786 -0.007961181 -0.0046893465 0.053855136 0.03651315
0.0011497866 -0.005424908 -0.013900681 0.027497394 0.04601919 0.005849907 0.0073340116 0.052651722
-0.054843303 0.034965474 0.036403075 -0.09195775 0.039479073 0.030739749 0.0052216435 -0.041830182
0.0015849582 -0.06705824 0.037862584 0.026795307 0.03546925 0.0022914289 0.014516336 0.024776857
0.012413905 0.029317435 0.0672472 0.01815014 -0.026721042 -0.0062160124 -0.053971212 -0.026031137
-0.09796155 0.007367848 0.055722453 -0.019012345 -0.021645406 0.048933603 0.0030789345 0.011835802
0.0016413841 -0.012287417 0.0199165 -0.0018376325 0.022976851 -0.0018675377 0.06807781 0.0020758915
0.005032206 0.026958123 0.009886249 -0.015063467 0.0038127785 0.05901998 -0.037421476 -0.005405606
-0.019872824 0.07539846 0.050049387 -0.028033003 0.0014896772 -0.012416493 -0.048034947 -0.023789229
00000000: c41d 0d3d 0336 913b 49c4 6cbd 05fa 193d
00000010: 772b 493d 1948 ec3c 4912 06bb 8797 8cbc
00000020: ad77 023d f4ca 62bd b4fb 333c 0417 2bbd
00000030: f457 9e3c 44a3 c4bc 3fd4 193d 0c1c 1aba
00000040: 6af0 3c3d e3cf c53c afdb 983c 2a46 bb3c
00000050: 0a22 61bb ab12 3ebd d313 cd3c dc87 a6bc
00000060: 2f14 efbc 11f3 503d 6baa 67bd 135a 3f3d
00000070: b85b 423c defe c73c 0783 26bc a655 433d
00000080: 6a46 b4bc 443f 313c c2b3 c23a b895 133d
00000090: ec01 033d 05f8 3c3c 6403 d93c f8d6 623c
000000a0: b20f c33c 7acb 373c b612 9cbc 484f 22bc
000000b0: 7515 21bd d06d e13b 2ec0 ccbd 3b46 313d
000000c0: 0e61 71bd 4c72 243d 154e e7bc 012e 0e3d
000000d0: e526 91bb 00e8 543d e651 debc 43b8 0abd
000000e0: d5cb b3b8 6dd3 4d3c 293d 0a3d 950b 293c
000000f0: 6c9f 6b3d fc38 f73c 164f 37bc 5502 4abd
00000100: 9b3a 753d 35e2 2b3d 65a0 0abd 1872 443d
00000110: 302f aa3d 396c 9d3a 3ac0 443d 52ae f03c
00000120: d247 2ebd e55e 803d ebe6 823d 20ba 953d
00000130: c299 03bd 1fc0 86bd 3914 92bc b836 2e3d
00000140: 83cb e63c 1c79 d0bc ac25 9dbc 381b a23c
00000150: 56a3 6dbd a7df cebc f0f5 78ba 7ed1 eabc
00000160: 45ce 333d 2704 963c 0275 0b3d 3889 8ebb
00000170: d853 ab3c 3d5c 2c3d af3d fe3c 7382 963d
00000180: 0d56 8bbc 02a7 5ebd f387 75bc 0edf acbc
00000190: ae1a efba 00ef 303d 35b6 0b3b 1130 423d
000001a0: dd0c 223b 09fb b5bd e991 4d3c 596b 89bd
000001b0: 850e 6fbc 7aad 83bb 2d7a 613d 877f 5c3c
000001c0: 9257 a13c 6fe0 463c 04f3 35bd cc67 0cbd
000001d0: 1661 bbbb afcf b5bd 5757 e83a 1704 19bd
000001e0: 0fb2 433d a288 823d 680e a13b 0bc7 363a
000001f0: e3db 643c 6616 b9bc 94b5 53bc 0240 ea3b
00000200: 5691 0d3d 860e 04bc e4b6 c33c 5289 503c
00000210: dbc0 1a3b 6b5c 2039 18f2 f03c 2b2d 79bd
00000220: 1bab c2bc 8a96 c03c 00b4 5a3c c0f5 6e3c
00000230: 0fb9 36bd 0523 09bd fed0 9a3c dd23 bbbc
00000240: 091f 17bd af46 06bc 7afb a3bd c1b3 8e3b
00000250: f472 353d b116 223d 6947 a4bc 019a 803c
00000260: de18 213b 7bd0 e3bc bae4 813c a986 2e3c
00000270: d469 b93b 362d 86bd 2e27 5c3d 4022 373c
00000280: 4f70 6a3c 887e 073c c93a 003d a576 79bd
00000290: bdce e83c eae2 133c 8652 91bc 6570 343d
000002a0: 254b b0bb f105 28bd 183d 6e3b d41b 34bd
000002b0: e3ee 233d 6b57 943c 158d 963b 91d6 a3bd
000002c0: a2a8 c23c d4a2 a33c 1f88 883b 072f 3bbc
000002d0: 46cc 973d 896f 71bc 2ee9 40bc 8caf 9a3c
000002e0: a23f b83c eaf3 803d 2ca0 fa3a 201d 9bbc
000002f0: 9d6f 02bc 17a9 99bb 3497 5c3d d08e 153d
00000300: 70b4 963a 6dc3 b1bb afbf 63bc 3742 e13c
00000310: 9e7e 3c3d 94b0 bf3b 2652 f03b 55a9 573d
00000320: 5fa3 60bd f537 0f3d 641b 153d 5854 bcbd
00000330: cfb4 213d edd1 fb3c 521a ab3b 2056 2bbd
00000340: 5fbe cf3a d555 89bd cc15 1b3d d581 db3c
00000350: 3448 113d cc2b 163b edd5 6d3c d6f8 ca3c
00000360: b163 4b3c 1e2b f03c e6b8 893d 9aaf 943c
00000370: 16e6 dabc b1af cbbb eb10 5dbd 403f d5bc
00000380: 11a0 c8bd fd6d f13b 3a3d 643d c7bf 9bbc
00000390: b551 b1bc 9a6e 483d f3c7 493b f4ea 413c
000003a0: b623 d73a 2a51 49bc ee27 a33c b7dc f0ba
000003b0: f339 bc3c 2bc8 f4ba 616c 8b3d ae0b 083b
000003c0: 34e5 a43b 48d7 dc3c eff9 213c c3cc 76bc
000003d0: cfdf 793b efbe 713d 4347 19bd 8221 b1bb
000003e0: 55cc a2bc 826a 9a3d 9600 4d3d 78a5 e5bc
000003f0: 4641 c33a 8c6e 4bbc 4bc0 44bd a1e1 c2bc

gcn.ln1.weight f4 [512]
0.28029755 0.19797799 0.5522079 0.54830813 0.26701555 0.13657463 0.09767764 0.40477133
0.14275047 0.57294196 0.20984067 0.34865928 0.49863744 0.25278544 0.5776417 0.10002351
0.2307247 0.31345505 0.2372107 0.21194306 0.41617855 0.4063404 0.3484398 0.23536538
0.34664422 0.25773624 0.33306998 0.32923394 0.1621308 0.30065054 0.31114307 0.40960315
0.384158 0.3689229 0.47356984 0.33859426 0.3978585 0.18422106 0.54759663 0.2219349
0.23341812 0.193937 0.1790163 0.3430109 0.45771125 0.37745133 0.4533534 0.31372988
0.5123464 0.5055596 0.29068974 0.42674926 0.46774164 0.29843974 0.26385865 0.23611785
0.30317307 0.5375757 0.18209404 0.53446466 0.2518452 0.37566456 0.25542286 0.40419793
0.21758044 0.24325252 0.2796686 0.2937993 0.5752643 0.32278585 0.16844091 0.22878978
0.65340793 0.33508223 0.34838688 0.4982671 0.49061814 0.46794063 0.30606353 0.15779728
0.39683798 0.16461833 0.15391678 0.36716372 0.27648348 0.1844079 0.37514183 0.22178431
0.3166709 0.16230257 0.3276069 0.34663227 0.24308343 0.34998882 0.24163002 0.34043676
0.5479792 0.42410716 0.22490871 0.6800148 0.25179267 0.6411397 0.18803242 0.264535
0.43731967 0.54348975 0.60291886 0.547324 0.37063822 0.122540735 0.27070326 0.19074887
0.20747049 0.25704694 0.72904116 0.46470234 0.34438777 0.48634657 0.2644182 0.26577452
0.31087977 0.46393937 0.23892424 0.29983905 0.47129598 0.1622315 0.35741898 0.1272982
0.31129062 0.4694787 0.19545388 0.2648843 0.20618701 0.27294013 0.4641293 0.55707586
0.35677058 0.45825914 0.28877732 0.4454125 0.3629788 0.393998 0.35084164 0.43062058
0.3376742 0.3029911 0.5924013 0.12594616 0.47897545 0.18363157 0.42487174 0.2355931
0.24377687 0.41409802 0.3638266 0.33477047 0.29609045 0.7590801 0.2733563 0.47945538
0.31904995 0.57058865 0.52359474 0.47833586 0.2673387 0.36535686 0.20706965 0.23063087
0.27772024 0.5756486 0.33255136 0.5634119 0.16639815 0.29387277 0.24388134 0.37477872
0.36041293 0.44137618 0.1442834 0.23717764 0.31270194 0.14198896 0.21909148 0.26953903
0.17378813 0.38375175 0.4997043 0.57777286 0.3428904 0.15099259 0.2461549 0.15252794
0.3022578 0.10958627 0.18825626 0.15141292 0.18566513 0.30930385 0.26576653 0.42149127
0.4704148 0.6149919 0.34089863 0.684451 0.47848582 0.35234663 0.4075365 0.41021115
0.2045853 0.47302863 0.2409374 0.36037812 0.34313154 0.15800692 0.26713717 0.43187532
0.4279796 0.5408406 0.2587308 0.26461184 0.23812374 0.15194026 0.2743812 0.3349358
0.43384442 0.13173158 0.3173457 0.24695954 0.42598784 0.2497273 0.3448258 0.39743927
0.18146941 0.5200779 0.112133615 0.18851958 0.5555336 0.5072091 0.44325 0.39620522
0.40493554 0.41906863 0.4049129 0.22426774 0.38202867 0.45525813 0.77478874 0.23729758
0.26243484 0.5282262 0.25483644 0.3838078 0.18546638 0.12892464 0.54701746 0.53109103
00000000: 2983 8f3e beba 4a3e 7f5d 0d3f ec5d 0c3f
00000010: 43b6 883e 38da 0b3e 370b c83d 303e cf3e
00000020: 2e2d 123e 53ac 123f 79e0 563e 7883 b23e
00000030: 684d ff3e 186d 813e 54e0 133f 20d9 cc3d
00000040: 1943 6c3e 2e7d a03e 5de7 723e 9a07 593e
00000050: 5b15 d53e d90b d03e b466 b23e 9f03 713e
00000060: 5a7b b13e 01f6 833e 2688 aa3e 5a91 a83e
00000070: 9e05 263e deee 993e 254e 9f3e 81b7 d13e
00000080: 5bb0 c43e 76e3 bc3e bf77 f23e 3a5c ad3e
00000090: 1cb4 cb3e 72a4 3c3e 4b2f 0c3f e742 633e
000000a0: 2905 6f3e 6c97 463e 0d50 373e 209f af3e
000000b0: 2159 ea3e 4d41 c13e f01d e83e 34a1 a03e
000000c0: 2229 033f 5b6c 013f 49d5 943e e17e da3e
000000d0: d57b ef3e 18cd 983e 7b18 873e e1c8 713e
000000e0: 8039 9b3e 909e 093f dc76 3a3e add2 083f
000000f0: dbf1 803e 1b57 c03e c9c6 823e 08f3 ce3e
00000100: 68cd 5e3e 3017 793e b930 8f3e dd6c 963e
00000110: 8544 133f 3044 a53e c67b 2c3e de47 6a3e
00000120: be45 273f e68f ab3e c45f b23e de1c ff3e
00000130: 4d32 fb3e ea95 ef3e 5cb4 9c3e 9c95 213e
00000140: 592e cb3e b591 283e 5c9c 1d3e e2fc bb3e
00000150: 3e8f 8d3e 6dd5 3c3e 9712 c03e 6d1b 633e
00000160: b022 a23e a532 263e 17bc a73e c979 b13e
00000170: ddea 783e bc31 b33e dc6d 773e ba4d ae3e
00000180: 5d48 0c3f 9324 d93e 784e 663e 7315 2e3f
00000190: f8ea 803e bb21 243f 928b 403e 2271 873e
000001a0: 5de8 df3e 2522 0b3f e458 1a3f 6d1d 0c3f
000001b0: 4bc4 bd3e a3f6 fa3d 9e99 8a3e ac53 433e
000001c0: 2573 543e a89b 833e 71a2 3a3f 77ed ed3e
000001d0: 9853 b03e 6b02 f93e d361 873e 9913 883e
000001e0: a22b 9f3e 7689 ed3e 8ea8 743e 8184 993e
000001f0: b54d f13e 0420 263e 9fff b63e 765a 023e
00000200: 7c61 9f3e 835f f03e 1025 483e ea9e 873e
00000210: b022 533e cfbe 8b3e 5ba2 ed3e 869c 0e3f
00000220: a2aa b63e f1a0 ea3e 9fda 933e 1b0d e43e
00000230: 5bd8 b93e 1bba c93e 84a1 b33e 4d7a dc3e
00000240: a2e3 ac3e a621 9b3e 9da7 173f 08f8 003e
00000250: 453c f53e ea09 3c3e ca88 d93e 513f 713e
00000260: a5a0 793e a804 d43e 7b47 ba3e 0967 ab3e
00000270: 2b99 973e 1353 423f 5bf5 8b3e 2d7b f53e
00000280: 845a a33e 1912 123f 4e0a 063f 70e8 f43e
00000290: 9ee0 883e 0e10 bb3e 110a 543e 802a 6c3e
000002a0: 5931 8e3e b55d 133f 2c44 aa3e c33b 103f
000002b0: 4764 2a3e 7e76 963e 08bc 793e ffe2 bf3e
000002c0: 0b88 b83e 0ffc e13e 07bf 133e b2de 723e
000002d0: 781a a03e 8e65 113e 8459 603e 0501 8a3e
000002e0: 84f5 313e 1c7b c43e 3ed9 ff3e ece8 133f
000002f0: 558f af3e cd9d 1a3e 0810 7c3e 4930 1c3e
00000300: 89c1 9a3e c46e e03d 40c6 403e fd0b 1b3e
00000310: 001f 3e3e 135d 9e3e 8d12 883e b4cd d73e
00000320: 35da f03e 1c70 1d3f 448a ae3e 2e38 2f3f
00000330: 18fc f43e c766 b43e a0a8 d03e 3207 d23e
00000340: cf7e 513e cf30 f23e 4bb8 763e 7b83 b83e
00000350: f0ae af3e 91cc 213e 34c6 883e c31e dd3e
00000360: 2420 db3e 8874 0a3f 5d78 843e 347b 873e
00000370: b6d6 733e 3a96 1b3e b17b 8c3e b57c ab3e
00000380: db20 de3e a5e4 063e 237b a23e f6e2 7c3e
00000390: 141b da3e 83b8 7f3e 028d b03e 297d cb3e
000003a0: 1ed3 393e d323 053f 4fa6 e53d 470b 413e
000003b0: 7337 0e3f 75d8 013f aaf1 e23e 69db ca3e
000003c0: b653 cf3e 2a90 d63e be50 cf3e 71a6 653e
000003d0: 4399 c33e 9817 e93e 8e58 463f 23fe 723e
000003e0: dc5d 863e d539 073f ec79 823e 7582 c43e
000003f0: e6ea 3d3e d204 043e 5609 0c3f 95f5 073f

gcn.ln1.bias f4 [512]
-0.014314121 -0.052112866 -0.08907688 -0.019679058 -0.019879956 -0.054447662 -0.07909176 0.013544838
-0.10144296 -0.09798279 -0.008041415 -0.07647936 -0.026660224 -0.03023258 0.012410818 -0.0733356
-0.04809666 -0.04397678 -0.06492615 -0.088315666 -0.05628769 -0.058862057 -0.03060225 -0.053353485
-0.021450635 -0.015070156 -0.07921595 0.025311688 -0.0208318 0.028767623 -0.0423116 -0.02673445
0.0040061185 -0.005211351 -0.005966851 0.035894983 -0.032666426 -0.07045864 -0.021237174 -0.081579365
-0.047900073 -0.03142594 -0.06349509 -0.05824548 -0.064634345 -0.07225925 -0.09726909 0.015222269
-0.06421617 0.0086954925 -0.039805934 -0.013021495 -0.039111424 0.018048687 -0.08891188 -0.05151499
-0.058120143 0.017976359 -0.035654046 0.008424858 -0.048819076 -0.0038410071 -0.049364228 -0.045404874
-0.038715024 0.0137398075 -0.053758435 -0.04080104 0.021875814 0.0071823867 0.011009158 0.0292269
-0.047707763 -0.0063462513 -0.027923917 0.007734876 -0.07474543 -0.09765385 -0.038288604 -0.045281712
0.02660431 -0.07481185 -0.067854874 -0.016604947 -0.049235906 -0.072955295 -0.066497274 -0.08249177
-0.010936332 -0.06139492 0.020574741 -0.08997656 -0.080491744 -0.0129328035 -0.052656602 -0.012469252
-0.05675311 -0.07025 -0.053214073 -0.10047344 -0.017723078 0.00030137447 -0.04585226 -0.008552748
-0.027911983 -0.06545675 0.01934828 -0.09571396 -0.05551756 -0.08292109 -0.05656199 -0.00561966
-0.050714094 -0.039183535 -0.06385052 0.003372829 -0.049308587 -0.09452155 -0.05400399 -0.06747897
-0.009914953 -0.0018051473 -0.10225701 0.029947218 0.04586348 -0.056960933 -0.096430965 -0.02263913
-0.0517231 -0.05310447 -0.030046115 -0.034079235 -0.042212278 0.019259501 0.011723818 -0.059647903
-0.08661525 0.020211646 -0.021039614 -0.0048203277 -0.09508344 -0.027036274 0.020828264 -0.08152852
-0.040361427 -0.047316033 -0.081972405 -0.065244794 0.07282393 -0.058752894 -0.020336235 0.021774355
-0.067697816 -0.033769466 -0.08429241 -0.03314579 -0.076055765 -0.07376039 -0.0234094 -0.07141691
0.029169112 0.013851855 0.05221643 -0.108653076 -0.06967592 -0.050669488 -0.024109151 -0.08386062
-0.059003923 -0.07963085 -0.021392984 -0.058385953 -0.0485671 -0.07403298 -0.05126346 -0.09703277
-0.033873368 -0.03427071 -0.06849532 -0.06319972 0.0021941043 -0.04018368 -0.08207073 -0.03531172
-0.0011600064 -0.009217783 -0.07733095 -0.045880254 -0.06161253 -0.033297572 -0.004694745 -0.086586684
-0.09284944 -0.08520845 -0.02709255 -0.07461146 -0.0467746 -0.04085074 -0.017365973 0.041613027
-0.051389813 0.04581603 0.015697507 -0.05692604 0.00091579964 -0.066073895 -0.07300856 -0.0335669
-0.057194572 -0.069951214 -0.070458815 -0.042470213 -0.04733475 -0.049788192 -0.049620423 -0.019616669
-0.022784771 -0.02025087 0.004629866 -0.00219122 -0.09144956 -0.05281005 -0.08074609 -0.05778385
-0.0779009 -0.041471373 0.049153946 -0.042826694 0.030592287 0.0024078318 -0.10068324 -0.013813681
-0.0044171247 -0.054037396 -0.049560823 -0.015060453 -0.037174318 -0.072153755 0.046348084 -0.017972527
-0.060316417 -0.067240976 -0.009936317 -0.09295062 0.01767767 0.022794614 -0.0666629 -0.029172627
-0.062583804 0.052489795 -0.0050023003 -0.059186064 -0.011052047 -0.057906747 -0.08389497 -0.06331622
00000000: c685 6abc 4d74 55bd f06d b6bd fa35 a1bc
00000010: 4adb a2bc 8304 5fbd dcfa a1bd 2beb 5d3c
00000020: 54c1 cfbd 33ab c8bd 24c0 03bc 36a1 9cbd
00000030: 8b66 dabc 51aa f7bc be56 4b3c fa30 96bd
00000040: 0101 45bd ff20 34bd 00f8 84bd d8de b4bd
00000050: ec8d 66bd 5719 71bd 92b1 fabc 2f89 5abd
00000060: 3eb9 afbc d1e8 76bc f93b a2bd 755a cf3c
00000070: 73a7 aabc 14aa eb3c ee4e 2dbd 3502 dbbc
00000080: c245 833b fbc3 aabb 9385 c3bb 9e06 133d
00000090: 3bcd 05bd 9f4c 90bd 95f9 adbc 1513 a7bd
000000a0: de32 44bd 7db8 00bd b709 82bd d092 6ebd
000000b0: 035f 84bd a8fc 93bd 0435 c7bd d366 793c
000000c0: c483 83bd 8a77 0e3c 8c0b 23bd 1c58 55bc
000000d0: 4d33 20bd d7da 933c 6f17 b6bd 6201 53bd
000000e0: 630f 6ebd 2843 933c fa09 12bd 6a08 0a3c
000000f0: 83f6 47bd 68b9 7bbb 2532 4abd 76fa 39bd
00000100: a593 1ebd ee1c 613c ce31 5cbd fe1e 27bd
00000110: e834 b33c 3a5a eb3b c15f 343c 406d ef3c
00000120: 3769 43bd 37f4 cfbb b3c0 e4bc d874 fd3b
00000130: 2214 99bd befe c7bd 83d4 1cbd 5179 39bd
00000140: 48f1 d93c f536 99bd 7ff7 8abd 1907 88bc
00000150: 97ab 49bd 9669 95bd b92f 88bd 72f1 a8bd
00000160: 4d2e 33bc 3d79 7bbd 5c8c a83c a145 b8bd
00000170: dbd8 a4bd 1ce4 53bc 73ae 57bd d54b 4cbc
00000180: f375 68bd 3bdf 8fbd 00f7 59bd 05c5 cdbd
00000190: fd2f 91bc cc01 9e39 94cf 3bbd d320 0cbc
000001a0: aca7 e4bc 300e 86bd 4980 9e3c ae05 c4bd
000001b0: 6266 63bd 88d2 a9bd 8cad 67bd 2025 b8bb
000001c0: 95b9 4fbd ea7e 20bd 10c4 82bd ae0a 5d3b
000001d0: cdf7 49bd 8494 c1bd 4a33 5dbd 6a32 8abd
000001e0: 5472 22bc b19a ecba 206c d1bd de53 f53c
000001f0: 58db 3b3d de4f 69bd 997d c5bd b275 b9bc
00000200: 9adb 53bd 1384 59bd 4523 f6bc ab96 0bbd
00000210: c8e6 2cbd 1ac6 9d3c 4215 403c 5c51 74bd
00000220: 5663 b1bd e592 a53c 455b acbc d7f3 9dbb
00000230: 1bbb c2bd 2d7b ddbc 09a0 aa3c 6df8 a6bd
00000240: 0652 25bd 75ce 41bd 26e1 a7bd 109f 85bd
00000250: b624 953d e0a6 70bd 2d98 a6bc 2260 b23c
00000260: 27a5 8abd da51 0abd 80a1 acbd e1c3 07bd
00000270: 20c3 9bbd b00f 97bd 12c5 bfbc 0743 92bd
00000280: 10f4 ee3c e4f2 623c e5e0 553d 8185 debd
00000290: 40b2 8ebd cf8a 4fbd 8e80 c5bc 1ebf abbd
000002a0: 19ae 71bd 8015 a3bd 5740 afbc 1c26 6fbd
000002b0: 4cee 46bd 9a9e 97bd a2f9 51bd 1eb9 c6bd
000002c0: cdbe 0abd 725f 0cbd 4647 8cbd db6e 81bd
000002d0: f6ca 0f3b a497 24bd b314 a8bd 06a3 10bd
000002e0: 5b0b 98ba 2f06 17bc b05f 9ebd efec 3bbd
000002f0: 6c5d 7cbd 0963 08bd 60d6 99bb 5c54 b1bd
00000300: d927 bebd c581 aebd 32f1 ddbc e5cd 98bd
00000310: b996 3fbd 1b53 27bd 1643 8ebc 6c72 2a3d
00000320: 207e 52bd 97a9 3b3d 0f98 803c 482b 69bd
00000330: 4612 703a c051 87bd 8385 95bd 727d 09bd
00000340: db44 6abd 9542 8fbd b64c 90bd 3ff5 2dbd
00000350: 15e2 41bd b4ee 4bbd c93e 4bbd 23b3 a0bc
00000360: 21a7 babc 27e5 a5bc 22b6 973b 929a 0fbb
00000370: e849 bbbd 5a4f 58bd 355e a5bd c2ae 6cbd
00000380: 828a 9fbd e3dd 29bd a655 493d 0b6b 2fbd
00000390: ad9c fa3c b7cc 1d3b 0433 cebd c752 62bc
000003a0: 87bd 90bb 5156 5dbd 4a00 4bbd 1ec0 76bc
000003b0: 1944 18bd 59c5 93bd 7dd7 3d3d 1f3b 93bc
000003c0: 590e 77bd a3b5 89bd efcb 22bc e55c bebd
000003d0: c3d0 903c c5bb ba3c 8f86 88bd 6ffb eebc
000003e0: f02b 80bd 8aff 563d 56ea a3bb 166d 72bd
000003f0: a513 35bc a02f 6dbd 20d1 abbd efab 81bd

gcn.gc2.weight f4 [512, 64]
-0.020394407 0.08252354 -0.031711627 0.038672 0.03118972 0.013607558 -0.0116669405 -0.005592893
0.015075764 -0.030674815 -0.004243015 0.01769392 0.004690733 -0.010319362 0.023093006 -0.05662804
-0.027862316 -0.03206714 0.02155063 -0.002292138 0.006168285 -0.017442537 0.023707308 0.008594817
0.0471731 -0.00038367478 -0.022619182 -0.0036888297 0.020133078 -0.0077064727 -0.030603835 0.013992497
0.00932535 0.014735181 0.024308171 0.014129161 -0.025825309 0.043227892 -0.075394705 0.0265369
0.05601754 -0.02150719 0.025482679 0.015986117 0.025770828 -0.022604795 -0.009418779 0.006104232
0.0054839263 0.033175644 0.03148568 0.018467749 0.014600596 -0.04731906 -0.016336884 0.0058606016
0.022988401 0.013263929 -0.04734848 0.021436514 0.031093664 0.06757759 0.012794919 0.011125861
-0.051748954 -0.031346522 -0.03586868 0.051413972 0.025739491 -0.008869515 0.019336905 0.0009285645
0.0026738024 0.041784357 -0.0074074147 0.028647386 0.001389861 -0.012178468 -0.00055435963 -0.031044418
0.019256018 0.008410945 0.073368736 0.010484972 0.017857054 -0.004422076 -0.00024233866 0.010324912
-0.0017080813 0.004226196 0.027527777 -0.009005506 0.011195121 -0.016343173 0.01943379 0.016025962
-0.0031907337 -0.04173624 0.024667703 0.0013129452 -0.03404366 0.012238037 -0.064424515 0.013177582
-0.0026204463 -0.032684375 0.0011985817 0.07536203 0.00050884305 0.042058457 -0.039147016 -0.010216152
-0.013177135 0.010804247 0.017861964 -0.0040526316 -0.010035929 -0.029908417 -0.0109404065 0.026298376
0.0055469233 0.0003737078 -0.0038878317 0.06734094 0.024009094 0.010224114 0.011221705 0.0072802687
-0.028015409 -0.05277326 -0.0047791405 0.017140495 0.053110488 -0.02611134 -0.026901223 -0.026414279
-0.011389922 0.088175654 0.012274328 -0.0052061086 0.018835051 0.027214563 -0.017204247 -0.03880182
-0.008646319 0.014171589 -0.007537935 0.007702302 0.015962062 -0.021587992 0.0012141905 0.017510634
-0.011452097 -0.012651495 -0.013577191 0.0049768668 -0.01314798 0.06269786 -0.042574294 -0.038311996
0.07380722 0.0781587 0.06311947 0.023536861 0.04175016 0.035608098 0.082575895 0.017412234
-0.012875701 0.05692586 0.011804024 0.043718316 -0.007259276 0.013902058 0.04329037 0.04591489
0.054602765 -0.009724024 -0.05557975 -0.0008127415 -0.0032482373 0.06140716 0.023026071 0.01809108
-0.023495259 0.017295603 -0.059586633 0.055997826 0.10000665 0.027355852 0.022267785 -0.011279208
0.07427503 0.033719752 0.035455376 0.06829667 0.034393772 0.0117384065 -0.028426433 -0.011368694
0.014024255 0.007891749 -0.00041492473 -0.02167541 0.027135314 0.028563248 0.020437589 0.0338797
-0.045012936 -0.07923734 -0.07162398 -0.013648043 0.015257614 -0.0118911415 -0.00086166867 0.013383569
-0.027729128 0.02084681 -0.020071724 -4.3500884e-05 0.01778934 0.028283339 0.0013260414 0.015252768
0.008734733 -0.011122637 -0.023424711 0.016780468 -0.030706381 -0.028417468 0.025828939 0.014346276
-0.013754328 0.09594473 0.027665144 -0.10558237 0.027037105 0.019720163 -0.026205717 -0.0031474207
0.0006533436 -0.016201027 -0.0068638916 0.043999113 -0.003614954 0.018170295 -0.018207546 0.032488544
-0.0049799997 0.013205579 0.019654447 -0.006336309 -0.085576504 0.009726965 0.039522007 0.065095246
00000000: 2c12 a7bc 1a02 a93d 0de4 01bd 8866 1e3d
00000010: 9581 ff3c 3cf2 5e3c b226 3fbc 9644 b7bb
00000020: 5600 773c c049 fbbc fd08 8bbb d7f2 903c
00000030: b8b4 993b 8b12 29bc 8b2d bd3c cef2 67bd
00000040: 833f e4bc d558 03bd f28a b03c b237 16bb
00000050: 531f ca3b a7e3 8ebc d435 c23c 46d1 0c3c
00000060: 9538 413d f527 c9b9 dd4b b9bc 4bc0 71bb
00000070: 20ee a43c 9486 fcbb e5b4 fabc c940 653c
00000080: 5ac9 183c d46b 713c ee21 c73c ff7d 673c
00000090: 998f d3bc bb0f 313d 8a68 9abd ea63 d93c
000000a0: a672 653d d92f b0bc 0dc1 d03c 51f5 823c
000000b0: 581d d33c b12d b9bc 3951 1abc 0206 c83b
000000c0: 82b2 b33b 2fe3 073d 21f7 003d ad49 973c
000000d0: 5737 6f3c a1d1 41bd eed4 85bc 4a0a c03b
000000e0: 2c52 bc3c f350 593c 7bf0 41bd a19b af3c
000000f0: 24b8 fe3c 1f66 8a3d c8a1 513c 3e49 363c
00000100: b6f6 53bd 3665 00bd 09eb 12bd 7597 523d
00000110: a0db d23c 7151 11bc 6e68 9e3c e96a 733a
00000120: f63a 2f3b 1326 2b3d e6b9 f2bb ecad ea3c
00000130: ff2b b63a 3288 47bc 7252 11ba dd50 febc
00000140: ccbe 9d3c 0fce 093c 5942 963d 29c9 2b3c
00000150: f548 923c 10e7 90bb 4a1c 7eb9 d229 293c
00000160: b3e1 dfba e77b 8a3b ef81 e13c d48b 13bc
00000170: be6b 373c 1ee2 85bc 9d33 9f3c e148 833c
00000180: a11b 51bb 9ff3 2abd ec13 ca3c 2117 ac3a
00000190: 5d71 0bbd 0c82 483c 00f1 83bd c9e6 573c
000001a0: cbbb 2bbb 0de0 05bd ba19 9d3a 6857 9a3d
000001b0: e163 053a 7d45 2c3d 9f58 20bd a661 27bc
000001c0: e9e4 57bc 4c04 313c 4153 923c f0cb 84bb
000001d0: bd6d 24bc 7f02 f5bc 643f 33bc b16f d73c
000001e0: f7c2 b53b 36ee c339 feca 7ebb 0cea 893d
000001f0: b8ae c43c 0b83 273c 3edb 373c 528f ee3b
00000200: 9280 e5bc c628 58bd 569a 9cbb 396a 8c3c
00000210: 628a 593d 73e7 d5bc f45f dcbc c262 d8bc
00000220: cc9c 3abc 7095 b43d 431a 493c 0198 aabb
00000230: f74b 9a3c 13f1 de3c ecef 8cbc a8ee 1ebd
00000240: 4aa9 0dbc f42f 683c c800 f7bb 9863 fc3b
00000250: dfc2 823c 4dd9 b0bc 7925 9f3a 7672 8f3c
00000260: 94a1 3bbc 3748 4fbc de72 5ebc fc14 a33b
00000270: a06a 57bc bc67 803d 6262 2ebd 0aed 1cbd
00000280: 3d28 973d ab11 a03d c844 813d 60d0 c03c
00000290: 3702 2b3d ccd9 113d 8d1d a93d 1aa4 8e3c
000002a0: 9bf4 52bc 172b 693d aa65 413c fa11 333d
000002b0: 39df edbb 75c5 633c 3e51 313d 4011 3c3d
000002c0: 26a7 5f3d 8351 1fbc 98a7 63bd 290e 55ba
000002d0: 61e0 54bb 1386 7b3d 2ca1 bc3c bf33 943c
000002e0: 2179 c0bc 82af 8d3c 1d11 74bd fa5d 653d
000002f0: 49d0 cc3d 6119 e03c ee6a b63c 6dcc 38bc
00000300: 821d 983d b91d 0a3d a839 113d 20df 8b3d
00000310: 7ce0 0c3d 7252 403c 8dde e8bc c243 3abc
00000320: fdc5 653c 654c 013c 418a d9b9 a190 b1bc
00000330: e14a de3c 79fd e93c bb6c a73c 71c5 0a3d
00000340: 7c5f 38bd 3047 a2bd 98af 92bd 0b9c 5fbc
00000350: 12fb 793c 10d3 42bc 9be1 61ba c246 5b3c
00000360: 3228 e3bc eec6 aa3c 756d a4bc b874 36b8
00000370: f3ba 913c 76b2 e73c 91ce ad3a bfe6 793c
00000380: 201c 0f3c b93b 36bc 2ee5 bfbc 3177 893c
00000390: f38b fbbc c0cb e8bc 3697 d33c a50c 6b3c
000003a0: d559 61bc ac7e c43d 03a2 e23c 923b d8bd
000003b0: eb7c dd3c 2e8c a13c 5fad d6bc f544 4ebb
000003c0: 2645 2b3a 04b8 84bc 7fea e0bb 6a38 343d
000003d0: dde8 6cbb dfd9 943c fe27 95bc b512 053d
000003e0: 442f a3bb 365c 583c 5d02 a13c d0a0 cfbb
000003f0: bc42 afbd d95d 1f3c d4e1 213d a850 853d

gcn.gc2.bias f4 [64]
0.022942005 -0.03410446 0.016875109 0.013622871 0.10923041 -0.15440713 0.024496753 0.045959525
-0.07724077 -0.12118255 0.023654299 -0.031036993 -0.00069308054 -0.100016996 -0.026581492 -3.2575386e-05
-0.0019557485 -0.09542072 0.11056784 0.04925769 0.088817075 -0.08508765 -0.007327948 -0.10003638
0.1313996 0.09443415 0.097841516 0.037576396 -0.03864857 0.11074796 0.1937171 0.063037604
-0.0104124015 0.050114382 -0.01628482 0.016174482 8.185363e-05 0.046712186 -0.07647689 -0.026524458
-0.2104521 -0.08365481 -0.061892133 0.114641406 -0.083976544 0.11898469 0.0019242493 -0.089548826
0.0027532182 0.08290719 -0.026422672 -0.009074722 -0.051548775 -0.009181157 0.09258115 0.06512434
-0.07958593 -0.09631108 0.072125316 -0.05038113 -0.06327432 -0.013647635 0.025335161 0.12607041
00000000: dff0 bb3c 1eb1 0bbd ab3d 8a3c 7632 5f3c
00000010: 31b4 df3d e71c 1ebe 6aad c83c 0e40 3c3d
00000020: 6930 9ebd 8f2e f8bd a9c6 c13c 4b41 febc
00000030: d9af 35ba b6d5 ccbd 6ec1 d9bc 8ea1 08b8
00000040: 042c 00bb f06b c3bd 6471 e23d 6ec2 493d
00000050: bae5 b53d 6f42 aebd 491f f0bb e0df ccbd
00000060: 9e8d 063e b166 c13d 2261 c83d b5e9 193d
00000070: f74d 1ebd d4cf e23d c75d 463e dc19 813d
00000080: c798 2abc bd44 4d3d be67 85bc 5980 843c
00000090: d5a8 ab38 4755 3f3d ea9f 9cbd d249 d9bc
000000a0: c180 57be 3753 abbd 9b82 7dbd 1dc9 ea3d
000000b0: e5fb abbd 3fae f33d 1837 fc3a 6065 b7bd
000000c0: 566f 343b 3fcb a93d 5c74 d8bc 25ae 14bc
000000d0: cf24 53bd 906c 16bc 309b bd3d e95f 853d
000000e0: f3fd a2bd be3e c5bd 70b6 933d 725c 4ebd
000000f0: f795 81bd 549a 5fbc af8b cf3c 9a18 013e

gcn.ln2.weight f4 [64]
0.81187946 0.8299974 0.92802 0.80224115 0.61842644 0.6038882 0.7353487 0.66276264
0.43341282 0.95821184 0.56277657 0.73947424 0.71457464 0.61781305 0.36288017 0.88154733
0.8815222 0.9592773 0.94226533 0.8179302 0.75915134 0.77017933 0.41131157 0.8436781
0.94354534 0.8639219 0.92831725 0.5806408 0.54133403 0.9497579 0.85053927 0.881723
0.59017205 0.9661803 0.33446324 0.25242066 0.897145 0.8502888 0.9155102 0.60119283
0.83483225 0.8302211 0.72064674 0.96004975 0.5700122 0.95291513 0.70102346 0.41918546
0.4803798 0.93538725 0.8316637 0.70000523 0.7383431 0.9148027 0.8753436 0.8479614
0.4013646 0.43124133 0.92525065 0.943167 0.973066 0.8467206 0.41155845 0.71016765
00000000: 55d7 4f3f b67a 543f b892 6d3f ad5f 4d3f
00000010: 3251 1e3f 6b98 1a3f d03f 3c3f d0aa 293f
00000020: 49e8 dd3e 5f4d 753f 2012 103f 2f4e 3d3f
00000030: 5dee 363f ff28 1e3f 6ecb b93e 16ad 613f
00000040: 70ab 613f 3293 753f 4d38 713f e063 513f
00000050: be57 423f 792a 453f 6e97 d23e 4afb 573f
00000060: 308c 713f fc29 5d3f 33a6 6d3f e0a4 143f
00000070: de94 0a3f 5523 733f f1bc 593f 99b8 613f
00000080: 8415 173f 9857 773f c43e ab3e 483d 813e
00000090: 4bab 653f 87ac 593f e05e 6a3f c6e7 193f
000000a0: 91b7 553f 5f89 543f 4e7c 383f d2c5 753f
000000b0: 52ec 113f 3ff2 733f 4676 333f 7a9f d63e
000000c0: 57f4 f53e 8a75 6f3f eae7 543f 8b33 333f
000000d0: 0e04 3d3f 8230 6a3f 8516 603f 0014 593f
000000e0: a97f cd3e aacb dc3e 3add 6c3f 6473 713f
000000f0: da1a 793f aec2 583f cab7 d23e 8ccd 353f

gcn.ln2.bias f4 [64]
-0.020323656 -0.029409565 -0.019144582 -0.022900658 -0.049352106 0.028442679 -0.016254766 -0.015306185
-0.020124113 -0.008958434 -0.01643483 -0.02888725 -0.042945195 0.009545476 -0.041642923 -0.016406596
-0.021347815 -0.0034414264 -0.011078046 -0.020610394 -0.01578889 -0.037751652 -0.029673653 -0.027871773
-0.019743446 -0.01646283 -0.015608224 -0.012344278 -0.061978642 -0.012203478 -0.004841276 -0.008312792
-0.038105816 -0.017130123 -0.08567336 -0.082669474 -0.0152197825 -0.015939156 -0.011252854 -0.033827942
0.010067364 -0.044702798 -0.0112956725 -0.014357283 -0.020459656 -0.015329771 -0.028221892 0.0027491204
-0.047162835 -0.016932087 -0.014530263 -0.0199063 -0.024687152 -0.00870485 -0.018657487 -0.00435854
-0.01908901 -0.025054056 -0.0014841866 -0.009049647 -0.020519108 0.0041049183 -0.036074895 -0.057815094
00000000: cc7d a6bc 54ec f0bc 19d5 9cbc 299a bbbc
00000010: 6f25 4abd 9f00 e93c b728 85bc cbc6 7abc
00000020: 53db a4bc 65c6 12bc 56a2 86bc f4a4 ecbc
00000030: 4de7 2fbd a164 1c3c c591 2abd 2067 86bc
00000040: 9de1 aebc 8e89 61bb b180 35bc 21d7 a8bc
00000050: b457 81bc 7aa1 1abd 2916 f3bc 5853 e4bc
00000060: 02bd a1bc 0fdd 86bc a3b9 7fbc a83f 4abc
00000070: 51dd 7dbd 19f1 47bc 91a3 9ebb 6032 08bc
00000080: d814 1cbd 7954 8cbc 8475 afbd 9d4e a9bd
00000090: 655c 79bc d592 82bc e45d 38bc 2b8f 0abd
000000a0: 96f1 243c 481a 37bd 7c11 39bc cf3a 6bbc
000000b0: 029b a7bc b829 7bbc 9931 e7bc 962a 343b
000000c0: d12d 41bd 29b5 8abc 5710 6ebc 8912 a3bc
000000d0: b63c cabc ca9e 0ebc 96d7 98bc 15d2 8ebb
000000e0: 8e60 9cbc 2a3e cdbc 0a89 c2ba f844 14bc
000000f0: b017 a8bc 8d82 863b 45c3 13bd 85cf 6cbd

attention.fc1.weight f4 [32, 64]
-0.0034728814 -0.051256143 0.055927213 -0.021467188 -0.024764543 0.04430131 -0.029896341 -0.020372013
0.029396499 -0.003145467 -0.010204992 0.010018073 -0.000610513 0.033118714 -0.0005928894 -0.00071091694
0.019201688 0.117163785 -0.07703278 -0.03144571 -0.044840924 -0.0038711186 -0.0020443406 0.02952401
-0.011513403 -0.012965865 -0.040030148 -0.014763676 0.084638305 -0.04611359 -0.061381407 -0.0626962
-0.009060954 0.05947809 0.014573382 0.012455899 0.02428263 -0.023328949 0.11105998 0.010901117
0.10370007 0.02668277 -0.0027867188 -0.050649196 0.05777193 -0.117070384 -0.016613934 0.02756436
0.012108828 -0.06342019 0.076277144 0.07383154 0.058835384 0.0250057 -0.046400968 -0.07377482
0.027374728 0.023499036 0.0011165848 -0.05254568 -0.020285327 0.106663525 -0.014641406 -0.08815867
0.020264225 0.06727628 -0.025874645 0.047179867 0.09324214 -0.049000498 0.017312013 -0.0026337516
-0.031071551 -0.014710529 -0.03498441 -0.009852561 -0.027726796 -0.05409487 0.020713158 -0.019152666
0.0065433183 -0.053442366 0.058573373 0.05724817 0.004553446 -0.009011007 0.0015438789 -0.045255613
0.11014722 0.095242955 0.060727302 -0.0077261697 -0.0026066876 0.10137289 0.09901735 0.08505347
-0.006795701 -0.10731077 0.010782908 0.0031453338 -0.020302232 0.038497947 -0.08965207 -0.01801239
0.020502552 0.06872647 -0.0030241997 -0.0037260342 -0.045051772 0.07506377 -0.01712959 -0.031367544
-0.002849162 -0.004525642 -0.07656814 0.007951898 -0.056933995 0.017297626 0.08161257 0.06623854
-0.023377303 -0.015490489 -0.040538974 0.0127922185 -0.102719046 -0.066711836 0.008908876 -0.009954381
-0.015503621 -0.059716184 0.004891996 -0.04639765 0.03178183 0.03393891 -0.021211967 -0.02966037
-0.0043294695 0.09908593 -0.031323254 0.009722256 0.0064047836 0.054146532 -0.014088626 0.054438278
0.011758298 0.0068689287 -0.0481315 0.022287361 -0.050136477 0.015384973 -0.0006301316 0.043032873
-0.038353264 -0.09048897 -0.009188668 -0.033586975 0.058608957 -0.086210184 -0.01939135 -0.04724629
0.005497138 0.038075864 0.001336307 0.012244369 0.057142094 0.03477083 0.067845985 0.014681987
-0.014498526 0.039980102 0.039319564 -0.052179936 0.045838155 0.0053328695 -0.009536044 0.02619513
0.027350355 -0.09720102 0.030827899 0.046034943 0.027867578 0.069314376 -0.049761876 0.022012418
0.027802609 0.038302194 -0.023248011 0.035895746 -0.04906422 0.041832466 -0.014465313 0.0034974716
-0.04007567 -0.10052503 0.08984547 0.0021431677 -0.05528502 0.11270505 -0.043327063 -0.025918802
0.027284889 0.069614716 0.0046853763 0.020162443 -0.02451072 0.020825563 -0.028495567 0.08932267
0.07190171 0.16950485 -0.0073989346 -0.004441469 -0.13383982 0.0046209013 -0.013379961 0.013565682
-0.045568403 -0.088481456 -0.018529197 -0.052402824 0.062145937 -0.00053373125 -0.12912734 -0.1246304
-0.020242697 0.07191338 -0.045656487 0.036381807 0.13659935 -0.013742832 0.04224912 0.007483357
0.16072096 -0.037807185 -0.014340929 -0.025248403 0.09024415 -0.105116636 -0.024395306 0.036622673
-0.0003131702 -0.033332914 0.06218387 0.025767332 -0.014110343 0.108181834 -0.10141143 -0.016957868
0.059338454 0.071132846 -0.036661744 0.018521521 -0.0020141115 0.10759908 -0.026503634 -0.0744288
00000000: 4899 63bb f6f1 51bd ef13 653d f5db afbc
00000010: 03df cabc 4a75 353d 2ce9 f4bc 35e3 a6bc
00000020: edd0 f03c 2e24 4ebb d732 27bc d822 243c
00000030: d50a 20ba 7da7 073d 226c 1bba d45c 3aba
00000040: dc4c 9d3c 91f3 ef3d 5dc3 9dbd 38cd 00bd
00000050: 1eab 37bd 98b2 7dbb 58fa 05bb 56dc f13c
00000060: b6a2 3cbc c86e 54bc a7f6 23bd 58e3 71bc
00000070: d956 ad3d 9be1 3cbd 126b 7bbd de66 80bd
00000080: 6574 14bc 4c9f 733d 32c5 6e3c d413 4c3c
00000090: 5eec c63c 5a1c bfbc 6a73 e33d 999a 323c
000000a0: b460 d43d d395 da3c 62a1 36bb 8875 4fbd
000000b0: 42a2 6c3d 99c2 efbd f219 88bc a7ce e13c
000000c0: 1b64 463c 72e2 81bd 3137 9c3d fe34 973d
000000d0: 5ffd 703d c1d8 cc3c f10e 3ebd 4117 97bd
000000e0: f740 e03c 0d81 c03c 5e5a 923a 243a 57bd
000000f0: 6a2d a6bc 6872 da3d 82e2 6fbc 888c b4bd
00000100: 2901 a63c 25c8 893d 10f7 d3bc ad3f 413d
00000110: bcf5 be3d bfb4 48bd ecd1 8d3c 059b 2cbb
00000120: c489 febc 6e04 71bc d04b 0fbd a36c 21bc
00000130: 4e23 e3bc 9592 5dbd a4ae a93c 0de6 9cbc
00000140: 5569 d63b 62e6 5abd a2ea 6f3d 0f7d 6a3d
00000150: 1335 953b e7a2 13bc fb5b ca3a f35d 39bd
00000160: de94 e13d bd0e c33d 31bd 783d cf2b fdbb
00000170: f6d4 2abb 979c cf3d 9cc9 ca3d 8430 ae3d
00000180: 79ae debb c0c5 dbbd cbaa 303c f221 4e3b
00000190: de50 a6bc 06b0 1d3d 819b b7bd b88e 93bc
000001a0: f8f4 a73c 77c0 8c3d a731 46bb 7b30 74bb
000001b0: 3588 38bd 09bb 993d 5b53 8cbc 417b 00bd
000001c0: 02b9 3abb d64b 94bb c2cf 9cbd ad48 023c
000001d0: 9f33 69bd c0b3 8d3c 7e24 a73d 12a8 873d
000001e0: c281 bfbc d2cb 7dbc 320c 26bd 7496 513c
000001f0: 5d5e d2bd 37a0 88bd 89f6 113c b317 23bc
00000200: e602 7ebc f598 74bd 094d a03b 760b 3ebd
00000210: aa2d 023d 8703 0b3d b8c4 adbc 4efa f2bc
00000220: 39de 8dbb 90ed ca3d d04c 00bd 194a 1f3c
00000230: 38df d13b c1c8 5d3d fbd3 66bc acfa 5e3d
00000240: e0a5 403c c014 e13b 8925 45bd fc93 b63c
00000250: e85b 4dbd 4111 7c3c 6a2f 25ba 3d43 303d
00000260: 5018 1dbd 4852 b9bd 118c 16bc 7f92 09bd
00000270: f20f 703d f78e b0bd 9cda 9ebc 5385 41bd
00000280: 5621 b43b 70f5 1b3d 0627 af3a 9b9c 483c
00000290: d40d 6a3d dc6b 0e3d d6f2 8a3d b88c 703c
000002a0: 3a8b 6dbc 2dc2 233d 8d0d 213d a1ba 55bd
000002b0: cac0 3b3d 5abf ae3b 113d 1cbc 2b97 d63c
000002c0: da0d e03c 5411 c7bd ca8a fc3c 238f 3c3d
000002d0: 8c4a e43c b2f4 8d3d 1cd3 4bbd 6353 b43c
000002e0: 4cc2 e33c c3e2 1c3d 9d72 bebc 6b07 133d
000002f0: 90f7 48bd 8558 2b3d ecff 6cbc d635 653b
00000300: 6326 24bd 11e0 cdbd e700 b83d 6374 0c3b
00000310: 8c72 62bd e8d1 e63d b877 31bd ab53 d4bc
00000320: 8f84 df3c 2992 8e3d c987 993b b52b a53c
00000330: b5ca c8bc 5f9a aa3c 896f e9bc ceee b63d
00000340: 3441 933d ae92 2d3e c372 f2bb be89 91bb
00000350: 4e0d 09be ee6a 973b a037 5bbc 9842 5e3c
00000360: efa5 3abd c435 b5bd 8bca 97bc 58a4 56bd
00000370: bd8c 7e3d 19ea 0bba f539 04be 393e ffbd
00000380: 03d4 a5bc 5247 933d 4c02 3bbd 1705 153d
00000390: b3e0 0b3e 9d29 61bc 6a0d 2d3d f336 f53b
000003a0: 0994 243e b5db 1abd 37f6 6abc bdd5 cebc
000003b0: edd1 b83d 6447 d7bd aad8 c7bc a801 163d
000003c0: fe30 a4b9 1888 08bd 83b4 7e3d 0316 d33c
000003d0: 112f 67bc 708e dd3d ccb0 cfbd 3aeb 8abc
000003e0: e10c 733d 19ae 913d a02a 16bd 72ba 973c
000003f0: 2fff 03bb e85c dc3d 261e d9bc 206e 98bd

attention.fc1.bias f4 [32]
0.0984919 0.0155290505 0.00721608 -0.06786107 -0.063549556 0.0022324778 0.069130324 0.169386
-0.24655773 -0.07975153 0.06102263 -0.055687353 0.034653913 -0.10519139 -0.084353186 0.016256528
-0.14076637 0.09359728 -0.13309596 -0.119500466 0.084207416 0.11041728 0.042297926 -0.08152455
0.1028252 -0.15516238 -0.14711177 -0.052241057 0.11847793 -0.08441691 -0.058423657 -0.023434347
00000000: 1fb6 c93d 8f6d 7e3c de74 ec3b bffa 8abd
00000010: 4526 82bd c34e 123b 3394 8d3d 8673 2d3e
00000020: a179 7cbe c554 a3bd def2 793d 6c18 64bd
00000030: 43f1 0d3d 956e d7bd 5dc1 acbd 692c 853c
00000040: 0f25 10be eeaf bf3d 4f4a 08be a9bc f4bd
00000050: f074 ac3d 7422 e23d 9740 2d3d 58f6 a6bd
00000060: 0596 d23d e3e2 1ebe 78a4 16be b8fa 55bd
00000070: 8fa4 f23d c6e2 acbd a54d 6fbd 63f9 bfbc

attention.fc2.weight f4 [4, 32]
-0.05141715 -0.220462 0.07361143 0.25411034 -0.016996114 0.032077104 -0.124379 -0.26611435
-0.1429905 0.20630556 0.18738832 0.032954153 -0.16888969 0.23175758 -0.04108168 -0.20629266
-0.17424105 0.06399586 0.23962553 -0.04168562 -0.1568748 0.17204611 -0.14876528 0.17972618
0.0131490985 0.119782396 0.15605028 -0.032994732 -0.033951722 -0.1412616 0.02431116 0.13898107
0.17568138 -0.21119644 0.0006649842 0.23968907 -0.17779009 0.17360303 -0.21398003 -0.2598487
-0.080554664 0.23465037 0.07686448 -0.2383767 -0.1502111 0.1933383 -0.05658173 -0.14214525
0.043534227 0.2512907 0.1589462 -0.2841076 -0.19492687 0.20590146 -0.110752486 0.18444477
0.13645232 0.2704878 -0.068531014 -0.07867896 0.21217492 0.06618833 -0.2545876 0.05535141
-0.26158428 0.0026441843 -0.20542322 -0.1481049 0.17507944 -0.23766027 0.066778764 0.21451785
0.2732382 -0.15533856 -0.16083059 0.24241409 -0.008163385 0.021504829 0.20101802 0.031704206
0.1674732 0.0023633763 0.05676466 0.2464306 0.048449602 -0.18553719 -0.09028745 -0.2195956
-0.24755393 0.027792623 0.04374156 0.13304001 -0.19094402 0.12092371 0.13270116 0.029498538
0.2114205 0.022861825 0.07633417 0.15602484 -0.19702515 0.22050941 -0.11091357 -0.21342348
-0.21701194 0.04470704 0.21957542 -0.27355954 -0.25958937 0.19616015 -0.2003807 -0.22773042
-0.19108246 0.17034757 -0.01941848 -0.26592946 -0.23152053 0.057936072 0.0742189 0.119466506
0.2251127 0.1553611 0.13277738 0.004708404 0.20147043 -0.043906737 -0.13468143 0.19526452
00000000: ca9a 52bd cac0 61be 97c1 963d c01a 823e
00000010: 6f3b 8bbc 4863 033d 6bba febd 2440 88be
00000020: 1a6c 12be c441 533e b9e2 3f3e effa 063d
00000030: 6bf1 2cbe dc51 6d3e 4445 28bd 623e 53be
00000040: 3f6c 32be 4310 833d 6560 753e 8abe 2abd
00000050: caa3 20be db2c 303e ed55 18be 240a 383e
00000060: 516f 573c 7950 f53d a5cb 1f3e 7c25 07bd
00000070: f610 0bbd e2a6 10be 3328 c73c 0e51 0e3e
00000080: d2e5 333e e143 58be 5652 2e3a 0d71 753e
00000090: 9b0e 36be fec4 313e 951d 5bbe e40a 85be
000000a0: d8f9 a4bd 3048 703e 206b 9d3d 0619 74be
000000b0: f0d0 19be 7afa 453e 3ec2 67bd 868e 11be
000000c0: f250 323d 2da9 803e cbc2 223e 8d76 91be
000000d0: e99a 47be d5d7 523e 33d2 e2bd 17df 3c3e
000000e0: 28ba 0b3e 607d 8a3e fd59 8cbd 6f22 a1bd
000000f0: 6244 593e bf8d 873d 4e59 82be 29b8 623d
00000100: 60ee 85be 0d4a 2d3b 775a 52be d0a8 17be
00000110: 0648 333e 375d 73be 4ec3 883d 91aa 5b3e
00000120: e1e5 8b3e 1211 1fbe c6b0 24be 663b 783e
00000130: b8bf 05bc e52a b03c abd7 4d3e 45dc 013d
00000140: 187e 2b3e e0e2 1a3b 0f82 683d 4e58 7c3e
00000150: 1773 463d 76fd 3dbe a0e8 b8bd abdd 60be
00000160: c77e 7dbe 5bad e33c 5a2a 333d a43b 083e
00000170: d486 43be daa6 f73d d0e2 073e eba6 f13c
00000180: 9e7e 583e b948 bb3c 1755 9c3d fac4 1f3e
00000190: f6c0 49be 38cd 613e a726 e3bd af8b 5abe
000001a0: 6138 5ebe bb1e 373d 61d8 603e ff0f 8cbe
000001b0: e6e8 84be 35de 483e 9930 4dbe 2a32 69be
000001c0: 1fab 43be 986f 2e3e 8113 9fbc e827 88be
000001d0: b813 6dbe 604e 6d3d 1400 983d dbaa f43d
000001e0: f283 663e fb16 1f3e cbf6 073e f548 9a3b
000001f0: 444e 4e3e 8dd7 33bd eee9 09be 6cf3 473e

attention.fc2.bias f4 [4]
-0.0045722774 0.16134812 0.02862134 -0.16228
00000000: 0bd3 95bb 7138 253e 4d77 ea3c ba2c 26be

fc_final.weight f4 [1, 64]
-0.0425121 -0.061230738 -0.081594944 -0.035603628 0.006617426 0.015870668 0.050831925 -0.0048122215
0.02196328 0.12655444 0.03034445 -0.04480084 0.04743138 0.025502086 0.009822982 0.059641343
0.06368089 0.085795656 0.056159526 0.043191142 0.016067632 -0.04726255 -0.013308945 0.0787478
-0.04296431 0.028828828 0.06494213 0.026134692 0.01454285 0.094116844 0.0104893455 -0.065255664
-0.022187378 0.1238917 0.010146625 0.015591825 0.021267746 0.043252595 0.04366065 0.01864903
0.014843782 -0.07934745 0.020815069 -0.09245232 0.016140202 -0.041066285 0.08790325 0.01895625
-0.015165018 0.07442082 0.035036493 0.015221651 0.021517472 0.07735502 -0.03196352 0.021432035
0.02188303 0.0214705 -0.10269205 0.12353162 0.12586085 0.031188874 0.012760397 0.0109959785
00000000: 2b21 2ebd 15cd 7abd 401b a7bd 1cd5 11bd
00000010: fed6 d83b 3403 823c 2335 503d d7af 9dbb
00000020: 56ec b33c 7d97 013e ed94 f83c 1681 37bd
00000030: 6847 423d c0e9 d03c 93f0 203c 7b4a 743d
00000040: 206b 823d a2b5 af3d 8807 663d 32e9 303d
00000050: 44a0 833c 6096 41bd c30d 5abc 8746 a13d
00000060: 58fb 2fbd 6f2a ec3c 6100 853d 6c18 d63c
00000070: 2245 6e3c 55c0 c03d 81db 2b3c c3a4 85bd
00000080: 4ec2 b5bc eeba fd3d 083e 263c db74 7f3c
00000090: b239 ae3c a229 313d 82d5 323d dac5 983c
000000a0: 5633 733c ea80 a2bd 5d84 aa3c a457 bdbd
000000b0: 7538 843c 1f35 28bd 9e06 b43d 234a 9b3c
000000c0: b276 78bc f169 983d 6d82 0f3d 3b64 793c
000000d0: 6945 b03c 4f6c 9e3d 2eec 02bd 3c92 af3c
000000e0: 0a44 b33c e7e2 af3c 3650 d2bd 25fe fc3d
000000f0: abe1 003e cf7f ff3c fc10 513c 7a28 343c
