Model_OGT/Fold3_best_model.pkl (torch_old, 197263 bytes, 13 tensors)

gcn.gc1.weight f4 [118, 256]
00000000: 482e 34bb b63d 023d 4f4c e1ba ce2f a8ba
00000010: 2c82 3fba 0e11 0cbb b66b 6aba e638 19bb
00000020: 0ed8 f33c e6de cfba 0440 d1ba 4eab ce3a
00000030: 721c 123c 8242 73ba 54ca 9fbc 35a6 fb3b
00000040: f2aa f3ba adfb c4ba 697d 99ba eb39 953a
00000050: 5243 37bd 27f7 a7ba fc67 8aba c64f dbbb
00000060: 033c 113d a569 caba 2693 2e3c 4a85 68bb
00000070: d810 07bb 520c 2bbb a08c a5ba 9bb2 e3ba
00000080: ba20 19bb f5b9 1abb 77da 0aba db55 a1ba
00000090: d870 0f3d 1927 28bc 9acf 6abc 25bb 15bb
000000a0: 8f00 0c3b 98d0 cfba 8281 05bb 1f1b 69ba
000000b0: ae35 283b a701 14bb e130 b3bb 3fcb 1cbb
000000c0: 945d 11bb 2e0f 4cbc c3f0 09ba 05af 9bba
000000d0: 6e41 1cbb d4c8 07bb 1acb b5ba fbeb 2ebb
000000e0: 3c77 aeba c08b 45ba 4280 bb3b de06 92ba
000000f0: 9d9b dcba 16eb ad3c 6acb da3b 873e 9d3b
00000100: 40f1 e33c 4ed9 c1b9 1811 ecba d131 283c
00000110: a342 15bb 568a 89ba 2679 0a3c 68fa 44bb
00000120: 2a33 78bc d844 b9ba baa4 d2bc 2f89 763a
00000130: 7083 97ba 75e4 00bb 63f9 d83b 52aa 7cba
00000140: 587b 60bc c2f2 03ba 9d4b 15bc 9dc6 88ba
00000150: cbba a93c 3551 75bc e156 80bc 4f82 27bb
00000160: 8891 e93b 69da 873c d818 0fbb c4e2 45bb
00000170: deeb 91ba 4381 eaba 1ec4 433a a9c4 113c
00000180: e417 8c3b 3bf3 a5ba 40f4 10bb 88b1 64ba
00000190: 8645 453c 7d7b 07bb 7b90 4dba ebf4 22bb
000001a0: a1ac 60ba 539d 35bb 0402 bbba 8563 ca3a
000001b0: a059 18bb 0562 0bbb 99aa b43a 08fc 793c
000001c0: a2fe a5bb 8349 84ba c9b1 87b9 b300 b3ba
000001d0: c139 42ba bd72 9cba c940 97ba 139b 69b9
000001e0: 615e 63bb d650 a3bc a85a 8eba 071d b3bc
000001f0: 66ce 10bb a986 bfba 10aa e43c 0e25 b4ba
00000200: d419 bcba 0c96 73ba 2ac0 fbba f054 b8ba
00000210: 4f20 04bc 06ca cc3a c172 7dba 5ce5 5fba
00000220: e9c4 dbba e72c c0ba 503f 0aba 8c6f deba
00000230: 00df 1dbc c7e0 a6ba 23d9 33bb e515 30ba
00000240: bc29 e4ba d38c 8c3d 0514 abba 9701 8fba
00000250: 3693 c8ba 58ba ab3a 16ff 40ba 153f 05ba
00000260: 8158 46ba 673d 6eba d326 9dba 9644 9fba
00000270: 848c 08ba 60e9 943b 14c6 9bba 2eb9 a8ba
00000280: 5889 96bc 3d9f e2ba 8299 f83a c796 00bb
00000290: db10 9aba a4f1 b7ba f9ca 11bc c2c2 a9ba
000002a0: 9489 c5bb 12d5 c3ba 5f90 deba 6a61 b2ba
000002b0: 820c 61bc d381 c3ba 3233 2f3b 7e74 773b
000002c0: 920c 163c 0763 203b 8e68 1bbc 223b 533a
000002d0: 05cb 1bbb 2753 ca3a 1ce8 9cbb a8ae 5bb9
000002e0: 4943 56ba a58c b93b 69ad 83bb c63f fdba
000002f0: 2fe6 07bb ff86 1f3b c324 6cbb 8e71 db3b
00000300: 1013 c5ba 9c23 0d3c 0bc3 95ba 9e49 31b9
00000310: 09e0 943c 077c 08bb 8388 d3ba b099 20bb
00000320: e0c2 5cba 7a91 73bb 0615 dcba 3187 083b
00000330: 8580 97ba 5331 6bba b2c2 5bba 7799 973c
00000340: 4814 5038 53e0 c9ba 8a15 04bb 3b9e 4aba
00000350: 9d66 ceba de70 07bb dbe8 28ba 0b4d fb3c
00000360: 5fbc 9f3c e0dd e93c ec32 9bba 034e 37bb
00000370: 5e7c 32bc 607e 173c 2b7a 53ba 0f29 06bb
00000380: 0b7b 793b 3ac2 d8ba d0a2 caba e093 08ba
00000390: 6050 23bb 1318 aaba 70b5 66bc cd09 06bb
000003a0: 1473 feba 7446 ccba b09c c9ba afd1 ac3a
000003b0: 0021 c5ba 4978 e4ba a820 bb38 da3c 3ebb
000003c0: 9093 49bb 56b0 efbb 7c01 eaba 7276 d23c
000003d0: 7fd0 a0ba ccb7 d3ba 5ad5 49ba 6856 10bb
000003e0: ec7e 63ba 04ef daba 2ddd 69bd a490 15bb
000003f0: 105b 033d bed8 c73a 3230 0e3b dc72 de3c
-0.0027493406 0.031797133 -0.001718888 -0.001283163 -0.0007305469 -0.002137247 -0.0008942442 -0.0023379861
0.029766109 -0.0015859276 -0.0015964513 0.0015767606 0.008917915 -0.0009279625 -0.019505657 0.0076797255
-0.0018590374 -0.0015028619 -0.0011710349 0.0011385059 -0.044741936 -0.0012814746 -0.0010559554 -0.0066928593
0.035457622 -0.0015442861 0.0106552 -0.0035479837 -0.0020609405 -0.0026099873 -0.001263041 -0.0017371954
-0.0023365454 -0.0023609374 -0.0005296836 -0.0012308912 0.035019726 -0.010263228 -0.014331723 -0.0022847143
0.0021362638 -0.0015855012 -0.0020371382 -0.0008892286 0.0025666761 -0.0022583993 -0.0054684733 -0.0023924855
-0.002218102 -0.012454791 -0.00052620115 -0.0011877721 -0.002384271 -0.0020719068 -0.0013869733 -0.0026690948
-0.0013310681 -0.0007535778 0.0057220766 -0.0011140963 -0.0016831044 0.021230262 0.006677081 0.0047987136
0.027824998 -0.00036973733 -0.0018010465 0.010265783 -0.0022775314 -0.0010493498 0.008451736 -0.003005648
-0.015148917 -0.0014134897 -0.025713313 0.0009404597 -0.0011559557 -0.001966742 0.006621526 -0.0009638417
-0.013701282 -0.0005033427 -0.009112266 -0.0010435168 0.020718953 -0.014972975 -0.015666427 -0.0025559848
0.0071279444 0.016583638 -0.0021834876 -0.0030194977 -0.0011132916 -0.0017891306 0.00074678834 0.008896985
0.004275309 -0.0012660989 -0.002211824 -0.0008723964 0.012040501 -0.002067297 -0.00078416587 -0.002486522
-0.00085706456 -0.002771218 -0.0014267568 0.0015441036 -0.002324678 -0.002126814 0.0013783752 0.015257843
-0.005065755 -0.0010092709 -0.00025881667 -0.0013656825 -0.00074091187 -0.001193605 -0.0011539693 -0.00022278381
-0.0034693705 -0.019936007 -0.0010860758 -0.021864427 -0.002209568 -0.0014612275 0.027913123 -0.0013743953
-0.0014350959 -0.0009292073 -0.001920705 -0.0014063399 -0.008064344 0.0015624173 -0.0009668284 -0.0008540952
-0.0016767058 -0.001466182 -0.00052737165 -0.00169705 -0.009635687 -0.0012731784 -0.0027442656 -0.000671713
-0.0017407457 0.068627976 -0.0013052231 -0.0010910508 -0.0015302661 0.0013101799 -0.00073622295 -0.00050829473
-0.00075662887 -0.0009088129 -0.001198972 -0.0012151178 -0.0005208927 0.004544422 -0.0011884593 -0.0012872571
-0.018376037 -0.0017289888 0.0018966647 -0.001962112 -0.0011754291 -0.0014033807 -0.00889849 -0.0012951719
-0.0060283635 -0.0014940819 -0.0016980282 -0.0013609354 -0.013735892 -0.001491601 0.0026733396 0.0037758644
0.00915827 0.0024473087 -0.009485377 0.00080578227 -0.0023772132 0.0015436158 -0.004788412 -0.00020950532
-0.00081734784 0.005662518 -0.004018475 -0.0019321374 -0.0020736565 0.0024341939 -0.0036032654 0.0066968864
-0.0015035588 0.008614447 -0.0011425925 -0.0001690746 0.018173235 -0.002082588 -0.0016138706 -0.0024505667
-0.00084213726 -0.0037165568 -0.0016790933 0.0020832533 -0.0011558688 -0.00089718885 -0.0008383199 0.018505795
4.9609953e-05 -0.0015401937 -0.002015444 -0.00077292667 -0.0015747134 -0.002066664 -0.00064433896 0.030676385
0.019499002 0.028548181 -0.0011840737 -0.0027970083 -0.010893909 0.009246439 -0.00080672157 -0.002047125
0.0038067724 -0.0016537376 -0.0015459899 -0.00052100234 -0.0024919733 -0.0012977145 -0.014081344 -0.002045262
-0.0019412958 -0.0015584962 -0.001538178 0.0013185049 -0.0015039742 -0.0017430867 8.9229376e-05 -0.002902797
-0.003075812 -0.007314722 -0.0017853226 0.025691245 -0.0012269168 -0.0016152798 -0.00076993334 -0.0022024158
-0.00086782756 -0.0016703312 -0.057095695 -0.0022821808 0.032069266 0.0015247089 0.0021696207 0.027154379

gcn.gc1.bias f4 [256]
00000000: 6f24 003d 245e 2ebc 6b3b 3f3d 163b 9c3c
00000010: a221 8b3b 8710 4a3d 6699 243c 1b8c 233d
00000020: 8941 33bd 236f d33c 14d0 d33c 6820 3b3d
00000030: 5e63 3c3d c2c1 2d3c 5d2d 01bc 2ecf 133d
00000040: cc7c fc3c 913f bc3c ab76 893c 0174 fc3b
00000050: e8d4 5ebb d6fe 183b b5d3 d0bc 6558 193d
00000060: 5f81 67bb f046 cb3c c396 133d 024a 743d
00000070: 0fc5 0f3d dc89 283d b25e 9a3c 1c96 403d
00000080: 629c 233d 0791 243d ad8a afbb 11d5 933c
00000090: b1b9 233c b08b 65bd 39de 23ba 06a5 1b3d
000000a0: 2c25 003d 6d3d d33c a3e9 0b3d 21db 0c3c
000000b0: cba1 f23a 6fc9 1c3d 99d3 493d 3291 283d
000000c0: 7cf4 213d 0583 43bd 45e8 b63b df08 8c3c
000000d0: 5525 263d e7d7 0e3d 1016 aa3c 81e3 3b3d
000000e0: a83a 613c 2b22 a63b 778b 273c 55e3 773c
000000f0: d57b fd3c abec d03c 30a7 aabc a65c 2d3d
00000100: 9015 0ebd a67f d73a 0f8d 30bd e801 6d3c
00000110: 6dbf 223d bb8e 623c a6cd 883c f979 d03c
00000120: ee5b 15bd b3d2 b33c 1a73 15bd 70c7 b13a
00000130: e6ce 263c df83 063d 1707 1fbc 71d8 3d3c
00000140: 23af cf3c b0e0 2dbc 70aa 063d 820e 603c
00000150: 3aba c7bc 8432 cc3c 4ecd 973c 7412 333d
00000160: 56f2 34bd 1364 d73c 3f62 1a3d 951d 773d
00000170: c8f0 7b3c b1cc d93c d3e6 213d d28c 073d
00000180: 5cfe c8bc 52a8 9a3c aa35 193d 0add e83c
00000190: da87 e0ba a558 123d 5755 c83b 261c 2e3d
000001a0: 07da 8b3d c66d 433d fcc5 013c ea3b 0fbd
000001b0: c4cb 213d 4dbe 123d 71c7 29bc ba0f da3b
000001c0: fce6 d63c 94c9 513c 744a 243c 388b c83c
000001d0: f344 a03b 8117 8d3c eb1e 2e3c a904 05bc
000001e0: 1ed8 203d cba0 cdbc 24fc 843c bd37 f23c
000001f0: 463d 203d 6612 bd3c d9ab 45bc e2dc 2f3d
00000200: 8c6e b83c 048e 303c f3e9 853d 201a b33c
00000210: c328 aa3d e074 013d ea8c 3e3c 41e3 ecbb
00000220: 0793 e03c 8a57 bd3c fdda 61bb 40b6 e23c
00000230: 1597 1b3d 72bc 9b3c 6c1b fdbc 5873 e93c
00000240: 46f7 ea3c ee16 e8bc 2159 a13c 7a4e ee3c
00000250: e8a7 c93c 821b 603b 4a00 b83c 1b52 adbb
00000260: 971a b23b c574 1b3c 117d 8d3c 06f5 863c
00000270: 8fcc 19bb 5d1e 5e3d f7cc 8b3c 585d e6ba
00000280: af77 19bd 72da e73c 96a6 613d 30eb 053d
00000290: ed41 8a3c 5f97 a73c af64 02bd b0c8 a43c
000002a0: fc52 673c 4d86 be3c 7f4c e03c 1340 ac3c
000002b0: 6c00 e53c d522 c03c 1dd4 fbbc 9ad3 ab3b
000002c0: f9c6 27bd 0898 6b3d b47e 17bd 588e b73a
000002d0: 6077 303d 0879 0bbc 6484 09bb 1794 2f3d
000002e0: ccec f13b 23be 33bd 6054 7a3d 24ec 763d
000002f0: 9787 003d 48a6 1a3d 3036 3f3d 512f 743d
00000300: 16fd 21bc 5aee 73bc 6e15 8c3c 5062 00bc
00000310: 1adf 8b3c d3e4 0f3d 39b3 053c 7b21 2b3d
00000320: bf1a 193d 2779 7e3d c06c e13c fa75 68bd
00000330: 3c85 803c 61df 1b3c d4c5 9c3c b70a fa3c
00000340: 2d59 a4bc 0d0c 8a3d 1946 963c 6758 ae3b
00000350: f3ff cf3c 1762 0e3d f3fa 01ba fe2c a43c
00000360: 3192 d6bb 395b 9dbc 35cc 1e3d 9568 403d
00000370: 9bd2 2ebc 1dfe 4d3d 223e ea3b 0593 283d
00000380: 96f7 1d3d 7656 dd3c 5239 cb3c 1be2 2a3d
00000390: e8e8 343d 3160 a03c 2a41 993c ffcf 0c3d
000003a0: 39ed 423d 8db2 c73c 6397 cb3c b22d 803d
000003b0: 46b1 c33c 3468 e93c 9af3 ff3c cfcb 513d
000003c0: 7304 593d a29e 803c 4397 f03c cf79 443a
000003d0: 263d 903c 014d 203d c855 68bb 92bd 183d
000003e0: 2f3f 0f3c f418 dd3c 1754 053c e976 213d
000003f0: acc5 98bb 5d8e e83c 0f51 953c cc5a 263d
0.031284746 -0.010642562 0.046687525 0.019071143 0.0042459527 0.049332168 0.010046339 0.039928537
-0.04376367 0.02580983 0.025856055 0.045685202 0.0459932 0.0106052775 -0.007884351 0.036086254
0.030821227 0.02297953 0.016780218 0.0077042584 -0.0034001414 0.0023345253 -0.025491575 0.037437815
-0.0035324914 0.0248141 0.03603245 0.05964089 0.03510004 0.041147098 0.018843982 0.047018155
0.03994406 0.04017737 -0.0053571076 0.018045934 0.009993003 -0.05604142 -0.00062510703 0.037999175
0.03128545 0.025786126 0.03415836 0.008597166 0.0018511353 0.03827804 0.04927406 0.041154094
0.0395398 -0.04773237 0.005581888 0.017094074 0.040562946 0.03487387 0.020762473 0.04587126
0.013746895 0.005069991 0.010226122 0.015129884 0.030942837 0.025503477 -0.020831674 0.042324685
-0.034688532 0.001644124 -0.043103274 0.0144657865 0.03973334 0.013827975 0.016699623 0.025448786
-0.036464624 0.021951055 -0.036486723 0.0013563465 0.010181164 0.032840606 -0.00970628 0.011587248
0.025352066 -0.010612652 0.032877386 0.013675334 -0.024380792 0.024926431 0.018530514 0.04371877
-0.044176422 0.026292836 0.03769135 0.060330946 0.015377231 0.026586862 0.03952677 0.03309328
-0.02453535 0.01887909 0.037404694 0.028425712 -0.0017130331 0.03572907 0.006113689 0.042507313
0.06828695 0.04771211 0.007920738 -0.034969248 0.039500967 0.035826016 -0.010362492 0.006654707
0.026233189 0.012804408 0.010027517 0.024480447 0.004891032 0.017223122 0.010627489 -0.008118787
0.039268605 -0.025101086 0.016233511 0.029567594 0.039120935 0.023080062 -0.012064897 0.04293526
0.02251365 0.010776047 0.06538763 0.021863043 0.08308556 0.0316056 0.011630276 -0.007229239
0.027413858 0.023113031 -0.0034462803 0.027674794 0.03798588 0.019010756 -0.030896865 0.028497383
0.028682362 -0.028331246 0.01969582 0.029090155 0.024616197 0.0034196083 0.022461075 -0.0052893288
0.0054352987 0.009488289 0.01727155 0.016474258 -0.0023467874 0.054228175 0.017065508 -0.0017575426
-0.037467655 0.028302405 0.05509051 0.032694995 0.016877139 0.020457922 -0.0318343 0.020115227
0.014118906 0.023257399 0.027380226 0.021026647 0.027954303 0.02345411 -0.030740792 0.0052437307
-0.04096124 0.057518035 -0.036986068 0.0014004214 0.043082595 -0.008512743 -0.0020983452 0.04286584
0.0073829647 -0.0438825 0.061115623 0.060283795 0.03137931 0.037756234 0.046682537 0.059615437
-0.009887001 -0.01488837 0.017100062 -0.0078359395 0.017074157 0.035130333 0.008160406 0.041779976
0.037379023 0.06212726 0.027517676 -0.056753136 0.015688531 0.009513707 0.0191373 0.030522687
-0.020062054 0.0674058 0.018343972 0.005320597 0.0253906 0.034761515 -0.0004958354 0.020040985
-0.006548189 -0.019208537 0.038768966 0.046974737 -0.010670329 0.05029117 0.00714852 0.041155834
0.038566194 0.027018767 0.024807606 0.041719537 0.04416743 0.019577118 0.01870783 0.034378048
0.047589514 0.024377132 0.02485246 0.06258716 0.023888241 0.02849207 0.031244088 0.051219758
0.05298276 0.015700642 0.029369002 0.00074949575 0.017607283 0.039135937 -0.003545152 0.037290163
0.0087430915 0.026989438 0.008137724 0.039420042 -0.004662236 0.028388197 0.018227128 0.040613934

gcn.ln1.weight f4 [256]
00000000: 7149 913c d2e8 773e 2308 463d 9b00 3536
00000010: 9390 ef31 a4c2 1d3d 75ce d435 cb9e a936
00000020: 81c5 633e 3a85 aa36 eb7b d12b ef00 e03d
00000030: 6cad 803e 39bc 70b5 207e 3f3e 374d e43e
00000040: c2de f5a7 11c5 be36 7a4d 6932 0a89 983e
00000050: f2c0 bb3e c600 2b3e 43ff b93c 5ad4 cc3e
00000060: d1b8 a83e 08a0 5a2f b74a 263e dd91 f43c
00000070: f327 9038 b344 ba3d 9413 beb2 1173 8d3d
00000080: 0c2f bd37 5d4b b934 34f7 713c 73ff d3aa
00000090: 4845 4c3e 9f87 a13e 189f 0a3e 8099 4c39
000000a0: 08f0 6c3d b783 9bb5 a4ec ab31 6f61 962b
000000b0: 79d6 c53d 2307 dd31 b0f1 a53e ced4 ec39
000000c0: 4c7b 903a 1524 213e 3a7f ca3b 7c6f 80ab
000000d0: fbad c434 75b1 292f 9a87 d82e f264 0c39
000000e0: 0b10 273c 9072 9cb5 e106 8a3e 9d03 05b4
000000f0: 5fa5 483b db51 a43e c413 5a3e 6087 b43d
00000100: c5ab 5c3e 3ee1 4b3c 34b8 4b3e 31b5 423e
00000110: 483d 6a3b 5902 53a3 af18 753e 7b72 a43e
00000120: 2363 1c3e 9190 d9a6 df9f 7c3e deb1 eb3c
00000130: c84a 8539 682b 86a8 7392 c13d 4ad0 a128
00000140: 1739 a93e e4d1 a73c 740f 8b3e 96fa ca35
00000150: 93b0 6d3e 1eed 8c3e 088d 2f3e 67a8 8537
00000160: 734b 853e 039a 803e ea67 6f3c 3aa3 1b3c
00000170: 589f 98ae f83d 1939 0ed6 123d f66b d93e
00000180: 687e 803d 862e fea7 a6e4 4d30 8470 963c
00000190: 3953 233e 4951 b1b7 c025 f3b0 c650 1d37
000001a0: 1ad9 8d3d 7ce5 b839 2ba7 9c3d 5fd8 4c3d
000001b0: 29f4 d133 98fc 77b1 a466 d23d b113 213e
000001c0: ee44 973e 2099 cc34 9942 0d3d 6b1c 8b3b
000001d0: fcc8 16b8 09b7 02b6 6144 683e fb0b ee3b
000001e0: a863 a33c 8606 853e f4aa 863c 901c d43e
000001f0: 4735 c03d a6d3 7328 d62a af3e 3ad1 b63c
00000200: 65d1 e922 d9f5 0ea4 5a79 413d 4ff0 81a1
00000210: cbe5 b33d 54a6 693e 39a5 8221 1c67 693d
00000220: f308 e929 70d7 c331 0e3e 1a3a cc90 ff35
00000230: 231e 8e3e b856 829d 5bf3 3f3e 861f a93c
00000240: 9733 ca2d 0d38 7f3e 7bfe f5a0 db1a 483c
00000250: b994 0237 30b3 b33d 8a2e 7b3d bcd7 c738
00000260: 0a5d 7938 1c18 ecb3 81b8 94a9 5d83 26b3
00000270: ca15 593b 8c68 8b3d 3698 2bb4 412d cc3c
00000280: e1d7 1d3e 75cc 2c39 9f12 833d e37c 5b33
00000290: 3b54 509f ff8e 6339 68ae 9a3e f0ee ad3b
000002a0: d3cb 203e dd7c f935 4ec3 cf32 fccc 0637
000002b0: bb7a 283e b3ba 97af 0de9 cf3d d8b2 a83e
000002c0: d9bb 293e e117 bd3d 82f0 ea3d 503f cc3c
000002d0: d276 333b a504 6c3e 56af c93d 9192 023d
000002e0: c8f5 2cae 2de4 2f3e 26bf ee3d ebf5 323d
000002f0: 78df 833c 7c32 a13d 35f2 b63d ea12 013e
00000300: dee7 2c3d 336c 793e 023c 3b3b 6a83 453c
00000310: 9471 203e 3e7b a832 2a05 213d 1be2 1536
00000320: d6a0 ad3d 2b9c a33d ac31 b62e 8d71 7a3e
00000330: a462 b7b7 58de 61a3 0cc9 eb3c f45e 6c3e
00000340: f3dd bc3d b67f 113d 9e31 893a eb8e 5a37
00000350: 4c21 2c27 6a8c f931 9f6f ce34 bfa4 4e3e
00000360: b3fb 4b3e 5181 853e 03cd 613c 198a 183a
00000370: 6389 233e e047 843e 5d33 9e34 1513 c83b
00000380: dd9c d53d b2cc 412e b5a8 9931 d86a 7d3d
00000390: 810e 6b3b 6db6 d99e 73a4 8f3e 9a01 2130
000003a0: 9a96 0f3e fe6a 2138 ab84 7535 c120 503e
000003b0: a031 9b25 51fc d9ab 7f58 163e fb4e a63a
000003c0: 7d5f ec3a e8c9 9e3e 789a 3839 cafb 8f3e
000003d0: 8aea ccae 0c93 673c ddfa b63d 5204 8831
000003e0: d0ef 4bae 6104 3c37 4a3f f83e 6fe0 b339
000003f0: 38e7 343e 7689 4e3d d16c a23e 72e3 f73e
0.017735215 0.24209908 0.048347604 2.6971454e-06 6.9722517e-09 0.038515702 1.5855318e-06 5.0550784e-06
0.2224331 5.0819044e-06 1.4884737e-12 0.10937678 0.2513231 -8.968087e-07 0.18700457 0.4459016
-6.8242675e-15 5.685383e-06 1.3580001e-08 0.29792053 0.36670643 0.16699514 0.022704726 0.4000576
0.32953504 1.9883839e-10 0.16239439 0.02985471 6.873896e-05 0.090951346 -2.2127814e-08 0.06906713
2.2552464e-05 3.451377e-07 0.0147684105 -3.7658383e-13 0.19948304 0.31548783 0.13537252 0.00019512139
0.0578461 -1.1586734e-06 5.003658e-09 1.0685184e-12 0.09660048 6.432758e-09 0.32410955 0.0004517198
0.0011023073 0.1573642 0.0061797174 -9.12589e-13 3.6634432e-07 1.5433506e-10 9.8466305e-11 0.00013389045
0.010196696 -1.1656248e-06 0.26958373 -1.2387905e-07 0.0030616147 0.320937 0.21296602 0.08814883
0.215499 0.012443839 0.19894487 0.19014432 0.0035742093 -1.143883e-17 0.23935197 0.32118592
0.15272193 -1.5096585e-15 0.24670361 0.028771337 0.00025423453 -1.4895813e-14 0.09451761 1.7964922e-14
0.3305137 0.020485826 0.27160227 1.5123103e-06 0.23211889 0.27524656 0.17143643 1.5933254e-05
0.26034126 0.25117502 0.014612177 0.009499365 -6.940465e-11 0.00014614302 0.03584867 0.4246518
0.0627411 -7.0549603e-15 7.4903495e-10 0.018364199 0.15949716 -2.1137896e-05 -1.7691306e-09 9.376736e-06
0.069261745 0.00035266194 0.07649072 0.050011035 9.7767334e-08 -3.6086814e-09 0.102734834 0.15730168
0.29544777 3.8109374e-07 0.03448734 0.004245331 -3.5949968e-05 -1.947805e-06 0.22682334 0.007264612
0.01994498 0.2598154 0.016438939 0.4142804 0.09385162 1.3535104e-14 0.3421237 0.022316564
6.337648e-18 -3.0999583e-17 0.04723487 -8.804989e-19 0.08784064 0.22817355 8.852877e-19 0.0569831
1.0348831e-13 5.6997393e-09 0.00058838807 1.9041122e-06 0.27757367 -3.450038e-21 0.18745176 0.020644914
2.2987652e-11 0.24923725 -4.1673015e-19 0.012213434 7.783231e-06 0.08774412 0.06132368 9.529243e-05
5.9452876e-05 -1.0993992e-07 -6.6045266e-14 -3.876936e-08 0.003312456 0.0680705 -1.598099e-07 0.024923922
0.15414383 0.00016479364 0.06400036 5.1103495e-08 -4.4115387e-20 0.00021701677 0.30211186 0.0053080246
0.15702753 1.8588286e-06 2.4186786e-08 8.034749e-06 0.16453068 -2.7599398e-10 0.10151873 0.32948947
0.16575564 0.0923307 0.114716545 0.024932534 0.0027384055 0.23048647 0.09847896 0.031878058
-3.932657e-11 0.17176886 0.116575524 0.043691557 0.01609777 0.07870957 0.08932916 0.12604871
0.042213313 0.24357681 0.0028569703 0.012055257 0.15668327 1.9613818e-08 0.039311565 2.233434e-06
0.08477943 0.07988771 8.285225e-11 0.24457379 -2.1861233e-05 -1.22443576e-17 0.02878239 0.23083097
0.09222021 0.035522185 0.0010467058 1.3027088e-05 2.3887845e-15 7.262817e-09 3.8451705e-07 0.20180033
0.19920234 0.26075223 0.013781789 0.0005818918 0.15970378 0.25836086 2.9467165e-07 0.0061057904
0.1043031 4.4064925e-11 4.472066e-09 0.061869472 0.00358668 -2.3051218e-20 0.28055152 5.8573735e-10
0.14022294 3.8485035e-05 9.146267e-07 0.20324995 2.692184e-16 -1.5488809e-12 0.14682196 0.0012688333
0.0018033829 0.31013417 0.00017605152 0.28121787 -9.3185085e-11 0.01413418 0.08934567 3.958612e-09
-4.6369852e-11 1.1206693e-05 0.48485786 0.00034308757 0.17666328 0.05042406 0.31723645 0.48415715

gcn.ln1.bias f4 [256]
00000000: e521 e4ba 2d4d 1d3c e91a e1bc 4ef8 3bb6
00000010: 5f7f 4eb0 cbee 74bc 94a4 b234 35a6 85b7
00000020: 3c5b 623c 486e 52b7 6b00 4aac 8c2d aebc
00000030: 5d84 92bc 1aab 53b5 093d 04bc 1bc0 91bc
00000040: b312 5ca8 3b58 f5b8 f922 42b4 c2ae 7cbc
00000050: 601f 62bc 9c4c 0ebc f0f8 8b3c a13f 67bc
00000060: 655b b8bb 329f 8eb0 a3cf 8cbc ee71 fabc
00000070: 97eb 78b9 d81e 15bc 96b9 3cb5 606b 02bd
00000080: bf7b ceb8 04b0 e9b4 6759 083c 4e45 7fac
00000090: 8218 3d3b bb67 593b 77b4 acbb eca8 f0ba
000000a0: 911a 503a 8cb2 8db8 e66a a4b1 6c47 a8ab
000000b0: 95e9 783c ece7 a6b1 0705 90bc 26ba dbbb
000000c0: f3b1 08bc c787 88bc db2a e23c eae4 3aae
000000d0: 7516 14b5 201b 7eae 758b 8eb2 1017 4aba
000000e0: 1f8e c6bb 9c5f 1cb6 d039 77bb 0fd6 83b5
000000f0: a0fc b33c af85 92bc ad72 08bb 7e83 e33c
00000100: 9a66 40bb d9fe dc3b 14b5 06ba 5d10 c3ba
00000110: e3ce 4dbb 9b0f 6da6 2670 abbc 4feb 4dbc
00000120: d41d e23a 3804 9da7 58c5 d93a a225 163c
00000130: ba22 a7b8 5bd3 04a9 eb82 173b b5ed c2aa
00000140: 7ae7 5bbc b747 f43b 03f3 ebbc 9b43 6db9
00000150: cc47 363c 796a e1bc bac3 893b e498 40b8
00000160: b65f 663b 19f3 9abc 5518 19ba c47a 5fbc
00000170: 951f 02af dcb8 54bc e148 e73c e74d 5bbc
00000180: 2693 9b3b 4b71 afa7 fb1b ecaf a85b 403c
00000190: e800 89bc dccf 2839 b482 a4b0 35c0 e8b7
000001a0: 6cb0 87b8 d889 4abb 9ea5 a83c 9386 343c
000001b0: c382 0db4 ec03 30b3 80e0 373c 204e 8fbc
000001c0: 5e68 7cbc 7d75 80b7 5f2c 2fbc bea5 063d
000001d0: 7ac2 21b9 69b9 04b9 9f28 6abc 22da c33b
000001e0: d73b b7bc 7af3 8abc 646c 5abb 5ce5 8abc
000001f0: 3431 75bc 7862 30a9 e17f 953b 38ac c43a
00000200: 5868 7a21 26f3 e6a4 881c 50bc 0ca7 02a2
00000210: 6099 953c f053 e5bc d15a fea3 2bd0 0cbb
00000220: eb63 87a9 5e09 b3b3 774c 8939 dda4 2bb7
00000230: 0b46 53bc 859d 919e e9ac 9b39 7626 b4ba
00000240: c576 fbad 340d d63b d418 06a2 9d26 82bb
00000250: 1682 2eb8 54e1 30bc 5634 60bc 8543 5038
00000260: a7dd 9137 9124 f8b4 5d24 87aa bd50 5cb4
00000270: 8012 ff3a 13f5 c73c 1bef 90b6 d3c7 6fbb
00000280: c787 2c3c 5531 37ba 6960 b13c 9953 74b3
00000290: 9782 34a0 b35d 34bc 47ed dd3a 20be 02bb
000002a0: 1442 bcbc 9e7a 31b8 fc0e 67b3 1fcb b4b7
000002b0: 6b94 1fbd 9e9c 14b1 0d43 4dbb 3083 a8bc
000002c0: e020 ffbb 95a3 2abc 2d52 9bbb c00e 723c
000002d0: 8920 99bb fd63 1b3b 461b e33b 4e76 0b3a
000002e0: c8bc 0caf 0895 213c 60dd 233b 83d2 5ebc
000002f0: 46dd cdbc c224 95bc 6d26 cdbc 795c 223c
00000300: 2469 9fbc 449c f8bb 9483 653c 87a3 963c
00000310: 4978 333c de51 51b2 7e11 b33b 8102 8cb6
00000320: 8258 4cbc b305 b7bb 761c 37af 9c14 c1b9
00000330: e9d6 d1b9 6387 c1a2 21aa b23a 0957 e8bb
00000340: 8589 fcba 3d0b 403c 82b4 2cbc dc21 8a36
00000350: 73a0 d3a6 0670 10b2 dfbd 43b6 9ceb 2d3c
00000360: c551 3fbc c5d2 f4bb e15b 3a3c 6ccd f0bb
00000370: 3104 96bc 273e 9bbb a1e4 bbb6 d631 bd3b
00000380: 0f53 eebb 59b7 c7ae 29c9 04b3 50a3 eebc
00000390: 02c5 cebc c6a3 919f 39c7 e337 a24c 75af
000003a0: 22aa 94bc cd93 51ba 5438 e6b7 80b2 6d3c
000003b0: 6ee6 6da7 edba bcac eb4b 3dbb 0f73 c4bb
000003c0: 102c 98bb cd50 8abc 7827 9bbb dce2 a8bb
000003d0: 0c4f 99b0 b143 053a 5e30 62bc 49ef 1cb1
000003e0: e979 9bb0 1238 56b9 c650 a3bc e189 9aba
000003f0: 86a5 79ba d3e0 963b 0788 87bc 7db4 c4bb
-0.0017405121 0.00960092 -0.027478652 -2.8009704e-06 -7.512337e-10 -0.014949511 3.327483e-07 -1.5932232e-05
0.013815697 -1.2542652e-05 -2.8706159e-12 -0.021261953 -0.017885381 -7.885261e-07 -0.008071193 -0.017791798
-1.2216508e-14 -0.000116989446 -1.8080381e-07 -0.015422525 -0.013801426 -0.008685257 0.017086476 -0.014114291
-0.0056261295 -1.0377106e-09 -0.017188853 -0.030571904 -0.00023738887 -0.009101592 -7.030552e-07 -0.031840682
-9.845895e-05 -4.35277e-07 0.008322096 -3.6276151e-12 0.002885372 0.00331734 -0.0052705365 -0.001836089
0.0007938529 -6.756661e-05 -4.785181e-09 -1.1956942e-12 0.015192409 -4.8576023e-09 -0.017580522 -0.00670554
-0.008343208 -0.016666306 0.027608326 -4.249482e-11 -5.5166976e-07 -5.7777005e-11 -1.6594393e-08 -0.0007709125
-0.0060594226 -2.3301463e-06 -0.0037723668 -9.82256e-07 0.021971047 -0.01788601 -0.0020820305 0.027772661
-0.002935803 0.0067442474 -0.0005138677 -0.0014882196 -0.0031403832 -8.224704e-16 -0.0209275 -0.012568309
0.0017251321 -4.3580828e-15 0.0016614599 0.009164246 -7.969649e-05 -2.949321e-14 0.0023118805 -3.4626265e-13
-0.0134218875 0.007454838 -0.0288024 -0.00022627266 0.011125516 -0.02751659 0.0042042406 -4.5918758e-05
0.0035152263 -0.018914746 -0.00058401126 -0.013640109 -1.1834651e-10 -0.012983527 0.028232994 -0.013385273
0.004747766 -4.869509e-15 -4.294803e-10 0.011740603 -0.016724065 0.00016099162 -1.1969719e-09 -2.7746059e-05
-6.470163e-05 -0.0030904915 0.020586785 0.011018413 -1.3179219e-07 -4.098176e-08 0.011222959 -0.017493308
-0.015405742 -1.5313499e-05 -0.010691731 0.032872908 -0.00015426605 -0.00012657572 -0.014291911 0.005976931
-0.022367401 -0.016961802 -0.0033328766 -0.01695507 -0.014965344 -3.916526e-14 0.0045623635 0.0015004938
8.484139e-19 -1.0015851e-16 -0.012702115 -1.770672e-18 0.018261611 -0.027994126 -2.7577197e-17 -0.0021486382
-6.012537e-14 -8.337041e-08 0.00026187647 -1.02307795e-05 -0.0128951175 -1.541762e-20 0.00029692732 -0.0013744372
-2.858814e-11 0.0065323357 -1.817353e-18 -0.003971888 -4.1605985e-05 -0.01079591 -0.013684353 4.9653947e-05
1.7388562e-05 -4.6220205e-07 -2.400605e-13 -2.0518469e-07 0.001946047 0.024408853 -4.31937e-06 -0.003658761
0.010530419 -0.0006988247 0.021652417 -5.688671e-08 -1.5289802e-19 -0.011008668 0.0016931676 -0.001994975
-0.022980727 -4.2314285e-05 -5.3797507e-08 -2.1552258e-05 -0.0389599 -2.162586e-09 -0.0031320483 -0.020570368
-0.0077859014 -0.010414978 -0.0047400207 0.0147740245 -0.004673068 0.002371072 0.0069307415 0.0005320058
-1.2799994e-10 0.009862192 0.0025003776 -0.013599995 -0.025129925 -0.018206004 -0.025042737 0.0099097425
-0.019459315 -0.0075869877 0.014008421 0.018388523 0.010953971 -1.2184016e-08 0.0054647317 -4.1726166e-06
-0.012472274 -0.005585396 -1.6653864e-10 -0.00036827184 -0.00040023707 -5.24561e-18 0.0013631025 -0.0070904535
-0.0019267058 0.011721429 -0.010541083 4.1166622e-06 -1.4684556e-15 -8.407374e-09 -2.9167784e-06 0.010615256
-0.01167721 -0.0074714147 0.011374445 -0.007348707 -0.018312545 -0.0047376337 -5.59965e-06 0.005773763
-0.007273085 -9.0820414e-11 -3.09166e-08 -0.029130608 -0.025240425 -6.168083e-20 2.7153279e-05 -2.2309846e-10
-0.018147532 -0.00079947413 -2.7444366e-05 0.01450789 -3.3015273e-15 -5.3640343e-12 -0.0028884362 -0.0059951614
-0.0046439245 -0.016884232 -0.0047349297 -0.005153997 -1.1154682e-09 0.0005083634 -0.013805477 -2.2837006e-09
-1.1312383e-09 -0.00020429518 -0.019935977 -0.0011790359 -0.0009523261 0.004604438 -0.016544355 -0.006002961

gcn.gc2.weight f4 [256, 64]
00000000: c331 da38 883b dc38 04e1 f638 5b76 cf38
00000010: ea14 da38 9aa1 d838 4db5 da38 92d7 ce38
00000020: 6acd da38 f1c5 db38 a2e4 da38 ff0d 01b9
00000030: 37f7 dc38 294c c839 78d0 dc38 c81d db38
00000040: 9144 da38 f1c9 da38 1aff 94bb 79c4 db38
00000050: 6942 ec38 c8bc 39ba c8a0 1539 26b4 d438
00000060: e78e a4b8 608a c4bb 6184 9d3a 3f21 a539
00000070: fc8d da38 9fc7 da38 7325 bc38 4095 c938
00000080: 7c1d 31bb c3ad ce38 6fdc da38 3516 dc38
00000090: 28bc db38 c2fa b2bb a059 d138 e2a0 db38
000000a0: f4d9 ecba c508 a03c 3281 f438 88a7 db38
000000b0: 1314 db38 64a0 cfb9 1379 6638 c598 20bc
000000c0: 2e09 da38 db86 db38 ecc6 da38 1bf4 dc38
000000d0: 493b 9dbc b897 3e3b a937 0c39 573d 9d38
000000e0: bf5a c738 aa01 db38 23d4 da38 3990 1239
000000f0: e7fe 50b9 d4d8 0b39 59ac cc38 5f63 b7ba
00000100: 5e91 4b3a 2726 093b 4817 66b7 283d 4d3a
00000110: a2ed 493a f518 4c3a 8a79 4a3a bd79 563a
00000120: cb12 4b3a bc44 3c3a d7f5 4a3a b15e 213d
00000130: 05b3 4a3a 33b1 00bb 6de1 493a 56a4 4a3a
00000140: 8ca8 4b3a a417 4b3a 1194 753d 48e0 493a
00000150: eb08 263a f39c 083b 6c5d 9f3b 5e65 4a3a
00000160: ad23 41bc 5e12 fa3c 4ac4 d9bc b1b4 86bb
00000170: b05b 4b3a 5219 4b3a 924c 3739 5d2b 013a
00000180: 1467 b0bc 3ee3 053b 6a07 4b3a 85fa 453a
00000190: 34c9 4a3a fffe 573a 5bff 393a 2b20 e439
000001a0: 1563 bfbb 5d38 a93c cb3b 2e3a f22e 4b3a
000001b0: e307 4c3a eeb5 70bb 37cc cb3b b52d 49bd
000001c0: 50f0 413a b7ed 473a 5a08 4b3a 4446 4f3a
000001d0: 9b02 8fbc 49f3 0bbd 0354 063a 3dec 653a
000001e0: c358 533a a7d0 4a3a 5114 4b3a 50f2 9ebb
000001f0: f4a9 863b 153c d33a 41ac b73a b9fd 97bc
00000200: 33e8 1039 db19 d138 9bd3 b738 a866 1039
00000210: 26a9 0f39 541c 1039 b228 1039 eab2 1039
00000220: f9c7 1039 44da 0b39 dbbb 1039 8108 0bbc
00000230: e930 1039 c3e3 313c 063c 0f39 f9b0 1039
00000240: 22d0 1039 26c9 1039 dfc4 ad3b 1f1c 1039
00000250: cac6 1239 3b06 13ba babb f53a d175 0e39
00000260: b430 b4ba 26dd f13a 1849 f5bb d7b1 ba39
00000270: 8499 1139 52cf 1039 f543 7538 92bb 9835
00000280: 7f46 d4bb c114 ab39 10b9 1039 a8ec 0f39
00000290: 54c2 0e39 4ff6 72bc e471 0539 feac ea38
000002a0: 24fc f63c ef37 a8bc 561a 0939 62cb 1139
000002b0: b3e7 1139 51d2 cfba 6fce 88bb 21fe a4bb
000002c0: dc83 0d39 2d14 1139 abc2 1039 3346 0f39
000002d0: 659b 193c 3a5f 8abb 342c 0739 0138 6339
000002e0: 332e 1139 4ea0 1039 e4ac 1039 7a6a acb9
000002f0: ab5f 85ba 50ac d038 0f1e e838 a15d dcbb
00000300: 6555 fdb1 3557 12b2 ab9b 4bb1 9964 5332
00000310: 0f5b 5bb2 d791 7fb0 2cdc 5ab2 4da2 15b1
00000320: ab24 3cb2 fcc5 d7b0 462d 3db2 bb67 1e37
00000330: b6cf 39b2 85e2 42b3 7a6c 3cb2 2feb 40b2
00000340: e052 37b2 7871 3db2 52aa da37 a2de 44b2
00000350: c368 f631 22e3 abb4 f9ca 5eb3 6a11 1132
00000360: c44e 33b2 1d59 82b5 c1d0 d8b5 4a01 13b3
00000370: 748d deb1 a74f 3bb2 d71c 8732 715f 2d32
00000380: 915c 1534 e9a2 a632 e7b6 43b2 d46f aab1
00000390: c17b 42b2 d4e3 c137 2564 5432 7917 1732
000003a0: e306 c8b4 0040 2633 06ec 0631 aa91 10b2
000003b0: 90ba 05b2 e48d 1733 5c21 a134 9c90 3f38
000003c0: c254 1631 6f3e 4bb2 36b0 39b2 8ead e8b1
000003d0: 4134 9737 a5a6 e5b5 2fdc 4831 2b3c 9cb2
000003e0: 8d46 0632 8b72 43b2 7fa8 4cb2 2340 d9b2
000003f0: 7374 8533 68e0 f1af 951f 8e32 63f4 e4b5
0.00010404319 0.00010501506 0.000117721065 9.8925746e-05 0.000103989456 0.00010329783 0.0001042882 9.8629986e-05
0.000104333114 0.00010479603 0.00010437636 -0.00012307613 0.00010536465 0.00038203716 0.00010529248 0.00010448281
0.000104078215 0.000104326646 -0.004547012 0.0001047933 0.00011265727 -0.00070853205 0.00014269643 0.00010142503
-7.846747e-05 -0.005997941 0.0012017601 0.00031496023 0.00010421497 0.000104322324 8.971514e-05 9.612227e-05
-0.002702563 9.855211e-05 0.00010436109 0.00010494554 0.000104777806 -0.0054620216 9.9825906e-05 0.000104727005
-0.0018070326 0.019535432 0.00011658891 0.00010473939 0.00010446473 -0.00039601617 5.4949032e-05 -0.009802048
0.0001039676 0.000104678526 0.00010432102 0.00010535886 -0.019193308 0.002908213 0.00013372175 7.497769e-05
9.505962e-05 0.00010443044 0.000104345636 0.00013977372 -0.00019931384 0.00013336848 9.75958e-05 -0.0013991407
0.0007765497 0.0020927282 -1.3714489e-05 0.00078292424 0.00077029516 0.00077857013 0.0007723799 0.00081815926
0.0007746636 0.0007181873 0.00077423215 0.039396945 0.00077323645 -0.001963687 0.00077011326 0.00077301764
0.0007768951 0.0007747358 0.05995566 0.0007700962 0.00063337263 0.0020845502 0.0048634317 0.00077207934
-0.011788291 0.030526336 -0.026582856 -0.0041108956 0.0007757498 0.00077476085 0.00017480765 0.0004927421
-0.021533526 0.0020429636 0.000774494 0.0007552284 0.000773567 0.00082395965 0.0007095241 0.00043511516
-0.005840669 0.020656759 0.0006646483 0.0007750831 0.00077831576 -0.0036729532 0.0062194127 -0.049115855
0.0007398175 0.000762667 0.000774508 0.0007906894 -0.017457297 -0.03416756 0.0005124213 0.0008770859
0.0008062238 0.000773678 0.0007746863 -0.0048506632 0.0041096155 0.0016115928 0.0014013128 -0.018553602
0.00013819411 9.9707126e-05 8.7655346e-05 0.00013771153 0.00013700555 0.00013743463 0.0001374807 0.00013799561
0.00013807406 0.00013337383 0.00013802892 -0.008485914 0.0001375113 0.010857525 0.00013659903 0.00013798838
0.00013810446 0.00013807844 0.00530301 0.00013743386 0.000139977 -0.00056085334 0.0018747963 0.00013586065
-0.0013747425 0.0018452748 -0.00748552 0.00035609186 0.00013885467 0.00013810143 5.847584e-05 1.1379473e-06
-0.0064781304 0.00032631124 0.00013801851 0.00013725704 0.00013614568 -0.014829232 0.00012726296 0.00011190212
0.030149527 -0.020534484 0.00013075149 0.00013904044 0.00013914592 -0.0015855526 -0.0041749994 -0.0050351773
0.0001349593 0.00013835794 0.0001380543 0.00013663694 0.009375428 -0.0042227777 0.0001289107 0.0002166927
0.00013845488 0.00013792628 0.00013797317 -0.00032885728 -0.0010175606 9.9503086e-05 0.00011068221 -0.0067250286
-7.3729773e-09 -8.518147e-09 -2.9628875e-09 1.230469e-08 -1.2768182e-08 -9.297571e-10 -1.2739331e-08 -2.177461e-09
-1.0951378e-08 -1.5699579e-09 -1.1011542e-08 9.4416855e-06 -1.0815645e-08 -4.5375163e-08 -1.0967705e-08 -1.12293455e-08
-1.06708455e-08 -1.1027048e-08 2.6066937e-05 -1.1459322e-08 7.1714523e-09 -3.2016493e-07 -5.1873005e-08 8.44407e-09
-1.04370805e-08 -9.71169e-07 -1.615401e-06 -3.4227277e-08 -6.4771317e-09 -1.0902943e-08 1.5729183e-08 1.0091626e-08
1.3910382e-07 1.9399026e-08 -1.1392081e-08 -4.9603646e-09 -1.1320425e-08 2.3113484e-05 1.2362794e-08 8.794694e-09
-3.7257914e-07 3.8708095e-08 1.963373e-09 -8.415023e-09 -7.784038e-09 3.5286476e-08 3.001286e-07 4.5672627e-05
2.1876052e-09 -1.1830351e-08 -1.0808483e-08 -6.7718195e-09 1.8024935e-05 -1.711033e-06 2.922899e-09 -1.8188151e-08
7.815868e-09 -1.1376538e-08 -1.1912674e-08 -2.529129e-08 6.214477e-08 -4.3997095e-10 1.6545338e-08 -1.705845e-06

gcn.gc2.bias f4 [64]
00000000: 3c58 1bbc 542a 1ebc 2843 c9bb f641 1abc
00000010: febe 1abc 5c18 1bbc 4e1c 1bbc acb6 1bbc
00000020: 1a64 1bbc 7d74 17bc cd62 1bbc 81f2 2cbd
00000030: 94bd 1bbc ed38 11bc 338f 1bbc ca61 1bbc
00000040: fa66 1bbc 2b64 1bbc 309f 8ebd b35a 1bbc
00000050: 093b 18bc 0119 fcbc e1c8 0cbd 049e 19bc
00000060: 4859 8f3d 02ca 9f3d df00 01bd ce62 1e3b
00000070: 5078 1bbc 1d64 1bbc 43a2 dabb 9485 12bc
00000080: 52c3 223e c950 72bc 0363 1bbc 1787 1bbc
00000090: 4244 1bbc 1be4 b7bc a94a 14bc 47e5 00bc
000000a0: 85ca 5bbd a1fe 66bd 1dad 1bbc 1d7c 1bbc
000000b0: c190 1bbc 8079 3b3d c056 40bd ef7a 97bd
000000c0: 337d 18bc c122 1bbc 0b64 1bbc df97 1bbc
000000d0: e31b 12bd 5f36 22bd 7174 1ebc 0d85 ebb9
000000e0: d5f0 18bc 645f 1bbc 5662 1bbc bad7 b73c
000000f0: 27d2 b8bc fd9f 22bc fc92 2cbc f0c6 c63d
-0.009481486 -0.0096536465 -0.006142039 -0.00941514 -0.00944495 -0.009466257 -0.009467198 -0.009504002
-0.009484315 -0.009244082 -0.009484005 -0.042223457 -0.009505648 -0.00886367 -0.009494591 -0.009483764
-0.009485001 -0.009484331 -0.06963956 -0.009482074 -0.009291419 -0.030773642 -0.03437126 -0.009376053
0.06999451 0.07802202 -0.03149497 0.002416778 -0.009489134 -0.009484318 -0.006672175 -0.00894298
0.15894821 -0.0147897685 -0.009484055 -0.009492657 -0.009476723 -0.022447636 -0.0090510035 -0.007867164
-0.053659935 -0.056395177 -0.009501723 -0.00949004 -0.009494961 0.04577017 -0.04695773 -0.073964946
-0.009307194 -0.009468735 -0.009484301 -0.009496658 -0.035671126 -0.039602634 -0.0096713165 -0.00044921823
-0.009334763 -0.009483192 -0.009483894 0.022441734 -0.022561146 -0.0099258395 -0.010533091 0.09705913

gcn.ln2.weight f4 [64]
00000000: a121 ac35 cfac 873b b305 e038 a6d8 6c38
00000010: 4d22 9f37 9b1f 6838 cabf b637 c8e3 2038
00000020: 8ecb 4ea1 fd6a 07b8 2c22 60a3 6606 bd3e
00000030: 157b e737 287e 873e 8e4f e537 b55c 82ab
00000040: c382 1b9b 0557 2ca2 55a0 433f 82c5 5ca7
00000050: b8d2 4838 7ea0 533e 898d 213e 8c2c 9638
00000060: 8739 4e3e c847 bf3e d740 943e 65fa 633c
00000070: 871e 2637 d633 c72a 46d8 9539 29f8 a03a
00000080: 4204 dd3e bf0c ff3c 06c1 71a8 1db1 9937
00000090: 3c9f afab f4a0 253f 069d e538 0ba0 0438
000000a0: bd90 ae3e 3ce4 0b3f 91b1 a336 732a 80aa
000000b0: 6cbc 76b6 e2ed dd3d 3eb5 7c3e 21a8 233f
000000c0: 0bb0 f336 82ad 0c38 411b 16ae 19db e637
000000d0: a8c0 253f 8900 e73e d003 80b8 093a 783c
000000e0: d7a8 3738 3fa2 1ea8 3108 1837 6910 483d
000000f0: 8df5 733d 52a5 4a36 1905 9139 5fe8 c43e
1.2824786e-06 0.0041404734 0.00010682214 5.6468554e-05 1.897025e-05 5.5342545e-05 2.17854e-05 3.835911e-05
-7.0064917e-19 -3.228615e-05 -1.21503005e-17 0.36918944 2.759466e-05 0.26463437 2.7335973e-05 -9.262787e-13
-1.2863551e-22 -2.3356414e-18 0.7641652 -3.0638202e-15 4.7879963e-05 0.20666692 0.15776648 7.160855e-05
0.20139132 0.37359452 0.2895572 0.013914679 9.901479e-06 3.538547e-13 0.0002858063 0.0012280989
0.4316731 0.031134007 -1.3420043e-14 1.8321496e-05 -1.2478694e-12 0.6469872 0.00010948819 3.1620304e-05
0.34094802 0.54645133 4.87845e-06 -2.2766823e-13 -3.6766533e-06 0.10836388 0.24678513 0.6392842
7.2624584e-06 3.3540193e-05 -3.4130258e-11 2.7520162e-05 0.64747095 0.45117596 -6.104226e-05 0.015150555
4.3787844e-05 -8.805943e-15 9.061813e-06 0.048843775 0.059560347 3.0196575e-06 0.00027660353 0.38458535

gcn.ln2.bias f4 [64]
00000000: 070e 133d bee1 323d 6f67 993d 1177 653d
00000010: ca86 183d 257d c13d 9062 d63c 42c9 3f3c
00000020: 85c0 67a4 7c9f 0d3e 2168 8024 aae7 a33d
00000030: 456c b13c 5e14 3a3d ea47 a73c 689c 1faf
00000040: 8ec6 179d 0228 5ca5 10eb df3d 48b6 58aa
00000050: 5d6a 0c3d 10ca 8c3d 692a 8a3d b961 af3d
00000060: 9022 fb3d 56bc a03d a4cc 983d 1e0a f63c
00000070: 7ceb af3c e4be a9ae b3d3 713d 9e2f 023d
00000080: 6c19 883e 0347 813d e10a c3ac 9140 103d
00000090: 7568 f2af 83d9 af3d 8587 9b3d 2399 843e
000000a0: de40 8b3d 93e5 c23d 9115 013d 8a78 a1ad
000000b0: 3bd7 85ba 3ec3 f43d d5f7 ce3d 848d b63d
000000c0: 6be2 533e b6f5 4f3c 5266 0bb2 51ef 9e3c
000000d0: a7ae c13d a471 b23d e211 153d 4306 103d
000000e0: c942 d23c ab38 36ac 102c d83c e36b d13d
000000f0: ab78 803d 37ee ef3c 8b66 283d 118e c43d
0.03590205 0.043672316 0.074904315 0.056021754 0.03723792 0.094476976 0.026170045 0.011705698
-5.025321e-17 0.1383037 5.568755e-17 0.08003171 0.021658072 0.04542958 0.020420033 -1.4516532e-10
-2.0087334e-21 -1.9095513e-16 0.109335065 -1.9247895e-13 0.034281123 0.06874478 0.0674637 0.08563561
0.12262452 0.07848422 0.07460907 0.030034121 0.021474592 -7.719139e-11 0.059039783 0.031783693
0.26581895 0.063123725 -5.543441e-12 0.035217825 -4.4093765e-10 0.08586409 0.07594208 0.25898084
0.06799482 0.09516444 0.031514708 -1.8357111e-11 -0.0010211238 0.11951302 0.10105864 0.08913711
0.2069184 0.012692859 -8.11413e-09 0.019401224 0.094571404 0.087130815 0.036394008 0.03516222
0.025666611 -2.5895213e-12 0.026388198 0.10225656 0.062730156 0.029288394 0.041113418 0.095974095

attention.fc1.weight f4 [16, 64]
00000000: 8538 9cb6 c887 5b38 e091 b238 e951 a538
00000010: c01f 66b6 4aca 0139 7293 9db8 016d 19b9
00000020: ddca b81d b677 0b39 5d8e 6122 dbf9 7f3c
00000030: 5033 d7b8 9cc6 ce3b 6d1d f0b8 5315 632b
00000040: 436d 099a 990a 921f 353d f93d 1b6a dd26
00000050: ff0c 4a33 8028 013c 3210 a83b 4e75 f638
00000060: 3e51 18bd c225 72bd 490c 963c 8812 85b9
00000070: d555 d5b8 3c10 c327 1674 9a38 7d55 2538
00000080: a356 01be 4b44 1e39 1b3e 3429 a847 97b7
00000090: 06a2 482c 1b27 983d b47c db38 31f3 0239
000000a0: 324e de3c ebeb 5c3d 1b32 fbb7 a1cd 1f29
000000b0: b3ad 0537 8a0e 8bbc 3fe1 303c 61ea da3d
000000c0: 7453 1639 2247 1db9 7a45 302e c79a f9b8
000000d0: 785f b53d dea4 453d 744b 9837 49e2 91b9
000000e0: 98d0 78b8 1e72 a628 004e 9bb8 11b6 6fbb
000000f0: 35dc 4e3a 859f b737 be07 3a38 ab5e 93bd
00000100: 1100 76b8 83bc 7338 0f27 0439 570f 8438
00000110: 6e77 70b8 797e 3239 2371 0cb9 165b 19b9
00000120: 8221 381f 88a9 6939 5262 0422 86d6 713c
00000130: 37a7 23b9 224f c23b 7efb 2eb9 7598 5c29
00000140: c26d 491a 79be 1d20 53ec e03d 42ef d225
00000150: f231 3fb8 08df ef3b 751f 9c3b d144 2139
00000160: fb03 0cbd c269 5fbd 0a43 8b3c b199 61b9
00000170: 3797 24b9 59ff 0e29 f11f d738 1052 2638
00000180: 52bd eebd 7afd 3c39 7153 8528 6bb0 9db8
00000190: ae78 372c 6c33 8b3d cdd6 0e39 2590 a639
000001a0: 34a3 cf3c 41ff 4b3d 5e31 aeb8 b5eb a628
000001b0: d33f ae36 4d5f 7abc b9bc 273c 7687 c73d
000001c0: 4b88 9639 c49e 25b9 fba5 992c 5e8e 30b9
000001d0: 4d07 ad3d efac 373d 22d9 90b7 be97 73b9
000001e0: 2368 e9b8 14d9 bb27 bb1f 0cb9 5707 56bb
000001f0: 4716 4e3a 0156 8936 cd8a d137 a84d 87bd
00000200: c836 0fb7 b66c 83b8 1b2a d6b8 fdb1 c3b8
00000210: c7ae 26b7 6c68 16b9 ddcb 8638 f7ce 1539
00000220: 6df0 809f c8d5 2ab9 f57b 57a2 e90f 80bc
00000230: 01c3 c338 f37c cfbb 41a0 dd38 d82d 8fab
00000240: 1dea f119 ab91 93a0 c093 febd 67a2 f9a6
00000250: 6bd9 42b7 0932 02bc 064f a9bb 9c4c 0eb9
00000260: effd 173d c871 713d 1b69 97bc 849b 8139
00000270: bc69 c138 5df5 12a9 ba14 b7b8 ec71 46b8
00000280: 96f1 003e 4822 2db9 3c6e 4ca9 e6d4 9736
00000290: 199b 53ac 6e5c 96bd 3561 feb8 7619 45b9
000002a0: f9be dfbc a9a5 66bd c2d4 9237 3b46 83a9
000002b0: 18a6 13b7 4f7e 8a3c a9f4 30bc d34d dbbd
000002c0: d442 48b9 3f53 1939 3b20 56ae 5ef2 e738
000002d0: 59c9 b4bd a4b4 47bd 38cf fbb7 b9c4 8d39
000002e0: 9190 5038 3747 bda8 2d79 8338 ec64 6d3b
000002f0: 5cf7 51ba be4f fcb7 aa7a 6cb8 9bcd 923d
00000300: a2fd 5fb6 6e03 8c38 2a79 f938 e0e4 c638
00000310: 5d53 06b6 fd5b 2c39 9160 a8b8 b330 1eb9
00000320: d77d 8e9e 8cbf 4f39 f54d 9822 a8ad 7e3c
00000330: 9eed e4b8 2f6e ce3b e9f3 feb8 83d0 3f2b
00000340: 8389 ff99 823b a19e 4634 f73d 9c95 d326
00000350: 51db 9135 7897 ff3b 7b4c a63b 5ab5 2039
00000360: 653c 15bd aa35 6dbd d7aa 943c 01e4 76b9
00000370: 22da e2b8 c763 2229 4375 d038 0f8b 4c38
00000380: 2b66 fdbd c1bd 3a39 9880 3029 2f2c 96b7
00000390: f349 5e2c 3af8 963d 8be8 0e39 6c35 8739
000003a0: d704 dc3c 92bd 543d 8bfa 00b8 da3e f928
000003b0: 586c 0837 4f57 87bc b5f0 2f3c 4218 d73d
000003c0: 11ce 8039 d766 23b9 9061 1b2e 8b5a 04b9
000003d0: 9bce bb3d e8b0 423d 06c5 bd37 6bb3 86b9
000003e0: d039 86b8 eaa0 9c28 aa38 a5b8 6e2c 67bb
000003f0: e65c 533a 76a0 e037 7f3b 6138 740a 90bd
-4.655742e-06 5.2340125e-05 8.514873e-05 7.88307e-05 -3.4291152e-06 0.00012377757 -7.513807e-05 -0.00014631824
4.891415e-21 0.00013300669 3.0568553e-18 0.015623535 -0.000102615566 0.006310297 -0.00011449573 8.0676194e-13
-2.8419197e-23 6.185094e-20 0.121698774 1.5363715e-15 4.704361e-08 0.007883191 0.0051288838 0.00011752044
-0.037186854 -0.05911804 0.018316405 -0.00025381544 -0.00010172619 5.4140974e-15 7.364915e-05 3.9418683e-05
-0.12630706 0.00015093495 4.0021897e-14 -1.803397e-05 2.851165e-12 0.07429334 0.000104659615 0.00012488362
0.027136896 0.053935926 -2.9944864e-05 3.5483447e-14 7.96786e-06 -0.016974706 0.01079589 0.106892355
0.00014336203 -0.00014999186 4.0079474e-11 -0.00011902075 0.088561 0.048252933 1.8154948e-05 -0.0002782515
-5.9322076e-05 1.8479193e-14 -7.4055046e-05 -0.0036577026 0.000789109 2.1889582e-05 4.4353066e-05 -0.07195791
-5.8651032e-05 5.811128e-05 0.00012603051 6.297108e-05 -5.7331687e-05 0.00017022518 -0.00013393587 -0.00014625149
3.8991233e-20 0.00022283767 1.7941386e-18 0.014760619 -0.00015607184 0.0059298435 -0.00016687621 4.898205e-14
4.1654487e-23 1.336144e-19 0.10982575 3.659132e-16 -4.5584464e-05 0.0073202886 0.004764492 0.00015379793
-0.034183484 -0.054544218 0.01699974 -0.00021514927 -0.0001569659 3.1751813e-14 0.000102579485 3.965391e-05
-0.11657204 0.00018023505 1.4802153e-14 -7.519204e-05 2.6072855e-12 0.06796917 0.00013622195 0.00031769383
0.025346376 0.049803976 -8.306162e-05 1.8531924e-14 5.193034e-06 -0.015281511 0.010237866 0.09742634
0.00028711776 -0.00015794771 4.366949e-12 -0.00016837704 0.08448658 0.044842657 -1.7267248e-05 -0.00023230814
-0.00011129703 5.2138283e-15 -0.00013363261 -0.0032658183 0.0007861596 4.0929303e-06 2.4979376e-05 -0.06606609
-8.536219e-06 -6.266816e-05 -0.00010212158 -9.3314775e-05 -9.935065e-06 -0.00014344015 6.4275904e-05 0.00014286848
-5.460786e-20 -0.00016292103 -2.9203556e-18 -0.015632587 9.334647e-05 -0.006332034 0.00010567951 -1.0173485e-12
2.5013374e-23 -2.4999164e-19 -0.12430525 -1.7321865e-15 -1.1613923e-05 -0.0079465 -0.005166891 -0.00013570715
0.037107404 0.0589464 -0.018482735 0.00024720666 9.222652e-05 -3.263133e-14 -8.7299806e-05 -4.7312977e-05
0.12592158 -0.00016511336 -4.5392712e-14 4.5249353e-06 -3.0071e-12 -0.07341848 -0.0001212977 -0.00018796869
-0.027312743 -0.05631033 1.750363e-05 -5.829752e-14 -8.8005545e-06 0.016905932 -0.010800519 -0.10708203
-0.00019098382 0.00014622229 -4.8686593e-11 0.00011060083 -0.088274665 -0.048756257 -3.0018025e-05 0.00027040186
4.9725702e-05 -2.10141e-14 6.2691375e-05 0.0036223484 -0.00080095767 -3.0077874e-05 -5.6381024e-05 0.071681224
-3.3377223e-06 6.676359e-05 0.00011895814 9.484007e-05 -2.001608e-06 0.00016437467 -8.028851e-05 -0.00015086196
-1.5086881e-20 0.00019812415 4.1282223e-18 0.015544333 -0.00010916147 0.006299756 -0.000121570956 6.81462e-13
-2.6421923e-23 -1.707115e-20 0.12070517 1.4681618e-15 1.0867171e-06 0.007800039 0.005075035 0.00015326348
-0.03643455 -0.057912506 0.018147869 -0.00023545326 -0.0001081715 3.605777e-14 9.9400546e-05 4.87669e-05
-0.123730026 0.00017809031 3.9191388e-14 -1.7901968e-05 3.1589148e-12 0.07371564 0.00013628804 0.0002578901
0.026857777 0.0519386 -3.0750914e-05 2.767181e-14 8.131457e-06 -0.016521124 0.010738541 0.10502674
0.00024567594 -0.00015583202 3.5329573e-11 -0.00012622231 0.09170266 0.047531992 2.2622302e-05 -0.00025692148
-6.400386e-05 1.7389265e-14 -7.8783676e-05 -0.0035274285 0.0008062854 2.6777601e-05 5.369959e-05 -0.07033244

attention.fc1.bias f4 [16]
00000000: 1d19 2ebd e5e7 36bd eaec 423d 7ae2 4fbd
00000010: 27ea 4c3d 3a8f 473d 181b 4bbd a496 2abd
00000020: aa3a 29bd 1dea 4a3d 4b7a 35bd c69c 48bd
00000030: 4d3a 24bd c294 52bd f168 33bd 54cb 40bd
-0.04250442 -0.044654746 0.04758922 -0.050753094 0.050027993 0.048720576 -0.049586385 -0.04164757
-0.041315712 0.049539674 -0.04430608 -0.048977636 -0.040094662 -0.051411398 -0.04380125 -0.04706891

attention.fc2.weight f4 [4, 16]
00000000: bac9 1a3e b44f 0f3e 2d9e 1fbe f61e 1a3e
00000010: 14a2 19be d324 16be bacb 1e3e 827b 1d3e
00000020: ec53 0a3e 9d11 19be d306 113e a0e2 1b3e
00000030: 0c8c 023e 28b3 273e 3d31 133e 8f58 1f3e
00000040: e1ca 1d3e 82f1 0e3e 8c49 1fbe ff86 1c3e
00000050: f04c 1bbe f069 14be ae59 1e3e b04c 1c3e
00000060: e3b8 093e f57a 18be 1c38 113e bc31 1a3e
00000070: 1e33 023e 3bc4 273e 68e7 133e 07ba 1f3e
00000080: d4f2 1f3e 6887 0e3e b10d 1fbe 70ea 1b3e
00000090: 217b 1dbe b930 15be 43f6 1d3e ae10 1b3e
000000a0: c9d1 093e ddb8 15be da14 103e 7047 183e
000000b0: 6421 023e b414 283e 57d7 153e ac57 203e
000000c0: bc01 203e a851 0e3e 4b3e 1dbe d413 1c3e
000000d0: 1017 1dbe 0a06 16be 2ae1 1b3e 39ef 1b3e
000000e0: cfb1 093e 8d0f 18be 2076 113e 7cf5 183e
000000f0: 9c5a 023e 09c9 283e 4dfd 153e 1bb3 1d3e
0.15116015 0.13995248 -0.15587683 0.15050873 -0.15003234 -0.14662485 0.15507403 0.15379146
0.13508576 -0.14948125 0.1416276 0.1522317 0.12748736 0.16376936 0.14374252 0.15561126
0.15409423 0.13959315 -0.155554 0.15285872 -0.15166068 -0.14493537 0.15463898 0.15263629
0.13449435 -0.14890654 0.1418156 0.15058035 0.12714812 0.1638345 0.14443743 0.15598308
0.15619975 0.13918841 -0.15532567 0.1522615 -0.15379001 -0.14569367 0.15425973 0.15143082
0.13458933 -0.14621301 0.14070454 0.14871001 0.1270805 0.16414148 0.14632927 0.15658444
0.15625662 0.13898337 -0.15355794 0.15241939 -0.15340829 -0.14650741 0.15222612 0.15227975
0.13446735 -0.14849682 0.14205217 0.14937395 0.12729877 0.16482939 0.14647408 0.15400355

attention.fc2.bias f4 [4]
00000000: 1161 443e df91 fbbd 4b9c ed3d 7f1d 4ebe
0.19177653 -0.12283682 0.11602076 -0.2012844

fc_final.weight f4 [1, 64]
00000000: 00d8 e23a 6173 afbc 011c ae3c 9d27 b7bb
00000010: 0110 913b f26f 5ebb c952 0e3b aa4b 393a
00000020: 40d9 91a0 8ed5 473c d125 6aa4 d019 38be
00000030: 664f 123b 24a8 50be d0c2 fa3a bdc4 9cab
00000040: 9fe2 9f1a daad 95a1 99af 6fbe abf6 51a7
00000050: 4a8c 91bb e3e7 3d3e c288 173e 8403 06bc
00000060: dfff 623d ed78 1cbe cb3e 243e 2146 e73c
00000070: 2a19 b13a fa1a c92d 44b6 b3bc 07d1 5dbc
00000080: e744 20bd 6c4b 4c3d 292a b6a9 883c 623b
00000090: f59d 93ac 3dff 91be 009d 6cbc 4629 fa3a
000000a0: 16c0 7d3e 7fde 4c3e 8f5f ab3b 8ab8 4daa
000000b0: 7c98 40b7 cbc8 5ebd de93 18be a84c 643e
000000c0: 6057 dc3b bbb9 853a 69cd bcae 1397 e03a
000000d0: 8c96 643e 1134 343e 29c0 283c 6f76 173d
000000e0: 1b59 06bb c44e 0ba9 5d4e f23a 5143 1a3d
000000f0: 98c9 7fbd 4494 283c 89e0 49bc 0727 44be
0.0017306805 -0.021417322 0.021253588 -0.005589439 0.0044269566 -0.0033941236 0.0021716824 0.0007068465
-2.470772e-19 0.0121969115 -5.0772693e-17 -0.17978597 0.0022325157 -0.2037664 0.0019131545 -1.1139073e-12
6.6126985e-23 -1.0142651e-18 -0.23406829 -2.9138295e-15 -0.0044417726 0.18545489 0.14798263 -0.008179549
0.0554198 -0.15280505 0.16039579 0.028231682 0.0013511528 2.2863034e-11 -0.021937497 -0.0135386055
-0.03912821 0.049876615 -8.089737e-14 0.0034520943 -4.195528e-12 -0.28515044 -0.014441729 0.0019085787
0.24780306 0.2000675 0.0052298973 -1.8271682e-13 -1.1479595e-05 -0.05439071 -0.14900157 0.22294867
0.006724283 0.0010202447 -8.5857384e-11 0.0017134867 0.22323054 0.17597987 0.010299721 0.03697818
-0.0020499888 -3.093252e-14 0.0018486489 0.037661854 -0.062448114 0.0102892555 -0.0123216 -0.19155513
