Model_OGT/Fold1_best_model.pkl (torch_old, 197263 bytes, 13 tensors)

gcn.gc1.weight f4 [118, 256]
00000000: 77c5 eeba b0fa dd3c e42f 1abc 9ad9 b7ba
00000010: 89ba 13bb 4c67 f1ba 74ce 20bb 50fc b9bb
00000020: 6705 373d ecd8 ffba 1abc 11bb 585c 08bb
00000030: 9634 08bb afc9 f8ba b5ef 23bb da8d 5b3c
00000040: aeb7 24bb 93cd 16bb cab7 18bb ebba 07bb
00000050: db04 083d a23e ebba 0fff 00bb bcc9 d9ba
00000060: 588c 07bb 95eb ecbb 1195 b2bc 9f6c 9eba
00000070: 9ef1 1dbb 2aba 663c af77 0abb 06e3 763c
00000080: c431 f5ba 4db0 9bba 02c0 8a3b 3f90 0bbb
00000090: 72ad efbc 19ba 2fbb f312 d8ba 81ad 43bb
000000a0: 60fe e9ba 730d 47bb 8700 ffba 43ea 713b
000000b0: 6ae1 33bb 5cf9 00bb 1962 24bb 16c6 dbba
000000c0: 5cbc 083c d248 ecba b9bd 083c 96cb 383b
000000d0: 0ee9 f3bb 19cd 19bb 1468 7b3b f063 213b
000000e0: 958f 8fbb 5315 09bb c665 ff3b a7fd ceba
000000f0: a867 74ba 8dc5 15bb 4684 0dbc 647f f4ba
00000100: b96c 9fba 2639 b2ba e008 c7ba 03ec 323d
00000110: c1fa 71ba d175 83bb 8a87 313c 1b42 60bb
00000120: 5d86 36bb 3afc a43a d08e 63bd 7dcb 8bbc
00000130: cf3d ff3b fb64 2b3b 209a 913c 05ff 01bb
00000140: 8c0d c0ba c47b 29bb e697 64b9 037b ed3b
00000150: 5373 263c 406b 373a 48b8 3fbb 1a98 80bc
00000160: d737 f7ba 7398 eaba 8c05 06bb 5843 10bb
00000170: 5e95 c7ba a5c8 faba 7764 1cbb 7bb3 d3bb
00000180: 3e6d a93c dbfb 55bb 823f 023d 4aee b4ba
00000190: dee7 e1ba 20e6 8fba fa09 b43c 7a4e 0dbb
000001a0: a72f 733b ff5c 11bb d249 c0ba ee21 4cbc
000001b0: 7dc6 acba f41f abba f998 a9bc 1a72 d8bb
000001c0: 800a 82ba 4303 e2ba cefe fbba f3e3 c3ba
000001d0: 7b27 21bc 7b59 1ebb d3e6 c13b e743 b3bc
000001e0: 065e 2cbb 64ed 19bb a87d 943b f5da daba
000001f0: 6a64 7abc 138a daba 9b69 12bb 1f33 18bb
00000200: 4a35 b53b 99de 84bc 1881 36bb 8ea9 a03c
00000210: 30b0 c0ba b8f5 07bc b953 d73c 8db7 12bb
00000220: d758 bfbc da71 0bbb 72c6 24bb 5a3f ebba
00000230: 9536 afba 8be2 4639 3bac de3b a50b c5ba
00000240: 7d9e 12bb 0e2c 2ebb ac71 a1ba 65d7 34bb
00000250: 0176 0bbb f4b1 8dbb eace bab9 77b9 d4ba
00000260: cbec 23bb cfb1 b3ba c540 e4ba 5d43 9abb
00000270: 9472 3cbb aa23 2abb b174 17bb f2ce 05bb
00000280: 816c 10ba 450d 2dbb e007 0dbc 4954 883c
00000290: bc0e 95bb 71a8 10bb 50d7 c5ba 2337 e8ba
000002a0: f3d2 12bb f9c9 21bb 7599 e8ba db2d 08bb
000002b0: b803 1fbb 0446 b1bb 7469 99ba 74d4 9cba
000002c0: dcbf cdbb 453d 2cbb 0bcb abba 9a5a a8ba
000002d0: d86b 613c 8999 743b aaf4 8bba 6d3e 0dbb
000002e0: 249e f8ba 8a35 95ba e03a abb9 6476 efba
000002f0: 1158 a73a 45da e4ba 2e2b 09bb 50ea 17bb
00000300: 8949 ddba d6b8 35bb d3df 203b c703 01bb
00000310: 280c 8839 d01d 9e3c e920 e93c 5bff 8aba
00000320: f75d 02bb fb8a 14bb 9068 f3ba 1f89 05bb
00000330: 627e ccba 7c63 b7ba 61d9 23bb 9ec3 88bc
00000340: 5eaf 31bc 5812 efba cff5 e33c 3aef 13bb
00000350: 3dba 0abb 24ce bdb9 db34 1fba 2f9d 033b
00000360: 72e4 eabc d6b5 01bb 71ef 353b dbd8 9d3b
00000370: c2a2 f7ba a36d 99ba 6cd1 cd39 a3c7 ccba
00000380: fa76 7bbc 75b8 12bc 59df c43b 5ff8 f8bb
00000390: 8654 5dbc d182 9c3a 2e10 2ebb b85d 9b3c
000003a0: 981c dfba 77c6 0abb df8c 9eb9 06c8 2cbb
000003b0: 06ef b93c e4cf feba a169 b53c ff11 43bd
000003c0: dfaa 27bb 9b6d 61b8 a463 baba 4adc 17bb
000003d0: 30df 513c 99ac bdba f3bb 10bb c25c a5ba
000003e0: e820 1abb bb24 01bb af5d 8e39 01c1 bf39
000003f0: 0361 0d3b ff54 883b c70e 7ebc 1d30 82bb
-0.0018216808 0.027097076 -0.009410832 -0.0014026642 -0.0022541604 -0.0018417626 -0.0024537118 -0.00567583
0.044682886 -0.0019519604 -0.0022237361 -0.0020806994 -0.0020783297 -0.0018981005 -0.0025014703 0.013400519
-0.0025133896 -0.0023010715 -0.0023302906 -0.0020710777 0.033207756 -0.0017947743 -0.0019683277 -0.0016615908
-0.0020683017 -0.007230232 -0.021799596 -0.0012086815 -0.0024100314 0.014082471 -0.0021128466 0.015068775
-0.0018706848 -0.0011878103 0.004234315 -0.0021295694 -0.02925751 -0.0026813804 -0.001648514 -0.0029858055
-0.0017852299 -0.0030373007 -0.0019455113 0.0036913313 -0.002744759 -0.001967988 -0.0025082885 -0.0016767408
0.00834569 -0.0018027073 0.008346015 0.0028197519 -0.007443554 -0.0023468195 0.0038361596 0.0024626218
-0.00438113 -0.0020917251 0.0077941148 -0.0015792147 -0.00093233073 -0.0022853345 -0.0086374935 -0.0018653688
-0.0012163139 -0.0013597354 -0.001518514 0.04368211 -0.00092307857 -0.0040118475 0.010835538 -0.003421909
-0.0027851083 0.0012587376 -0.05555612 -0.017064804 0.0077893506 0.0026152718 0.017773688 -0.0019835841
-0.0014652475 -0.0025861124 -0.00021800361 0.00724733 0.010159331 0.00069968775 -0.0029254127 -0.015697528
-0.0018861246 -0.0017898217 -0.0020450084 -0.0022012796 -0.001522701 -0.0019133283 -0.0023863593 -0.0064606047
0.020681974 -0.0032651338 0.031798847 -0.0013803926 -0.001723524 -0.0010978617 0.021977413 -0.0021561668
0.003710726 -0.0022180674 -0.0014670438 -0.012459261 -0.0013181713 -0.0013055787 -0.020702826 -0.006605399
-0.0009921342 -0.0017243404 -0.0019225718 -0.0014945253 -0.009836073 -0.0024162221 0.005917409 -0.021882964
-0.002630116 -0.0023487443 0.004531581 -0.0016697334 -0.01528273 -0.0016673229 -0.0022340778 -0.002322383
0.005530034 -0.016219424 -0.0027847942 0.0196121 -0.0014700945 -0.00829833 0.02628504 -0.0022387237
-0.023357792 -0.0021277578 -0.0025142697 -0.0017947957 -0.0013367707 0.00018967145 0.006795434 -0.0015033378
-0.0022372298 -0.0026576552 -0.0012317202 -0.0027594205 -0.0021280053 -0.004324192 -0.00035630848 -0.0016229589
-0.0025012966 -0.0013709607 -0.0017414322 -0.0047077374 -0.0028754817 -0.00259612 -0.0023110325 -0.0020417538
-0.00055093324 -0.0026405614 -0.008607835 0.016641753 -0.0045488756 -0.0022073055 -0.0015094075 -0.0017716627
-0.0022403568 -0.0024687035 -0.0017745929 -0.0020779285 -0.002426369 -0.005409958 -0.0011704401 -0.0011965171
-0.006278975 -0.0026281637 -0.0013106776 -0.0012844384 0.013758622 0.003732296 -0.0010677774 -0.0021552101
-0.0018968028 -0.0011383754 -0.00032659527 -0.0018269536 0.0012767335 -0.0017460069 -0.0020930278 -0.0023180433
-0.0016882877 -0.002772858 0.0024547472 -0.001968609 0.00025948999 0.019301325 0.028458076 -0.0010604666
-0.0019892433 -0.0022665847 -0.0018570591 -0.002037592 -0.001560163 -0.0013991441 -0.0025001394 -0.01669484
-0.010845033 -0.001823972 0.027827172 -0.002257301 -0.0021168136 -0.00036202476 -0.0006073245 0.0020082702
-0.028673384 -0.001979222 0.0027761126 0.004817111 -0.001889311 -0.0011705648 0.00039256678 -0.0015623461
-0.01534819 -0.008955111 0.0060080704 -0.0075979675 -0.0135089215 0.0011940842 -0.0026559937 0.018965587
-0.0017022071 -0.0021175423 -0.00030241066 -0.002636434 0.022696983 -0.0019440618 0.022145094 -0.047624584
-0.0025584025 -5.374626e-05 -0.0014220369 -0.0023172074 0.01280956 -0.0014470994 -0.0022084683 -0.0012616145
-0.0023518149 -0.001970573 0.0002715415 0.00036574158 0.0021572716 0.004160523 -0.015506453 -0.0039730207

gcn.gc1.bias f4 [256]
00000000: f30f b33c bc03 4abb 72a1 fe3c f718 013c
00000010: 6c05 f73c 272d b63c 730c 0b3d cdfe 183d
00000020: 06eb ad3c d665 bc3c 6fff f13c 5e22 db3c
00000030: de99 da3c 7fa2 be3c b8c4 0e3d da18 2a3c
00000040: e6bd 0f3d 4520 fe3c 2b87 013d 6cee d63c
00000050: 872f a6bc 0fdc cc3c 26b4 c93c 793d 9a3c
00000060: 30b0 103d 9af8 e93b 684d 353d 7c17 4a3c
00000070: d18c 063d 1d6a 6d3c 45dd df3c 5db4 ae3c
00000080: 4ef0 bb3c 06c7 a0bb d872 8f3c b8a7 e33c
00000090: 6b1b 3cbc 7e73 97bc 2735 993c ceb9 fe3c
000000a0: 4199 af3c 07ac 1c3d f59a c33c 23a4 e9bc
000000b0: ad47 223d bd48 613d 98f2 103d 2c8c 9b3c
000000c0: d1c9 0b3c 443c af3c 293f f6bb df5d 68bc
000000d0: d273 97bc 7222 033d 8518 34bd 30ec aabc
000000e0: 219d 13bc adc7 dc3c da64 703d b295 8d3c
000000f0: 7025 a73b fa5a fb3c b404 dd3c 95e8 b93c
00000100: d5ef 8a3a 779e 6a3c b44a 843c 9556 a5bc
00000110: 7a14 a03b 91df 933c a919 ae3a 71bb 583d
00000120: eafe 1f3d 8df4 fbbb 75f6 2fbc d987 2abd
00000130: e232 1f3d df65 d23c bf87 553d 089b e03c
00000140: b294 7c3c 5e8d 153d e4f3 58bb 9e27 9e3d
00000150: e184 09bd 8f13 3c3c 9034 333d 2ce8 c53c
00000160: d25a bd3c 2697 a03c d392 d53c 8f9a 4bbc
00000170: d411 853c 0108 c13c face 053d 5f99 b63d
00000180: 1bb6 b5bc d4a2 4e3d bd1f 1d3d a753 1c3d
00000190: 08b0 a33c 3803 053c 4654 383c 011d e13c
000001a0: 8909 18bb 5a91 f03c a4ef 773c e620 6c3d
000001b0: 63d8 4a3c ba62 483c 61b7 a7bb ecae bbbc
000001c0: 929c cc3b 7604 a43c 6a93 c23c 7b8b 803c
000001d0: c93b 27bd abc6 c63c 59f8 a9bc d255 913c
000001e0: 9e21 123d 56aa 023d 5c03 babc 519a 9b3c
000001f0: 887b b33c 7830 9b3c 1068 f03c 546c 013d
00000200: 1bcf 7bbc d024 e0bc b335 253d b5d0 ea3c
00000210: da3b 753c c4fd 643c 67d4 b23c d92d f43c
00000220: f014 283d f9b8 8f3c 401c 0e3d b997 ae3c
00000230: cd4e 503c 0b19 4ebc 25fb 05bd e233 823c
00000240: a99d f33c 4689 f23c 7399 303c 0558 233d
00000250: ab8c ef3c 4e0e 3f3d 26dd 0abb 0f66 943c
00000260: 78b2 0e3d 4a28 5b3c 3d6e a83c ee00 c4bc
00000270: 93b6 553d 8e2c 1d3d 18ba ff3c 8a5c d53c
00000280: 5d28 a1ba c4df 203d b3f0 6b3c ffa1 ca3d
00000290: 4a77 ff3c ea1c ef3c 7b80 823c b183 ab3c
000002a0: 4cf3 f33c afc3 0f3d 8e11 ae3c a1c9 da3c
000002b0: b140 083d b79c 0d3d b29e 1c3c 9640 3c3c
000002c0: 4b6b 683d cd7e 163d 3229 493c c9b2 3f3c
000002d0: 34bc 343a bbe7 233d aca4 2cbb 40ba e63c
000002e0: 7ba9 be3c fdcd 123c e016 0bbd 7461 043d
000002f0: 3cf3 26bc 4a6b 9a3c 30b5 d93c 2254 033d
00000300: 0687 9e3c 4355 1c3d 93ba 3539 f6e1 c63c
00000310: 3dad 793c acf4 683d 224d a53c 58fd 063c
00000320: 15cd cc3c 389c 1b3d 0ee9 b83c 7f8f d43c
00000330: 939f 8a3c 8bfa 663c 6afe 0e3d 6da1 013d
00000340: 79a9 e73c 636b b33c 6567 11bc 39e0 f63c
00000350: 26ec 433d c149 d3bb 6f20 283d d539 d13c
00000360: b655 3bbd 85ae cb3c 28e3 15bd 7449 babb
00000370: 543a c93c bdd3 1b3c 21a8 50bc d262 8a3c
00000380: 524e f23c 62ed 033d 79e1 4ebc 773b cbbc
00000390: 6aef 1f3a 2c16 353d e0ff 133d 4b16 27bc
000003a0: 4586 a03c a3c9 e13c 72e4 d3bb 14c0 183d
000003b0: a547 04bd 89ca c53c 4c7c 2a3d cb47 a5bc
000003c0: c838 143d 526b 673c 3a17 693c 0c5f ff3c
000003d0: 357b d5bc f961 703c 3523 ef3c 7be1 383c
000003e0: 25f3 023d 33b2 c73c afd7 a4bc 3677 053d
000003f0: 579c 11bc 1ee8 263d 7bf7 f0bb 3e25 343d
0.021858191 -0.003082498 0.031082842 0.007879487 0.030153953 0.022238327 0.03394742 0.037352372
0.021230232 0.022997778 0.029540746 0.026749786 0.026684698 0.023270844 0.034855574 0.010381902
0.03509321 0.031021247 0.031623047 0.026236735 -0.020286335 0.025007276 0.024622034 0.01882814
0.035324275 0.0071402313 0.044263273 0.012334701 0.032849137 0.014490631 0.02732719 0.021326238
0.022941735 -0.004906538 0.017510816 0.027789935 -0.011481146 -0.018487688 0.018702103 0.031094458
0.021435382 0.038249996 0.0238776 -0.02852065 0.039619137 0.05500101 0.035387605 0.018987738
0.0085320035 0.021391042 -0.0075148535 -0.014182537 -0.018487845 0.03201527 -0.043968696 -0.020864576
-0.00900963 0.026950682 0.05868993 0.017283294 0.0051008984 0.03068303 0.026979782 0.022693912
0.001060004 0.0143200075 0.016148902 -0.020182887 0.0048852535 0.01805094 0.0013282794 0.052913133
0.039061464 -0.007689065 -0.010739912 -0.04163346 0.038866885 0.025683342 0.05213141 0.027417675
0.015416311 0.03651177 -0.0033104355 0.077224 -0.03357399 0.0114792725 0.0437513 0.02415856
0.023114596 0.019603323 0.026070988 -0.012426986 0.016243853 0.023563387 0.03266809 0.08915972
-0.022181561 0.050448254 0.038360346 0.038165715 0.0199814 0.008118443 0.011250561 0.02747965
-0.0023199043 0.029366184 0.015132818 0.057648562 0.012380692 0.0122305695 -0.005118296 -0.022910558
0.0062442506 0.020021658 0.023751933 0.01569151 -0.0408285 0.024264654 -0.020748304 0.017741118
0.03567659 0.031900726 -0.02270668 0.018994482 0.02190949 0.01894401 0.029346496 0.03159745
-0.015369202 -0.027361304 0.040334415 0.028663972 0.014967883 0.013976518 0.021829797 0.029807018
0.041035593 0.017544257 0.03469491 0.021312581 0.0127141 -0.012579213 -0.032710213 0.01589388
0.029738264 0.029606473 0.010778773 0.039878864 0.02924188 0.0466445 -0.0021188944 0.018115072
0.03483817 0.013376305 0.020560378 -0.023926225 0.05217607 0.03837257 0.031216666 0.026045103
-0.0012295354 0.0392759 0.014400649 0.098941796 0.031184811 0.029188592 0.015930405 0.020936819
0.029779099 0.035098728 0.021248605 0.026707472 0.03326482 0.034573283 0.00955932 0.011490008
0.056742948 0.03674202 0.012277888 0.011700341 0.00068944995 0.040015917 -0.002634327 0.028164983
0.023274174 0.008960244 -0.033957362 0.0323195 -0.0101898275 0.018849988 0.026575655 0.032062657
0.019351494 0.03816725 0.0001733101 0.024277668 0.015239057 0.056873962 0.020178381 0.008239113
0.025000134 0.03799078 0.022572067 0.02594733 0.016921794 0.01409782 0.034910597 0.03164809
0.028279053 0.021901792 -0.008874749 0.030136215 0.04783263 -0.006448001 0.041046556 0.025540272
-0.045736037 0.02486349 -0.036593586 -0.005685026 0.024563946 0.009510932 -0.012735398 0.016892824
0.029578362 0.032208808 -0.012626999 -0.024808628 0.0006101044 0.044210598 0.036132693 -0.010198186
0.019595275 0.027561968 -0.006466442 0.037292555 -0.032294888 0.024144428 0.041622445 -0.020175835
0.036186963 0.014124708 0.014226729 0.031173252 -0.026059726 0.014671796 0.029191593 0.0112842275
0.031970162 0.024376964 -0.020122377 0.03258439 -0.008887372 0.040748708 -0.0073537207 0.04398083

gcn.ln1.weight f4 [256]
00000000: ff9b 052f 9f41 473e 1d6b ab3d c829 963e
00000010: 79e3 6d39 9ca5 95ac 35dc 5239 504d a73e
00000020: 2871 c13e 0ead 0a39 2a5d a0b9 6270 1fb6
00000030: dade 0e38 e69f dd38 976c e8b5 3a80 5a3e
00000040: cb28 9fb6 e55b d038 02ab 2739 4252 2a37
00000050: 7023 8e3e 6590 403c 0f7e d838 be05 d830
00000060: 2406 353e 6b1c 323e 2007 4a3e 7926 0c3c
00000070: ce92 a438 5146 c83e 9dec 9138 2bcc c63e
00000080: 4ad9 4138 5299 293e 5d7c e53d e609 5c38
00000090: e889 483e e4d7 8c3d e956 1138 327f e33c
000000a0: b92b af34 dec8 f13c 5fc6 2f39 72ed 213e
000000b0: 9563 7837 7b84 293e 51b7 1d39 3ee0 6230
000000c0: 1776 fe3d 26d8 2c37 8384 073e f1a2 873d
000000d0: 317e ee3d d2c5 85ae 4442 fd3d d5bf f53d
000000e0: 20ad 3c3e 26d6 0139 a5a8 b13d a015 612e
000000f0: 96d8 df36 3281 9537 b2ed a43d fb16 1f35
00000100: 0ed2 403b ab69 a239 018f aeb6 1d5a 8c3e
00000110: b530 7e35 b7b6 783e a453 c63e 439e 893a
00000120: ad05 3d3a 8129 493e bb0b a13e 3f04 703e
00000130: 4df7 473e 4e07 8d3d 2118 263e 6797 903a
00000140: e96d 503a 4c7e 0eb5 ac05 e73c 71f8 053e
00000150: 13d0 343e 3eda 1a3e 306b de3a 03b0 933e
00000160: 5ade 04b9 9dda 5c3c 952a 1537 9992 a43d
00000170: 83e3 4fb6 8997 6536 f6de 8dba ec49 bc3d
00000180: 8bba 1c3e e86d 2b3a fe77 a93e ba38 273d
00000190: d04d 80b5 b50f 4db9 a774 813e 917f 7e3a
000001a0: b495 563d 0e6c 173a 8351 c0b2 2f53 dd3d
000001b0: 4fe4 4eaf a762 e339 6ccb 373e 0b85 3b3e
000001c0: a042 dc31 afd1 97b4 a5ac 76a9 cf67 fa37
000001d0: 3f22 593e 95fc e23c 23fb ac3d cb43 8f3e
000001e0: 062c b23a 8643 f0b8 347b e13d 21af 97a8
000001f0: b619 663e d541 99b7 1177 baba 1b79 1134
00000200: c07b 343e 5dc9 8f3e 3280 0e3a 7bda 433e
00000210: 73b6 2cb8 a09f 863d 4a86 903e 2269 ad36
00000220: 0cd3 9b3e a3c9 c83c fa55 7039 a409 0e39
00000230: 837b 6d2b 9d40 703c a32f 133e a29e 8fb8
00000240: 5aa4 b6ba b5e3 4e3d 53eb b834 776e 9839
00000250: 028d ec3a 1872 453d 92a5 903b 3458 4c27
00000260: 18b0 8db7 d97c ac31 edbe 19b1 3b63 dc3d
00000270: bc62 df3c 8e01 bb3a 1d5b 1a39 637b 9737
00000280: 4b35 273a bb83 9c3b 1a6c 9c3e f1ef 0e3e
00000290: e4f5 7b3d 2787 9cad 3d46 0f31 cf22 5a36
000002a0: 102d c4b2 b5a0 c43a 82c7 3bba 1604 1b39
000002b0: ef6b 0331 706c b53d 5454 a8ac 030f 083c
000002c0: 121b 1b3e 4b5d 3b3a e47d 0c36 06da d43a
000002d0: cee3 0e3e b944 d03d 384f 253d 00b0 c337
000002e0: fb2b deb8 a5c5 c334 4530 013e 68e3 853c
000002f0: eb9d d43d e2ab 1d3d 4274 f53b 0169 4736
00000300: 0326 31b0 d65c 563a 2c2e b13d fec7 9239
00000310: 2efe 203e c06f 5f3e e3ab 9b3e f7f7 8836
00000320: 8281 37ba 9c5d 253c 3e46 1a39 9b69 3aa8
00000330: 740f 99aa bbd1 bdb8 96df 763a 8176 523e
00000340: ffe1 cb3d d3e4 aa2a f78b 4c3e ad7d 9137
00000350: 34cd 903c 7f82 923b 9edf 923e 5e9b 523d
00000360: 9cdd 4c3e dac0 c7b8 fee6 263e aea5 b83e
00000370: c0a5 8539 75cf 8831 9fd5 2c3d 2c74 f4b6
00000380: afbd a13e 13c6 623e 87da c23d 3b5e 223e
00000390: d0df 883e 0e0e f03d f4ef 9c3d e71d 363e
000003a0: 0afb c432 408f 1439 aea3 203c 92d6 3b35
000003b0: d947 423e 9ecd d238 97d4 b83e 6481 a03e
000003c0: 3b75 0939 0de6 1e3d 4568 11b5 c36b ed39
000003d0: 9786 893d 253c e9b6 0517 2532 924d 01a5
000003e0: d251 83ba 8c99 64b8 35ed 613d e2d1 513e
000003f0: 7cee 393d 72e1 5c3d 5675 bd3e bf27 bf3d
1.21517e-10 0.19458626 0.083700396 0.29328752 0.00022686821 -4.253221e-12 0.00020109194 0.32676172
0.37781644 0.00013225173 -0.0003058699 -2.3758262e-06 3.4062985e-05 0.000105678846 -1.7316951e-06 0.21337977
-4.743318e-06 9.9353296e-05 0.00015990066 1.0151942e-05 0.27761412 0.011753176 0.00010323163 1.57177e-09
0.17678124 0.17393653 0.1972928 0.0085540945 7.847474e-05 0.39116147 6.9582115e-05 0.38827643
4.6217152e-05 0.16562393 0.11205361 5.2461306e-05 0.19583857 0.06877115 3.4651635e-05 0.027770612
3.2628103e-07 0.029514726 0.000167632 0.15813234 1.4805138e-05 0.16554444 0.00015040977 8.253699e-10
0.124248676 1.0302325e-05 0.13234143 0.066228755 0.11645163 -6.08328e-11 0.12366155 0.1199948
0.18425417 0.00012382175 0.086747445 5.1178284e-11 6.671132e-06 1.7822345e-05 0.08053149 5.9265557e-07
0.0029422077 0.00030977777 -5.202252e-06 0.274125 9.469325e-07 0.2428845 0.38735688 0.0010499436
0.00072106236 0.19644739 0.31454262 0.2343912 0.19527932 0.06886159 0.16220142 0.001103145
0.0007950948 -5.308291e-07 0.028200947 0.13083054 0.17657499 0.15122315 0.00169692 0.28845224
-0.00012671333 0.013479856 8.8910065e-06 0.08035774 -3.0977833e-06 3.4211864e-06 -0.0010823894 0.09193787
0.15305535 0.00065395096 0.3309936 0.040825583 -9.55939e-07 -0.00019556175 0.2528431 0.000970834
0.05238886 0.0005776294 -2.2388809e-08 0.10806882 -1.8816702e-10 0.00043370316 0.17948693 0.1831247
6.410417e-09 -2.8278507e-07 -5.4772718e-14 2.9850662e-05 0.2120447 0.027708331 0.08446338 0.2798141
0.0013593442 -0.00011456669 0.11009827 -1.6840318e-14 0.22470745 -1.8269677e-05 -0.0014226158 1.3548235e-07
0.17625332 0.28083315 0.00054359727 0.19126312 -4.1177915e-05 0.06573415 0.28227454 5.168041e-06
0.30434453 0.02451021 0.00022920212 0.00013545767 8.437072e-13 0.0146638425 0.1437364 -6.848319e-05
-0.0013934479 0.050510127 3.4443892e-07 0.00029074002 0.0018047395 0.04820451 0.004414269 2.8358502e-15
-1.689051e-05 5.0200524e-09 -2.237296e-09 0.10761114 0.02726876 0.0014267431 0.00014720527 1.805806e-05
0.00063784857 0.0047764457 0.30551225 0.13958718 0.061513796 -1.7795166e-11 2.0849165e-09 3.2504793e-06
-2.2837895e-08 0.0015001508 -0.0007163213 0.00014783474 1.9124362e-09 0.088585734 -4.7842095e-12 0.00830436
0.15147045 0.00071473856 2.0934904e-06 0.0016239292 0.13954088 0.10169358 0.040358752 2.3327768e-05
-0.00010593977 3.6465386e-07 0.1261607 0.016343787 0.10381683 0.038494 0.0074906657 2.971443e-06
-6.4446243e-10 0.0008177286 0.08651385 0.00027996296 0.15721962 0.21819973 0.30404577 4.0819828e-06
-0.0007000194 0.010093119 0.00014712752 -1.0347974e-14 -2.7188982e-13 -9.0512876e-05 0.0009417472 0.20553018
0.09955215 3.0356845e-13 0.19975267 1.734387e-05 0.017675973 0.0044711228 0.2868623 0.0514177
0.20006412 -9.524981e-05 0.16299054 0.36063904 0.0002549123 3.981706e-09 0.042195912 -7.285291e-06
0.3159003 0.22145872 0.09514337 0.15856259 0.26733255 0.11721431 0.07662955 0.17784844
2.2931562e-08 0.00014167745 0.009804649 6.997517e-07 0.1897272 0.000100518795 0.36099693 0.31348717
0.0001310901 0.038793612 -5.416844e-07 0.0004528445 0.06715124 -6.950943e-06 9.609498e-09 -1.1215248e-16
-0.0010018891 -5.4502438e-05 0.05515786 0.2049022 0.045393452 0.05392594 0.37003583 0.09333753

gcn.ln1.bias f4 [256]
00000000: cab5 bb2d 3656 23bc f939 c3bc 4987 f6bb
00000010: a337 1fba a938 a1ad fc71 25ba 6801 afbc
00000020: 5080 f8bb 529b c5bb 2254 aaba f146 03b7
00000030: dd67 2db8 9966 aeb9 f0eb 8cb6 cb51 07bc
00000040: 85a0 69b7 d324 f5b8 0bf7 e7b9 01da 80b8
00000050: c070 933c 0192 e6ba 138d 2bb7 2257 a4b2
00000060: 9b99 1ebc 4109 a53b 15be 16bd 4c73 ef39
00000070: a167 97ba 23e5 3ebc 1f34 3fb8 4cdf aabc
00000080: e386 e7b7 ac40 86bb d437 6e3b 76e3 0fb9
00000090: 9caa 47bb a095 923b 0f91 12b8 888a 83bb
000000a0: bfeb 91b6 dfc4 52bb 8402 8fbb 7b4c 4fbc
000000b0: 157e bab8 fb70 06bc b658 93ba 002b ceb2
000000c0: 1644 963b 3fd1 07b9 cdcd 00bd 293f 2d39
000000d0: c8d0 adbc 3b35 8eb0 4faa 063c 0e42 3abc
000000e0: a6af b0ba 5e06 17b9 8cda 713c 73a9 11b0
000000f0: 4181 26b4 78ce 59b7 b5ed 80bc d0c6 c7b5
00000100: 158c c53a cdc1 0ab9 994f 40b4 1cfe b7bb
00000110: fa10 eab4 d316 aebc eee7 a1bb 6977 b5bb
00000120: 5c2a c9bb f7f0 37ba 8d61 0abb 3d23 e2ba
00000130: b2b6 023c bbc3 d9bc b3f5 473b c185 edbb
00000140: 97be 6e3a b362 11b6 01ae 24bc 4821 e33c
00000150: bada 28bb d41c b93b 10fe d7bc 5dc5 81bc
00000160: 7de7 99b9 c0fa 53bc c53b e6b7 7359 b8bc
00000170: 5f00 3ab7 0953 f5b5 f68c b3ba 4164 a13c
00000180: e400 98bc 25c2 17bb 3df5 1bbc f288 aabc
00000190: 0727 46b8 2f4d 4cba 6525 003a d98b b3bb
000001a0: d2fa f43b a007 22ba 7936 19b4 7994 2cbc
000001b0: 68de 27b0 f6d1 00bb 38f0 a8bc ee8d 26bc
000001c0: e9d2 062f f3f2 8bb6 3a35 81ab 2b42 23ba
000001d0: f018 943b dfba 0cbc ad79 a83b c74d 79bc
000001e0: dbce aabc 842e e4b9 650b ddbb 15b0 acae
000001f0: caa9 86bc 7332 0db8 5ec1 adba f189 5eb4
00000200: b1b4 8f3b bdfe b0bb 48b3 6dbb fb23 e4bc
00000210: b93b caba eab1 edbc 359b 9fbc 10cb b6b6
00000220: 7569 26bc 176e a2bb e266 90ba d4ff ddba
00000230: 78f8 adac 5be6 353c 9c3e 293c c132 57ba
00000240: c69a bbba 742f a0bc 3390 b5b5 25ec 3dba
00000250: bfb8 da3b 86ad d13c 78dc 3d3b d895 fda8
00000260: 9630 0fb8 f3fe 2db2 0109 a4b2 8d34 aa3b
00000270: 3f2f a53c 96c3 70bc f2eb 45ba a215 b4b7
00000280: 3622 4639 3fa4 9eb9 759f 41bc e043 613d
00000290: 2a8f bebc d6b4 70ae c252 88b2 6a12 5bb7
000002a0: c1c5 82b3 ea37 fdba 8d64 e7b9 e0d2 26b9
000002b0: cfa4 6fb2 a797 fbbc e1c7 94ac 0478 18bc
000002c0: 8c56 74bc f12b e9bb e9d7 1934 fcc3 08bb
000002d0: 9ab1 c13a 1da5 e8bc f082 ad3b a430 8c3a
000002e0: 8302 acb9 45ea 95b5 65b7 01bc b831 50bc
000002f0: 5447 0a3c 2ecc 87bb 4fe9 8ebc 0e16 09b7
00000300: 8995 3ab3 77fb 4bbc fb87 243c 71b0 91bc
00000310: 2353 72bc 99d4 273c 5547 1fbc 51e1 9534
00000320: 55e0 21bb 36d4 e23b 199a 83ba 3067 17a9
00000330: 2148 31ab 7732 d4ba c999 85ba c144 aebc
00000340: 6895 d4bc 288e 8dac 17d4 d8b9 d613 6eb7
00000350: 0cc3 f7bb 62cc 3a3b 4b1f 28bc 82ec a3bb
00000360: 379d abbb 6db0 15bb e2bb 47ba 445b 2fbc
00000370: c6f5 92bc 80f5 52b2 012c 633c 7814 e7b9
00000380: a9ca edbc 305e 75bc e194 c139 abf9 ae3b
00000390: 59a0 b3bc 7f86 26bc efc1 f3bc affd a13c
000003a0: 982d d0b4 f376 e1ba 7311 123c 465c 45b5
000003b0: f244 ba3b 9bd0 15bb 4cb8 0dbc 8ca9 803b
000003c0: e0e1 84ba c4ec acbc 9d58 2db6 bf88 99ba
000003d0: 16e4 2b3c a83a 12ba 3f6a 5fb2 5069 ba24
000003e0: feac ceba 7c08 4b37 085f 2b3c 0fd9 ecbc
000003f0: 7b1c 033c 1445 013d e3ff 5c3b c942 16bc
2.134017e-11 -0.009969285 -0.023831354 -0.0075234515 -0.0006073659 -1.8328743e-11 -0.00063112355 -0.021362975
-0.0075836554 -0.0060304785 -0.0012995044 -7.824726e-06 -4.1343144e-05 -0.00033264307 -4.199792e-06 -0.008259247
-1.3925256e-05 -0.000116893694 -0.00044243815 -6.144122e-05 0.0179981 -0.001759112 -1.0225241e-05 -1.9131736e-08
-0.009680177 0.0050365035 -0.03680237 0.00045671535 -0.001155127 -0.01165131 -4.558649e-05 -0.02085843
-2.7600157e-05 -0.004097065 0.0036349194 -0.00013722279 -0.0030466681 0.004473403 -3.494421e-05 -0.004014317
-4.348781e-06 -0.0032160801 -0.0043643136 -0.012652512 -8.892656e-05 -0.008205648 -0.0011241648 -2.400111e-08
0.004585753 -0.00012952554 -0.031446267 0.00016522095 -0.021217719 -1.0346989e-09 0.008219316 -0.011368288
-0.0013480082 -0.00014402854 0.014761578 -5.2991495e-10 -1.5506977e-07 -1.298228e-05 -0.015738348 -1.4884517e-06
0.0015071655 -0.00013232902 -1.7910351e-07 -0.005615009 -4.3598249e-07 -0.021251118 -0.0049409783 -0.0055379164
-0.006139083 -0.00070168026 -0.0021115274 -0.0017252933 0.007978128 -0.02658259 0.0030511438 -0.0072486107
0.00091073796 -2.1664134e-06 -0.010051251 0.02772583 -0.0025765137 0.0056491885 -0.026366264 -0.01584118
-0.00029354906 -0.012938201 -2.7445969e-05 -0.02250359 -1.108655e-05 -1.8278089e-06 -0.0013698626 0.019701125
-0.018555112 -0.002315649 -0.009518919 -0.020817254 -4.7243226e-05 -0.00077934837 0.0004888385 -0.0054793176
0.007476189 -0.0006180946 -1.4269052e-07 -0.0105334455 -6.1070304e-10 -0.0019656396 -0.020622358 -0.010165675
1.226216e-10 -4.170806e-06 -9.180775e-13 -0.00062278163 0.0045195743 -0.008589475 0.005141458 -0.0152162975
-0.02085059 -0.00043522206 -0.006745743 -7.852933e-11 -0.016438384 -3.3664004e-05 -0.001325648 -2.0725544e-07
0.0043855538 -0.005401461 -0.003627019 -0.027849188 -0.0015429176 -0.0290155 -0.019483188 -5.4476623e-06
-0.010156979 -0.0049569714 -0.001101699 -0.0016937205 -4.9445413e-12 0.011102284 0.010329869 -0.0008209162
-0.0014313094 -0.019553877 -1.3527518e-06 -0.0007244966 0.0066748555 0.025595438 0.002897052 -2.8153627e-14
-3.4139106e-05 -1.0127894e-08 -1.9096207e-08 0.005194253 0.02016413 -0.014695069 -0.0007550112 -2.1467746e-05
0.00018895496 -0.0003025848 -0.011817803 0.05499637 -0.023261625 -5.4730297e-11 -1.5870118e-08 -1.3057705e-05
-6.089568e-08 -0.0019319032 -0.0004413467 -0.0001590955 -1.3949104e-08 -0.030711962 -4.228604e-12 -0.009305958
-0.0149132125 -0.007115834 1.4327783e-07 -0.002086877 0.0014777661 -0.028399045 0.00529515 0.0010695648
-0.00032808268 -1.1169546e-06 -0.00791726 -0.012707166 0.0084398575 -0.004144213 -0.017445235 -8.170971e-06
-4.34425e-08 -0.012450091 0.010042186 -0.01778433 -0.014790329 0.010243558 -0.009721597 2.7917352e-07
-0.0024700363 0.00692227 -0.0010040432 -3.3618236e-14 -6.298313e-13 -0.0016189356 -0.0010192926 -0.021273019
-0.025950149 -4.0232435e-12 -0.0004135675 -1.4190524e-05 -0.007561093 0.002850317 -0.010261367 -0.005002559
-0.0052372473 -0.0022840754 -0.0007619244 -0.010702912 -0.01793946 -1.2279429e-08 0.013865472 -0.00044075004
-0.0290273 -0.014976069 0.00036922752 0.0053398213 -0.021927046 -0.010163902 -0.02975556 0.019774286
-3.8776193e-07 -0.0017201587 0.008915293 -7.3522494e-07 0.0056844885 -0.0022859934 -0.008649897 0.0039264616
-0.0010138117 -0.021108992 -2.5830589e-06 -0.0011713727 0.010491392 -0.00055781985 -1.3004466e-08 8.084305e-17
-0.0015768108 1.2101718e-05 0.010459669 -0.028912095 0.008002396 0.03156002 0.0033721856 -0.009171196

gcn.gc2.weight f4 [256, 64]
00000000: 274e c5ac 8da6 c4ac bada d5ac 1f18 29ad
00000010: 38d6 4dac b717 98ad 8e56 35ad 446a c4ac
00000020: acef 55ad 17eb b8ac 7b7d c4ac e7ae 12ad
00000030: 2e84 a22d c908 472c 1766 bead 50a3 2e2d
00000040: ba4a 32ad 1d49 27ae 7477 a22c 2e05 dcac
00000050: 3849 282d 2b29 23ad eae5 54ad 6916 3bad
00000060: 1288 64ad f2c7 36ad f518 77ad 50bd 8b2d
00000070: b1ce d2ac 59f8 d1ac b2c3 50ad 718b 822e
00000080: 7582 452d 9192 0b2f e3d4 e8ac 41fa 0c2d
00000090: d3fd 482d 2b9b b4ad 022f 452d 3be2 35ad
000000a0: 116a eeac 814f 2fad 748d 23ad 4b07 3d2c
000000b0: 611c d5ac f3dd f92c 69d3 632e 7148 c8ac
000000c0: 0c34 edad 90dc 2b2e 73ab 87ac 9183 d92d
000000d0: dfaf 022e 5544 ae2d c83d e7ac 6ef1 e4ac
000000e0: 134c 5e2d 0096 d7ac d213 35ad 400b cdac
000000f0: adc8 6dad b018 a42c c675 3fad a553 8c2d
00000100: 653f e2ba d66d e2ba 21fe d9ba 676c e2ba
00000110: 1b6e e2ba cf18 cfbc 5a6c e2ba 606c e2ba
00000120: 2a6a 123b 762c ddba 956d e2ba 2668 e2ba
00000130: f991 b6bb ca39 b13c fe1e d93c 9799 dcba
00000140: 4e6c e2ba afef 25bc b907 0abb db75 e2ba
00000150: 8d4e a8ba 836c e2ba 3cc9 e1ba c26b e2ba
00000160: a10e e2ba 73e8 e3ba aeaa 02bc 15e0 1dbc
00000170: 5a6b e2ba e077 e2ba d494 e2ba 08a8 2cbc
00000180: f1aa cdba 3de1 043d fe93 e2ba 88c2 fb3b
00000190: dafc cdba 87bb 403c 36b2 94bb 4f6c e2ba
000001a0: 8951 e2ba 386c e2ba c757 e2ba e28a 0c3c
000001b0: 0cfa dbba dfd0 dbba 4478 f63a a898 e3ba
000001c0: 7cbc 07bb 964b 87bc 0288 e2ba f5fe 7a3c
000001d0: f220 013c b493 65ba 284b f3ba 1e6c e2ba
000001e0: e6ef 1dbb 22d3 e3ba 5f6c e2ba e44e e2ba
000001f0: 24f3 e2ba fbf0 943b 7e6b e2ba 00d6 b5bc
00000200: d175 563a f725 553a ad81 803a ff21 553a
00000210: c193 533a fddf 52bc 2d21 553a 51bd 553a
00000220: 1566 b03c 5c2a 693a e912 553a bdfa 543a
00000230: 7655 4c3b efd9 28bc 2e3a 8f3a 43ef b43a
00000240: 1a1f 553a 38bf 16bc 08c7 0c3a e58f 533a
00000250: d180 123a 4c1e 553a c49e 633a 3814 553a
00000260: 9bd6 503a 03d7 593a 921e 80bb 7bce 39bb
00000270: 9cb9 543a 8d7c 543a 6242 593a 8e4f e13b
00000280: 2746 3bbb c521 eebc 214a 573a f387 133c
00000290: 082d e139 e785 ee3b df8d 4d3b 5d1f 553a
000002a0: 6d11 553a 6a20 553a 6d58 553a d7a0 89bc
000002b0: 4509 843a ce9d 783a 924e cf39 0be0 553a
000002c0: 43dd c4bc 9792 81ba 11ca 553a 9c91 b3bc
000002d0: fb5f f9bc c847 9bb8 b92f 543a f8b9 563a
000002e0: 7dcf 5c38 0a93 5d3a d61f 553a 30e6 543a
000002f0: 1517 523a 2e00 9ab9 4815 553a 9354 11bc
00000300: a383 9a3a 7dc9 993a 3f89 e93a 70bf 993a
00000310: c197 983a b009 febc 5ec1 993a 2501 9a3a
00000320: 6684 fd3c dd3f 913a 76a5 993a 3ec8 993a
00000330: 5603 38bb 22a4 233d 49c4 b4bc 4dc8 323b
00000340: f8be 993a bf94 43bb 0857 9cba feb2 993a
00000350: fdba 173a 78c0 993a 413b 9e3a 4eb9 993a
00000360: 66a0 973a d9a3 983a d89f 95bb 787a 3bbc
00000370: cc80 993a f78f 993a 762c a03a e6e9 b9bb
00000380: 2ccc 19bc 320f 503d 5f2f 9a3a 6583 c43b
00000390: fbd5 93ba 0d7e 223d 4a69 083c 55bf 993a
000003a0: 0f7d 9a3a 0ec0 993a aef1 993a e07a 573d
000003b0: 4f2d d93a 05d6 ca3a 8550 2a3d 2299 953a
000003c0: 6ed9 4abd 7105 f03b e979 9a3a be26 ba3a
000003d0: a6c2 28bd cb05 803a 210c 5f3a c2f9 993a
000003e0: 69d6 ea3b eef6 a23a 8cbf 993a c6b7 993a
000003f0: 2529 973a 9126 e8bb aeb9 993a 6523 adbc
-5.6077534e-12 -5.589146e-12 -6.0781076e-12 -9.611894e-12 -2.9251167e-12 -1.729093e-11 -1.0307878e-11 -5.582453e-12
-1.2160866e-11 -5.2556948e-12 -5.584586e-12 -8.337975e-12 1.8475967e-11 2.8284478e-12 -2.1645836e-11 9.9270175e-12
-1.0134721e-11 -3.803634e-11 4.617579e-12 -6.253351e-12 9.565952e-12 -9.274618e-12 -1.2101856e-11 -1.0634695e-11
-1.2990513e-11 -1.0389899e-11 -1.4045866e-11 1.5886542e-11 -5.9915063e-12 -5.9677094e-12 -1.1866884e-11 5.936485e-11
1.1227121e-11 1.2694047e-10 -6.6174718e-12 8.013646e-12 1.1425044e-11 -2.053254e-11 1.1208591e-11 -1.0338892e-11
-6.7761426e-12 -9.965252e-12 -9.296886e-12 2.6862564e-12 -6.056975e-12 7.101647e-12 5.1801594e-11 -5.6923845e-12
-2.6966894e-11 3.9076797e-11 -3.8559655e-12 2.4728471e-11 2.9714783e-11 1.9811855e-11 -6.572274e-12 -6.506954e-12
1.2636131e-11 -6.127321e-12 -1.029306e-11 -5.8276994e-12 -1.3516449e-11 4.663901e-12 -1.0883244e-11 1.5953303e-11
-0.0017261325 -0.0017275165 -0.0016631522 -0.0017274738 -0.0017275246 -0.025280384 -0.0017274723 -0.001727473
0.002234111 -0.0016874212 -0.001727509 -0.001727347 -0.0055716005 0.021634001 0.026504036 -0.0016830441
-0.0017274709 -0.010127946 -0.0021061732 -0.0017277555 -0.0012840793 -0.0017274771 -0.001722611 -0.0017274546
-0.0017246791 -0.0017388001 -0.0079752635 -0.009635945 -0.0017274425 -0.0017278157 -0.0017286786 -0.010538109
-0.0015691203 0.032441366 -0.0017286537 0.007683102 -0.0015715614 0.01176346 -0.004537846 -0.001727471
-0.0017266731 -0.0017274683 -0.0017268591 0.008578034 -0.0016782894 -0.0016770622 0.0018804152 -0.0017364221
-0.002071171 -0.016515534 -0.0017282965 0.015319576 0.00788139 -0.0008757666 -0.0018561827 -0.0017274653
-0.002409929 -0.0017381648 -0.0017274729 -0.0017265943 -0.0017314893 0.0045453287 -0.0017274467 -0.02219677
0.0008181008 0.00081309624 0.0009804271 0.0008130371 0.0008071028 -0.012870786 0.0008130249 0.00081535155
0.021533052 0.00088945567 0.0008128123 0.0008124521 0.0031178868 -0.010305866 0.0010927373 0.0013804216
0.00081299397 -0.009200864 0.0005370234 0.0008070453 0.0005588653 0.000812982 0.0008683021 0.0008128318
0.0007966549 0.00083099323 -0.0039098943 -0.0028351832 0.0008114816 0.0008105718 0.0008287785 0.0068759387
-0.002857575 -0.029068837 0.0008212645 0.009004581 0.00042948895 0.007279146 0.003136508 0.00081299787
0.0008127902 0.0008130135 0.00081384816 -0.016800327 0.0010073563 0.0009483964 0.00039540656 0.000815869
-0.024031287 -0.0009885606 0.00081554154 -0.021920018 -0.030441275 -7.404346e-05 0.00080942694 0.00081911637
5.2645326e-05 0.00084523915 0.0008130049 0.0008121459 0.0008014304 -0.00029373303 0.00081284763 -0.008870262
0.0011788498 0.0011733022 0.0017817392 0.0011730026 0.0011641906 -0.031010479 0.0011730602 0.0011749609
0.030946922 0.0011081655 0.0011722285 0.001173265 -0.002807816 0.03995145 -0.022066252 0.0027280033
0.0011729887 -0.0029843298 -0.0011927793 0.0011726317 0.00057880563 0.0011730334 0.0012072102 0.0011728199
0.0011568188 0.001164551 -0.004566174 -0.011442773 0.0011711358 0.0011715878 0.0012220282 -0.005673635
-0.009387057 0.05079574 0.0011763385 0.0059971088 -0.0011278981 0.039670993 0.008325884 0.0011729995
0.0011786538 0.001173021 0.0011745 0.052607417 0.0016569289 0.001547516 0.041580696 0.0011413435
-0.049523763 0.0073248674 0.00117856 0.001420222 -0.041201256 0.0009767351 0.0008508582 0.0011747407
0.007166673 0.001243321 0.0011730059 0.0011727742 0.0011532648 -0.0070846756 0.001172831 -0.021135041

gcn.gc2.bias f4 [64]
00000000: b229 bc3a 45cb bb3a 0c3e b43a 70cd bb3a
00000010: 2b26 be3a 2343 3d3e 8ccd bb3a c4cd bb3a
00000020: 1d14 48bd 3267 b53a e5d0 bb3a d01c bc3a
00000030: 0fea cebb 133b a1bb 00e5 f9bb 79cf 0d3a
00000040: 63cd bb3a 955b 8bbc 3bcf 993c 413e c03a
00000050: 1a00 a93b 06cd bb3a ee9c b83a b7cd bb3a
00000060: 10ee c03a 547c cb3a c611 143d fb6c c33d
00000070: 77cc bb3a 8759 bc3a 8c07 bb3a de51 79bc
00000080: 4730 89bc 493e 45bd 0598 bb3a 5af8 32bd
00000090: 71fd e83b 6e5d ca3c c911 dcbb 81cd bb3a
000000a0: 6f52 bd3a 33cd bb3a 952f bc3a 95b9 8cbc
000000b0: ead9 ab3a f97f 993a b5a9 38bd 7e9f c23a
000000c0: d854 033e b76a 7a3d 81b4 bb3a d6a8 e0ba
000000d0: 18bb 89bd 3ec1 aebb 2be9 803b a58d bb3a
000000e0: f913 9cbc 1046 b73a 79cd bb3a 2ee9 bc3a
000000f0: 3f06 c63a 6685 1cbd 23d1 bb3a c63a 0c3e
0.0014355688 0.0014327547 0.0013751402 0.0014328193 0.0014507225 0.18482642 0.0014328226 0.0014328291
-0.048847307 0.0013839959 0.0014329223 0.0014351849 -0.006314523 -0.0049203723 -0.007626176 0.0005409639
0.0014328178 -0.017011443 0.018775573 0.0014666991 0.005157483 0.001432807 0.0014084855 0.0014328276
0.0014719386 0.0015524724 0.036149763 0.09542271 0.0014327903 0.0014369943 0.0014269217 -0.015217273
-0.016746653 -0.048155103 0.0014312273 -0.043693878 0.0071102907 0.024702754 -0.0067159873 0.0014328213
0.0014444123 0.0014328122 0.0014357442 -0.017178336 0.0013111208 0.0011711112 -0.04508372 0.0014848558
0.12825334 0.061136927 0.0014320762 -0.0017140161 -0.067251384 -0.005333095 0.003934046 0.0014309181
-0.019052492 0.0013982672 0.0014328203 0.0014412755 0.0015108063 -0.038213156 0.0014329295 0.13694295

gcn.ln2.weight f4 [64]
00000000: 34e2 d737 c99d 6937 fc97 0db8 3089 1632
00000010: e806 ef36 51bb e93e a95c 2e2e b681 d538
00000020: 7e0b ca3e 8962 8537 1dc7 e937 7c9a e038
00000030: 29bf 753d 4d02 083f 3d50 eb3e 14cc ac39
00000040: d715 9eb1 ac43 ea3e 434c c63c ba33 04b8
00000050: 0067 563a 974a 99b3 67c8 f8b6 2890 8327
00000060: dca4 9eb7 e577 1e37 3396 9e3d ecf8 6f3e
00000070: 2274 a736 dc07 a438 c00a af37 f338 023e
00000080: 6897 9e3d 8e51 113f 433d 2026 1c63 2d3e
00000090: 6885 9d3b b7e0 603e ad20 393c 5048 91ad
000000a0: caa6 2437 2bf2 e032 f564 b738 9418 013f
000000b0: 6193 a6b8 47a5 2239 80c2 e93e 61a2 9ab6
000000c0: 89ba fb3e 00db 073e 809d 96a9 282a 1f3f
000000d0: 20b9 2b3f ddec 793c fa57 f438 7a06 33b8
000000e0: cb91 6d3d 8f2e e936 2f5d b8a6 e7ac d937
000000f0: 50e2 89b7 5da7 733e de54 f837 6673 a93e
2.5735331e-05 1.3924619e-05 -3.3758566e-05 8.762342e-09 7.123559e-06 0.45650724 3.964532e-11 0.00010180792
0.39461893 1.590072e-05 2.7868484e-05 0.00010709927 0.059996758 0.5312851 0.45959654 0.00032958447
-4.600888e-09 0.45754755 0.024206286 -3.1519427e-05 0.00081788003 -7.1381855e-08 -7.414306e-06 3.65161e-15
-1.8911836e-05 9.445449e-06 0.07743492 0.234348 4.9905075e-06 7.821593e-05 2.0866632e-05 0.12717037
0.07743722 0.5676507 5.5594176e-16 0.16932338 0.004807163 0.21960722 0.011299294 -1.6516705e-11
9.813995e-06 2.6187157e-08 8.744925e-05 0.5042813 -7.942948e-05 0.00015511095 0.45656204 -4.608461e-06
0.49165753 0.13267136 -6.68866e-14 0.621737 0.67079353 0.0152542265 0.000116512136 -4.2682957e-05
0.058000367 6.9493613e-06 -1.2792822e-15 2.594893e-05 -1.6437058e-05 0.23794313 2.9603423e-05 0.33095855

gcn.ln2.bias f4 [64]
00000000: e7be 133e 823a 353c 47d8 273d 9dd0 84b8
00000010: ea28 7c3d 8225 d13e b75b ddb3 a41f 143e
00000020: b85d 9f3d d359 dc3c db70 a23c 103f d63d
00000030: 6634 9b3d ef4e 843d 69ac 703d 0de0 6b3d
00000040: e21a 72b6 9112 ce3d 9bb9 283d bbbf ec3d
00000050: 6504 953d 11c1 22ba 4225 6d3d d8ad 92ac
00000060: 53c1 723d e45c 943d ae21 ab3d 6b38 073e
00000070: e070 6c3b dfab b23d 75a3 8b3c a716 a33d
00000080: 0c2a ae3d 71cb 9f3d a615 7bab 60ba 8e3d
00000090: 06a4 a23d bd2a 293d 82fb 893d 3c01 a3b3
000000a0: 8e3c e33d c0bc 4ab8 c749 173e 73bb f43d
000000b0: 91bd 7d3d 19ec 393d a979 c13d 032d 5a3d
000000c0: 81b9 f53d e17c b93d 15b0 16b1 37f3 783d
000000d0: da88 ea3d b3cc 823d 4d39 f43d e399 af3d
000000e0: 1533 7c3d 1b67 c63c dfe6 1fa9 5833 a03d
000000f0: 24ca 4f3e 1eb1 b23d f47d bf3c 8704 7d3e
0.14428292 0.011061313 0.040977743 -6.333108e-05 0.061562456 0.4084893 -1.0307797e-07 0.14465195
0.07781547 0.0268983 0.019829204 0.10461247 0.075783536 0.06460368 0.058758173 0.05758672
-3.6076458e-06 0.10062135 0.041192632 0.11560007 0.07276229 -0.00062085787 0.05789686 -4.16887e-12
0.0592664 0.0724428 0.08356033 0.13205115 0.003607802 0.08724188 0.017045716 0.07963305
0.085041136 0.07802475 -8.9203157e-13 0.06969142 0.07941441 0.041300524 0.067374244 -7.5905035e-08
0.11095534 -4.833634e-05 0.14774238 0.119498156 0.061948363 0.045391176 0.09447033 0.053265583
0.11998273 0.09057022 -2.1927964e-09 0.060778823 0.114518836 0.063866995 0.11924992 0.085742734
0.061572153 0.024219086 -3.550534e-14 0.07822293 0.20291954 0.08725189 0.023375489 0.24708758

attention.fc1.weight f4 [16, 64]
00000000: cd8d e939 116d 0c38 f572 6339 fcab 11b5
00000010: e4a2 9f39 1286 07be a898 ceb0 fa52 e839
00000020: c27b 223d 5c78 ec38 2e5c 6938 e2f2 ca39
00000030: 43f1 523a 1b9a 823d 38fa f73c 05f0 8039
00000040: 3037 18b3 47d2 263d 90f2 54ba c105 d439
00000050: 688f 5939 6394 04b7 e50a 9a39 0a34 27a9
00000060: 0d7f 9b39 c4b1 aa39 5033 b1bb 9942 34bd
00000070: 99b1 5e38 0d56 ba39 ded8 2338 7938 7d3b
00000080: 913f 1e3b 82e0 a43d a2bb 0ba8 af99 a53b
00000090: fae7 f938 b87d 90bb ac4e be39 a3cf 43b0
000000a0: f8f6 d039 74ee 2fb5 ff93 eb39 818c 663d
000000b0: c7ac 9f39 68a5 6439 c7dd 2d3d ec77 9039
000000c0: ba83 a1bd 19dd 5fbc 575a 36ad 567c a73d
000000d0: b29c d33d 3160 c339 a888 a539 071a ba39
000000e0: 1760 e33a 5a6c b538 1f34 6fa5 08a0 b439
000000f0: 66a6 073a a3a9 143c b97d b038 33ab aabd
00000100: 2681 f639 4ff6 fc37 2311 8139 e4a2 29b5
00000110: e621 ab39 1254 0dbe 8e70 8fb0 d236 f539
00000120: 5c18 2b3d 7f5e 1939 b142 aa38 07f1 d539
00000130: f20d 5e3a b790 823d e5f3 fd3c 1132 8a39
00000140: d224 2eb3 cef8 2f3d 1215 5bba cba6 df39
00000150: e562 6d39 701b 1eb7 483d a639 e804 4da9
00000160: cf2c a739 a2d1 b439 bef5 b7bb 2d69 3cbd
00000170: a26a 4038 a57d c439 96f4 6a38 5ddd 833b
00000180: 2467 253b cc14 ac3d cf04 40a8 7067 ac3b
00000190: a330 0d39 96b5 94bb 9b3a ca39 bb6e 25b0
000001a0: f54d dc39 559b 2fb5 d0ab f839 5f66 743d
000001b0: 8efa aa39 63c1 7639 227f 373d 1840 9d39
000001c0: 4e1d a7bd 374e 68bc 3472 6fad b5c3 b83d
000001d0: 8131 e13d 100e ce39 5932 b239 0037 c439
000001e0: e3c3 ea3a 4276 f938 d16a b3a5 eef7 be39
000001f0: 132c 0f3a bcd8 1a3c 8c2e f238 1d62 b2bd
00000200: 65e3 dbb9 c548 51b8 3ade 3ab9 af05 3b35
00000210: c8a5 91b9 0437 003e 867a b030 16aa dab9
00000220: 6202 18bd 8506 9ab8 ef23 15b8 309f c0b9
00000230: cb2b 45ba 2e24 74bd cd20 e5bc 2340 6eb9
00000240: 1f42 0c33 7d00 1cbd aa3c 4d3a 36d5 c8b9
00000250: eed0 41b9 3dae ad36 c08b 8ab9 272e 6529
00000260: e708 8db9 a5ee 9fb9 2e63 a83b 480a 2a3d
00000270: 0628 81b8 689d b0b9 a076 0db8 71c3 6fbb
00000280: 2118 15bb 1c4e 9bbd 0c6a 2d28 0018 9cbb
00000290: 21b9 cfb8 857a 8b3b 596c afb9 40da 7930
000002a0: da2b c6b9 263a 0735 b193 ddb9 73e6 55bd
000002b0: 641f 92b9 225f 50b9 eaf9 21bd 60c4 7fb9
000002c0: 3659 993d 0beb 543c bf25 7c2d 7ad0 9dbd
000002d0: 0438 c2bd ef01 b7b9 1997 95b9 a162 b0b9
000002e0: 98b9 d8ba 73eb 5cb8 1380 4226 0407 aab9
000002f0: 9c88 fcb9 fb0f 0cbc 11be 56b8 97f4 a03d
00000300: bb38 e539 39e1 3f38 440a 4d39 2eeb 36b5
00000310: 9a5e 9939 cb2b 02be 38c4 bdb0 1700 e439
00000320: f5f7 1a3d 3040 ba38 2713 3438 0bc8 c739
00000330: ed2d 4a3a cdfb 793d fb52 ea3c 3012 7939
00000340: 08df 0fb3 044e 1f3d 60b5 4eba e17f d039
00000350: 754f 4e39 6b21 c5b6 ddb1 9239 3ad4 55a9
00000360: 3ace 9439 5ea2 a639 63ae aabb 64d6 2cbd
00000370: d31f 7a38 972e b739 a328 1738 9de2 733b
00000380: a1ff 173b ab0a 9e3d c988 1aa8 a1c8 9e3b
00000390: 2b77 e738 4bc8 8cbb ea28 b639 13a1 7eb0
000003a0: 74a0 cd39 69c5 14b5 951f e739 2e05 5b3d
000003b0: 7b9d 9939 5e01 5b39 1a9f 253d a93c 8839
000003c0: 9b4e 9bbd 7ae0 57bc cd0b 5fad 3e94 a13d
000003d0: ef53 c73d e9bc bc39 24cd 9e39 d0ef b639
000003e0: a215 dc3a 0f15 8938 d43c 44a6 9bcd b039
000003f0: 1bae 043a dd7e 0e3c eb45 8538 eb94 a3bd
0.00044546873 3.3480177e-05 0.00021691232 -5.426698e-07 0.00030448206 -0.13234738 -1.503186e-09 0.0004431231
0.039668806 0.000112757756 5.5637378e-05 0.00038709404 0.0008046815 0.063770495 0.03027068 0.0002459289
-3.544045e-08 0.04072788 -0.0008123303 0.00040440078 0.00020748156 -7.902362e-06 0.00029381286 -3.7126586e-14
0.00029658564 0.00032557372 -0.0054077283 -0.044008825 5.3094325e-05 0.00035540797 3.90642e-05 0.0038638397
0.0024146775 0.08050634 -7.756736e-15 0.005053721 0.00011916454 -0.004409518 0.0003629824 -7.1235656e-10
0.00039856858 -6.5539575e-07 0.0004493296 0.05628634 0.00030455572 0.00021805393 0.04244783 0.0002755517
-0.07886453 -0.013663554 -1.0365562e-11 0.08178012 0.10332622 0.00037264967 0.0003157307 0.00035496076
0.0017347363 8.6509346e-05 -2.0747605e-16 0.00034451508 0.00051746366 0.009073648 8.415752e-05 -0.08333435
0.00047017 3.0155437e-05 0.00024617565 -6.3194443e-07 0.00032640918 -0.13801602 -1.0436609e-09 0.00046770886
0.041771278 0.0001462642 8.118654e-05 0.00040806105 0.0008470706 0.063752584 0.031000087 0.00026358714
-4.054602e-08 0.042961888 -0.0008357327 0.00042658145 0.00022638922 -9.423922e-06 0.00031707645 -4.55234e-14
0.00031886107 0.00034488464 -0.0056140115 -0.04599874 4.5875677e-05 0.00037477646 5.6017736e-05 0.0040241913
0.0025238479 0.08402404 -1.0659184e-14 0.005261354 0.00013464926 -0.0045382483 0.00038572107 -6.018401e-10
0.00042019752 -6.541862e-07 0.00047430256 0.05966794 0.00032611605 0.0002353243 0.044798978 0.00029993127
-0.08159886 -0.014178804 -1.3610935e-11 0.09021703 0.1099577 0.0003930186 0.00033988318 0.0003742501
0.0017911162 0.000118952725 -3.1123932e-16 0.00036424346 0.00054615847 0.009451088 0.00011548129 -0.0871012
-0.00041940357 -4.9897255e-05 -0.00017821128 6.96712e-07 -0.00027780072 0.12520987 1.2840509e-09 -0.00041706924
-0.037111647 -7.3445066e-05 -3.5557834e-05 -0.00036739698 -0.0007521479 -0.059604816 -0.027969742 -0.00022721342
3.2656427e-08 -0.038086403 0.0007829169 -0.00038305827 -0.00018483747 5.176086e-06 -0.00026425533 5.0888245e-14
-0.00026900248 -0.00030504647 0.0051387763 0.04151371 -6.158654e-05 -0.00033686613 -3.3727498e-05 -0.0036584998
-0.0022749978 -0.075832576 9.626424e-15 -0.004763603 -9.905012e-05 0.004256549 -0.00033459326 9.0895824e-10
-0.00037798175 5.0376036e-07 -0.00042262443 -0.052221727 -0.00027870678 -0.00019871866 -0.039544977 -0.0002439185
0.07487719 0.012995492 1.4332923e-11 -0.077057794 -0.094833404 -0.0003490592 -0.0002853207 -0.0003364282
-0.0016534803 -5.2671367e-05 6.7480844e-16 -0.00032430154 -0.00048166967 -0.008548732 -5.119859e-05 0.07859152
0.0004372055 4.5747704e-05 0.00019554148 -6.8142515e-07 0.00029252918 -0.12712018 -1.3807329e-09 0.00043487616
0.037834127 8.881127e-05 4.293318e-05 0.0003810528 0.0007712532 0.06103115 0.028604021 0.00023753266
-3.3497628e-08 0.03889276 -0.00078853033 0.0003976813 0.00019675291 -5.874948e-06 0.00027979809 -4.7479578e-14
0.0002838241 0.0003178296 -0.005208777 -0.042196646 5.9634283e-05 0.00034939192 3.603905e-05 0.003721393
0.0023193138 0.077168785 -8.578378e-15 0.004845694 0.00011037135 -0.0042963377 0.00034744228 -9.263356e-10
0.00039220194 -5.5421566e-07 0.00044083284 0.053471737 0.00029299766 0.00020885977 0.040434934 0.00025985137
-0.07583352 -0.013176078 -1.2678703e-11 0.07889603 0.09732806 0.00035998903 0.0003028895 0.0003489242
0.0016791115 6.5365915e-05 -6.80836e-16 0.00033722524 0.0005061344 0.008697239 6.3549574e-05 -0.07987388

attention.fc1.bias f4 [16]
00000000: 1e12 9a3d 3ddf 983d 2c17 97bd feec 943d
00000010: a070 91bd 04d0 9b3d b153 953d e8a5 9cbd
00000020: 8189 99bd dbe4 933d 1c87 95bd 6ce8 91bd
00000030: 808f 96bd 05e5 963d e99e a4bd e71e a3bd
0.07522987 0.07464454 -0.073774666 0.07271765 -0.0710156 0.07608035 0.072913535 -0.076488316
-0.0749693 0.07221385 -0.07301161 -0.07124409 -0.07351589 0.07367901 -0.08038122 -0.079648785

attention.fc2.weight f4 [4, 16]
00000000: 4e06 193e 3766 203e 737e 0dbe 4d94 103e
00000010: adae 17be 8ab4 193e aa7c 113e 010f 17be
00000020: 4af4 0fbe 69fc 0e3e 30b0 14be 1dd7 15be
00000030: d6a2 0dbe 1a18 0e3e 5e67 18be cd4e 18be
00000040: dbe3 173e a948 223e 97b9 0bbe 3e37 103e
00000050: e847 16be c822 1c3e 7ce2 113e e450 17be
00000060: 1e22 10be af20 0e3e 7637 14be 7b33 16be
00000070: 5bfe 0dbe 0e97 0e3e 7824 18be 1cd7 17be
00000080: a612 183e 6824 233e 22bd 0cbe 554a 103e
00000090: 7630 18be 9c06 1b3e 71cf 103e ee26 16be
000000a0: 848c 10be d0c3 0e3e 60da 13be fec2 15be
000000b0: d80b 0ebe 0196 0d3e d04a 17be f28c 18be
000000c0: 4ed8 183e c4ee 223e 47da 0dbe 02dc 0f3e
000000d0: 1b5c 17be 613f 1a3e 77f2 103e 9d74 18be
000000e0: 608d 0fbe 1595 0f3e f47f 14be fe09 14be
000000f0: 7b29 0ebe 62ff 0d3e 9b1b 18be 529c 16be
0.14943811 0.15663992 -0.13817768 0.14119072 -0.14812727 0.15010276 0.14207712 -0.14751817
-0.14058033 0.13963474 -0.14520335 -0.1463284 -0.13831648 0.13876382 -0.14883181 -0.1487381
0.14833014 0.1584803 -0.13645016 0.14083573 -0.14675868 0.15247643 0.14246553 -0.14776951
-0.14075515 0.13879655 -0.14474282 -0.14668076 -0.1386656 0.1392481 -0.14857662 -0.14828151
0.14850864 0.15931857 -0.13744023 0.14090855 -0.14862236 0.1513924 0.14141633 -0.14663288
-0.14116102 0.13941884 -0.14438772 -0.14625165 -0.13871706 0.13826753 -0.14774632 -0.14897516
0.14926264 0.15911394 -0.13852797 0.1404877 -0.14781229 0.1506324 0.14154993 -0.14888234
-0.14018774 0.14021714 -0.14501935 -0.14456937 -0.13883011 0.13866952 -0.1485428 -0.14708069

attention.fc2.bias f4 [4]
00000000: 277c 003e d048 f83d fdb3 acbc b308 63be
0.1254736 0.12123263 -0.021081919 -0.22171287

fc_final.weight f4 [1, 64]
00000000: e395 24bc 6d9d 95b9 7030 2ebc 1cd0 8636
00000010: 9f09 2ebc dde3 fdbc f03e 8b32 efc0 21bb
00000020: 5b82 613e b218 d13a 624e 17ba 8d6f 4fbb
00000030: 21f9 a5bd 4eb2 3f3e 1060 4c3e 2d8e a63c
00000040: a368 d8b3 2105 44be 1521 263d a8bb 6fbc
00000050: d3ab 04bd b849 2438 8b33 33bc 1bca 0929
00000060: 4db0 52bc 3fcc bc3b c1eb bebd 0305 8c3d
00000070: 41a3 b8b8 c5cf cdba a680 27b8 ad11 e0bd
00000080: c230 c2bd fa13 c43e 05f7 f828 988e fa3d
00000090: 355b 51bd a14f 183e 2e53 31bd cae5 1a32
000000a0: e128 36bc d98d 2d36 ecbd bfbb 6308 29be
000000b0: 4d52 92bc b294 4b3c 5c91 8ebe 2bb5 38bc
000000c0: 4bbd 79be 2a4f b4bd a07a 3f2e 84a3 603e
000000d0: 60f9 86be 3f80 2ebd 83f9 4a3c a157 f03a
000000e0: bd71 8e3d e7db eb39 38f6 2e27 926c 1cbc
000000f0: a2be 5abc fa18 083e 80e5 2bba bdc5 41bd
-0.010045501 -0.00028536786 -0.010631666 4.0177383e-06 -0.010622411 -0.030992443 1.621035e-08 -0.0024681648
0.22022383 0.0015952794 -0.0005771873 -0.0031652183 -0.08104158 0.18720362 0.1995852 0.020331467
-1.0077317e-07 -0.19142582 0.040558893 -0.014632143 -0.032390427 3.9169303e-05 -0.010937582 3.059541e-14
-0.012859416 0.0057616527 -0.0932231 0.068368934 -8.804212e-05 -0.0015702179 -3.9935716e-05 -0.109408714
-0.09481956 0.3829649 2.7640659e-14 0.12234229 -0.051112372 0.14874126 -0.043292217 9.016228e-09
-0.011118145 2.5861575e-06 -0.005851498 -0.16507106 -0.01786151 0.012425588 -0.27845275 -0.011273663
-0.24388616 -0.08804162 4.3537285e-11 0.21937376 -0.26362133 -0.042602774 0.01238859 0.0018336662
0.069552876 0.00044986533 2.4280826e-15 -0.00954737 -0.0133511145 0.13290778 -0.00065573305 -0.04730772
