Model_OGT/Fold4_best_model.pkl (torch_old, 197263 bytes, 13 tensors)

gcn.gc1.weight f4 [118, 256]
00000000: 7d55 8c3b c7bd 31bc 3a3c e8b9 e31b 853c
00000010: ad03 88bc 7ebe 54bc d9e6 0dbd a2ec 503c
00000020: a6b1 6cbc c96f c1b9 fed0 cc3b 5c94 62b9
00000030: fe41 7ab9 428c bfbc 77fb 8fb9 a64f d3b9
00000040: 852e 82b9 1e32 c9ba 6e46 e1bc c346 0d39
00000050: 76aa acba 42d6 a3b9 02bc 84b9 beaf 613c
00000060: 19bb 83bc 011f afbb 8023 e3b9 1aa0 ecb9
00000070: 98c0 5eb9 0285 0aba 28d6 8fba e734 61b9
00000080: f7b5 c9bc 47b2 b7b9 0359 c038 3912 113b
00000090: 8764 bab9 f712 a1bb 5d21 3cba b4b7 81ba
000000a0: d86f 1bba 2c2a 00ba 687e 07ba 12fe babb
000000b0: 0c48 6c3d fe23 7939 f7b2 9d3b 6f6a 6fba
000000c0: fff6 5ab9 3f97 dcb9 4cb3 93b9 df17 83ba
000000d0: 8bb7 1dba 8148 d3bc 9c19 baba 1ae8 c6bb
000000e0: dde6 78ba e114 913c 74c6 25b9 526c 353a
000000f0: feae 8eba 4c85 79bc 39c5 68b9 8df1 51b9
00000100: ac89 b6b8 eac0 ef3c 74cd 25b9 1e5f 3ab9
00000110: feca 80ba 37f2 31ba d7bd 60b9 e8c1 10ba
00000120: 5473 42ba 2d0e c8ba 9281 90bc 7209 2bb7
00000130: 4209 23ba a51a 29ba c13a 53bc 85b2 16b8
00000140: e918 2bb9 39f9 c2bc 2cfd 70b9 e0f8 2f3c
00000150: 7fcb 2b3d b808 a7b9 84e6 17b9 ea48 52b8
00000160: 5c63 2d3d 6bfd 26ba cab6 aa3b 0af1 09ba
00000170: 06c4 e03a 90fe b039 1e47 00ba 9478 7e3c
00000180: 465f b83b 9edd a2bb 18d9 55ba 8c5f 90ba
00000190: e891 e1b9 0c52 06b8 a65d 19ba 9d10 07b9
000001a0: 35ad 1b39 0c69 a73b 27dc 98b9 7e7d dcba
000001b0: 52ea b0b9 f899 dab7 a7f0 c4ba 3931 24b9
000001c0: 0222 ceba e29a 99b8 5a7a 24ba 7879 883c
000001d0: ae4d dab9 6f05 aeb9 d364 4eba 0023 b3b9
000001e0: a44c 96b9 6c3f a8b9 4aae 1d3a dc4f 5bb8
000001f0: 6fdb 66b9 c588 88b9 8482 51bb 36d6 a9bb
00000200: 84b8 9ab9 0847 edba ba66 70b9 ea6d 14ba
00000210: 0f02 44b9 5a7c 053c 29a3 f43a 2ec5 33b9
00000220: fbbc deb9 9876 7fbb e882 83bc 9226 84ba
00000230: c301 bb3b a101 85ba dd4f 2eba 3526 52b9
00000240: 5d01 6f3a b213 983c 4c2c 3e3c ad33 8eba
00000250: df03 20ba 8b78 2bbb e8aa 083b c349 22ba
00000260: 077b 2d3c ee9c 0fba 1020 be3a 6947 2cb9
00000270: c774 3fba 0d75 69b9 d5cd 29ba 3fa0 8eb9
00000280: 75a9 373a 890c a6ba 134f 77ba 8b7e 1fbc
00000290: 9dbb dab8 9324 4a3a 4f7d 6cbc e2c6 acbc
000002a0: 23ee c9b9 8e61 8e3c 6186 d8b9 bb19 423d
000002b0: b1af 39b9 8cc0 03bc e36b 9d3c 438d febb
000002c0: 4771 3aba b954 b438 e41f 01bd 8c22 25ba
000002d0: 2df9 ccb9 918d 4e39 1b55 4cbb fa9a 56b9
000002e0: f890 70ba 38e2 90b9 3dda 9bb7 fb67 8eba
000002f0: 52aa 7fb9 2932 42b9 2291 0f3c b73d daba
00000300: beb4 18ba 4da0 41bb 18cf afb8 b920 7bba
00000310: 54c6 0eba 557c c3b8 390a 1bba e6af dd3b
00000320: 6157 62ba 85d1 d739 42c8 79b9 131a 3cb7
00000330: 6d23 a4bc 8bff 10ba 1d12 1cba 85d5 c8bb
00000340: fc8f 94ba 4bf6 4e3b c94e 8eba 8d7e a4ba
00000350: 74c9 53ba f30f b7ba fbdd 9c3a 7f99 b5b9
00000360: 880d 963c a86d 333a 6880 afb9 b6b2 1dba
00000370: d166 54b9 a276 ddb8 ad07 1eb9 2be5 c5b9
00000380: 6b44 b4b9 87ac 1ebc 0610 4fbd b055 41b9
00000390: 33f0 3cbb c72e b33c 28c7 59ba e674 e0b9
000003a0: d3b5 d2b8 a1f5 0e3d 937c 0e3c 6464 00ba
000003b0: b6f9 ecb9 759b 2dba dc64 5db9 fc0b c1b8
000003c0: 624d 0fbc 8514 6eb9 fe09 feb9 3e88 80b9
000003d0: cb27 f1b9 fb7b bcb9 3b8b 28bc 4b9f 68ba
000003e0: 2d06 64ba c5eb edbc 5efc d1b9 759a d7b9
000003f0: c76f 05ba 303b d73c cfcf 18ba ae6c 3db9
0.004282652 -0.010848469 -0.0004429536 0.016248649 -0.016603315 -0.01298487 -0.03464398 0.01275173
-0.014446652 -0.00036895115 0.0062504997 -0.00021608308 -0.00023866442 -0.02338231 -0.0002746244 -0.000403044
-0.00024830192 -0.0015350019 -0.027499404 0.00013473169 -0.001317336 -0.00031249417 -0.0002531708 0.01377481
-0.016080426 -0.005344272 -0.00043323264 -0.00045132713 -0.00021243317 -0.0005284102 -0.0010973858 -0.0002147738
-0.0246229 -0.00035037307 9.171853e-05 0.0022136106 -0.00035551583 -0.004915591 -0.00071766024 -0.0009896667
-0.0005929447 -0.00048890966 -0.00051686773 -0.005706557 0.057685897 0.00023759899 0.004812594 -0.00091329863
-0.00020882113 -0.00042074357 -0.00028171611 -0.0010001621 -0.0006016425 -0.025791408 -0.0014198306 -0.006070149
-0.00094948505 0.017710151 -0.00015809556 0.0006920743 -0.0010885892 -0.015229534 -0.00022198715 -0.00020021778
-8.70408e-05 0.029266793 -0.00015812163 -0.00017773776 -0.0009826121 -0.0006788107 -0.00021433026 -0.00055220583
-0.0007417698 -0.0015263014 -0.017639909 -1.0194593e-05 -0.0006219336 -0.0006450809 -0.012892426 -3.5929046e-05
-0.0001631711 -0.02380048 -0.00022982497 0.010740489 0.041942116 -0.00031859218 -0.00014486356 -5.0135808e-05
0.042331085 -0.00063701597 0.0052097784 -0.0005262053 0.0017148263 0.00033759 -0.000489341 0.015531678
0.005626592 -0.0049702665 -0.00081576547 -0.0011014803 -0.00043024053 -3.20245e-05 -0.00058504415 -0.00012880792
0.00014846477 0.005108958 -0.00029155725 -0.0016822068 -0.00033743918 -2.6059322e-05 -0.0015025333 -0.00015658596
-0.0015726688 -7.324458e-05 -0.00062743353 0.016659483 -0.00041638076 -0.00033191915 -0.00078733003 -0.00034167618
-0.0002866733 -0.0003209071 0.0006015046 -5.2288044e-05 -0.00022016255 -0.00026041843 -0.0031968663 -0.0051830066
-0.00029510644 -0.0018102834 -0.00022926452 -0.00056621304 -0.00018692783 0.0081473235 0.0018664348 -0.00017144225
-0.0004248394 -0.00389806 -0.016053632 -0.0010082296 0.005706997 -0.001014758 -0.0006649474 -0.00020041394
0.00091173296 0.018564079 0.011607241 -0.0010849141 -0.00061040925 -0.0026164379 0.0020853821 -0.0006190801
0.010588414 -0.00054784014 0.0014505405 -0.000164298 -0.0007303473 -0.00022264216 -0.000647751 -0.00027203743
0.0007006147 -0.0012668531 -0.0009434085 -0.00973476 -0.00010429996 0.00077111385 -0.014434173 -0.021090928
-0.00038515133 0.017380502 -0.0004129885 0.04738782 -0.00017708425 -0.008041512 0.019216483 -0.0077683046
-0.00071122166 8.59885e-05 -0.031524554 -0.00062993984 -0.00039095563 0.00019698429 -0.0031178656 -0.00020466364
-0.00091768755 -0.00027634366 -1.8579065e-05 -0.0010864729 -0.00024382144 -0.00018519968 0.00876263 -0.0016650473
-0.00058252725 -0.002954501 -8.3832245e-05 -0.0009579766 -0.00054464233 -9.321483e-05 -0.0005914304 0.0067653535
-0.00086342363 0.000411641 -0.00023821092 -1.1211744e-05 -0.020036424 -0.0005531243 -0.0005953627 -0.006128969
-0.0011334415 0.0031579908 -0.001085722 -0.0012549922 -0.000807903 -0.0013966545 0.0011968011 -0.00034637374
0.018317 0.0006844648 -0.0003347427 -0.0006015705 -0.00020256198 -0.00010560198 -0.00015070914 -0.00037745512
-0.0003438325 -0.009684688 -0.05055239 -0.00018437835 -0.0028829693 0.021872891 -0.00083075697 -0.00042811705
-0.00010047448 0.03490222 0.008696693 -0.0004897772 -0.00045199477 -0.0006622591 -0.00021113775 -9.2051894e-05
-0.008746477 -0.00022705093 -0.000484541 -0.0002451557 -0.0004599675 -0.00035950527 -0.010287101 -0.0008873834
-0.000869843 -0.029043088 -0.00040051615 -0.00041123075 -0.00050902035 0.02627334 -0.0005829306 -0.00018064931

gcn.gc1.bias f4 [256]
00000000: b309 29bb 5702 18bd 7731 183d 6482 bb3c
00000010: 55aa bf3b d5d6 fdbc 095a 193b ca4e 8ebc
00000020: f32c 8cbd c0fe 123d 8bff 83bc 6dcc 043d
00000030: b5b1 093d 104c 053d 0645 0c3d f27d 153d
00000040: bb34 0a3d 28b3 4c3d b9cf e93b b64d 4e3d
00000050: fd09 493d 98e8 073d 86a7 0b3d e283 f3bb
00000060: cbb6 833c 16b7 f6bb 5f6c 173d e54f 183d
00000070: 2aec 063d f4ab 1d3d 8cb1 3d3d e5eb 093d
00000080: c184 8a3c b491 113d becb 7d3d 1dcd f2bc
00000090: 3d20 123d ee95 753d 45c4 283d ad88 383d
000000a0: e841 213d ce3e 1a3d 5015 1b3d 78b9 debc
000000b0: e205 8e3b ab6e 9f3c c28e 403d 1a1b 343d
000000c0: 78a6 073d adeb 173d d8b9 0c3d 7b50 393d
000000d0: 33d0 383d c4e1 823c b81f 5b3d 0847 a13c
000000e0: 9b76 223d b0e6 903c bb36 033d 073f 2ebb
000000f0: 66f3 3c3d e690 fe3c 7b61 083d d604 063d
00000100: 9f8b fa3c 3739 55bc 2c37 033d d491 043d
00000110: e8ab 383d c82c 283d a0d5 073d 1cd9 1d3d
00000120: ac01 293d 427e c13b 15ab d7bc 41aa f83c
00000130: 97a2 813c 2540 203d 0516 153d c823 f13c
00000140: 59d9 033d c1a2 0dbd 1cb2 093d c6d9 2b3d
00000150: 32f4 f4bc 3731 0f3d 91f5 013d 4d0e cc3c
00000160: bdbe b93c 6112 243d 62ec 243c f548 1c3d
00000170: 943c 5c3d 529b 8f3c 0b2e 193d 9483 a23c
00000180: 11a7 a53c 4f5b 453d d4f6 313c 0950 493d
00000190: 1c16 133d fdbe f43c bcbb 203d 6d2a 013d
000001a0: 9521 cc3c 116e 0cbc 8d8e 0d3d 212d e9bb
000001b0: 8e90 1a3d 8de6 fb3c 5792 643d f2f0 0b3d
000001c0: 02f7 463d 40f0 f83c ed96 233d 0f89 3f3d
000001d0: 8362 163d 1b84 103d f160 2c3d cd5d 113d
000001e0: b322 0d3d 1df4 0d3d b298 e63c 37d0 f33c
000001f0: 762a 083d 534a 0b3d 3459 9b3c 9d51 383d
00000200: fb69 0d3d da13 353d cd40 043d 7f7f 233d
00000210: d0a9 053d 0445 e2bc 1981 bd3d 9619 083d
00000220: 5ed4 163d 1adc 4dbd 3785 113d a33e 3a3d
00000230: 7480 823c 4927 393d 702b 263d 96a0 063d
00000240: 952c 123d ab9b 18bb edcc 243d f653 3d3d
00000250: 1486 203d b8fd a13d fc7f 06bc 4ff8 223d
00000260: 6764 0f3d 40c3 1e3d 1175 9f3c 090e 043d
00000270: 56ff 253d a346 083d f2eb 243d 36cb 0b3d
00000280: 88a2 d33c 6d7d 803d 3e0b 373d def2 653d
00000290: ab6b fd3c 8412 613c d45a 59bc 31f5 393c
000002a0: 3023 143d 2ca4 d93c 261a 163d e2ee 033c
000002b0: 37ec 043d fee1 2a3d 6db6 06bb 59e9 1abc
000002c0: e210 283d 571a db3c b08b 5dbc 4aff 3f3d
000002d0: 5b82 143d 69fa bf3c 42bb c93b 3bec 043d
000002e0: 15d0 333d a4ad 0c3d 61eb ec3c f823 3d3d
000002f0: cf06 0a3d b773 053d 2584 4bbc d72d 463d
00000300: 8a56 1f3d a622 fdbc bebb f93c 9955 363d
00000310: d33f 1e3d 5ca1 fb3c d351 213d 3ee5 f3bc
00000320: a52f 3b3d 3571 8b3c e185 093d c08c eb3c
00000330: 4c0a 303c 1d54 1f3d d92f 223d fabd 333d
00000340: c23c 503d 02b2 eabc 532c 3d3d 1259 4b3d
00000350: 7165 2b3d 1ec7 553d 46d6 003d 222f 113d
00000360: e9d1 ac3b 02db c83c 5188 103d 919d 223d
00000370: 6787 033d e151 fd3c 6de9 023d 0392 133d
00000380: 437e 123d ba2d 83bb ac90 ca3a 02c7 043d
00000390: 3afd 913d 03ae 5e3d 3cb8 383d 411f 133d
000003a0: d810 fd3c 15e1 933c 0d03 21bd e346 1b3d
000003b0: 2d55 433d eb49 283d 735e 073d 6232 fa3c
000003c0: 8ec6 6a3c f999 083d 4428 1d3d db98 0a3d
000003d0: 30c1 183d 3548 113d c967 c33d 12f2 3c3d
000003e0: e957 613d bd20 f2bc 0767 143d 610d 163d
000003f0: 3e6e 183d 7e88 1cbb 1db1 1f3d 4582 043d
-0.0025793135 -0.037111606 0.03715655 0.022889324 0.0058491626 -0.030986229 0.0023399612 -0.017371554
-0.06844511 0.03588748 -0.016113063 0.032421518 0.03361674 0.032543242 0.034245513 0.036497064
0.033741694 0.049975544 0.007135358 0.05036708 0.04908179 0.033180803 0.03409531 -0.007431493
0.016078373 -0.0075291498 0.036968585 0.03718557 0.032940067 0.038494065 0.0463119 0.033672232
0.016909005 0.035539344 0.06196188 -0.029638821 0.035675276 0.059957437 0.041202802 0.04505222
0.039369494 0.03765755 0.037862122 -0.027188048 0.0043341974 0.01946195 0.047011144 0.04397116
0.03311774 0.037089992 0.034356922 0.045242768 0.04512043 0.015976794 0.053497046 0.01968719
0.039663892 0.017688125 0.032034617 -0.002658786 0.04613056 0.031074952 0.03329609 0.032719456
0.030584155 -0.013014129 0.032035038 0.032365635 0.045085818 0.04105833 0.033162713 0.03853713
0.04126136 0.0059049437 -0.026326695 0.03035462 0.0158246 0.039123673 0.036397953 0.029436007
0.0321897 -0.034579042 0.033617124 0.04195573 -0.029901598 0.034959044 0.03172833 0.024909163
0.022673959 0.04005659 0.010066124 0.038155515 0.05376871 0.017530117 0.037397426 0.019838132
0.020221265 0.04818278 0.010862071 0.049148593 0.035909757 0.029876227 0.039241537 0.0315346
0.024918357 -0.008571164 0.034559775 -0.0071159755 0.037735514 0.030749584 0.055803623 0.03416533
0.04857541 0.030387998 0.039938856 0.04676157 0.03671504 0.035282236 0.042084638 0.035489846
0.03445692 0.034656633 0.028148983 0.02976237 0.03324362 0.034006428 0.018963434 0.044999707
0.0345249 0.044208385 0.03228836 0.03991651 0.03263265 -0.0276208 0.09253139 0.033227526
0.036823623 -0.050258733 0.035527434 0.04546989 0.015930392 0.04520348 0.04056877 0.03286799
0.035687048 -0.0023286145 0.040234495 0.04622265 0.039190367 0.07909721 -0.008209225 0.039787587
0.03500786 0.038760424 0.019465001 0.032239947 0.04052671 0.03327049 0.040264077 0.034129344
0.025834337 0.06273923 0.044688456 0.05613982 0.03093513 0.013737325 -0.013266284 0.011349962
0.03616637 0.026567541 0.03664603 0.00805256 0.032451835 0.04171943 -0.0020555512 -0.0094550485
0.041031726 0.026745958 -0.013522074 0.046874322 0.03625713 0.023434835 0.006156356 0.03245185
0.043899614 0.034345284 0.028920831 0.04617688 0.0336979 0.032581057 -0.012421642 0.04838356
0.03890089 -0.03090031 0.03048503 0.044515226 0.038635086 0.03071659 0.039384674 -0.029772397
0.045699734 0.017021755 0.033574942 0.028753638 0.0107446425 0.038898576 0.039596412 0.043882348
0.050839193 -0.028649334 0.04618485 0.04964549 0.04184479 0.052191846 0.031454347 0.03544534
0.0052740467 0.024518494 0.03528625 0.03970105 0.03211155 0.030922832 0.031960893 0.03602792
0.035764944 -0.0040032538 0.0015454493 0.03241635 0.07128377 0.05436517 0.045097575 0.035918478
0.03089182 0.018051663 -0.03930955 0.0379094 0.04768865 0.04108612 0.03304906 0.030541603
0.014329566 0.033349965 0.03836848 0.03383718 0.037293613 0.035469253 0.0954128 0.046129294
0.05501548 -0.029556626 0.036231067 0.036633853 0.03721451 -0.0023885067 0.038987268 0.032350797

gcn.ln1.weight f4 [256]
00000000: 82e1 b73d 072d 033e 95bd edb5 8a1a 623e
00000010: 05d5 393e 723c 493e 19eb 443e 4158 863d
00000020: 7ced 9b3e 7055 2eab 1085 533d 9a27 dea7
00000030: 9ac9 6731 e9bb 853e c54b 96ba 8d88 90b6
00000040: aae9 4e2a 35bf 683b fe81 a63e e286 023e
00000050: c82e 6538 a182 66ba 251e 6d35 64af 883e
00000060: d4d5 0f3e efee 7a3e fb87 3336 af4d 4f2d
00000070: fa84 9e34 c670 8639 fcf3 3bb5 83e6 aab3
00000080: 79c4 853e 9a73 e538 39ed 9f3d 9554 043e
00000090: 65c4 4629 ddf4 443d 2fe1 d6b2 371a 1f33
000000a0: 4c77 8936 8acd e3b9 6477 89ba 9fba b93d
000000b0: 1ec7 b43e 7776 af3d 0fdf 153e 786b 36b5
000000c0: 89df 2639 a3b3 b7b2 c5af 4639 c515 b037
000000d0: 0f2e b83d 7905 423e e7b9 6137 56c0 7c3e
000000e0: a74f d23b 1ea8 5e3e 0214 b72e 83da ac3c
000000f0: e5d1 6b38 b31e 3f3e d684 e3b0 fcc4 7c38
00000100: be79 abb9 b19f 773e f894 8538 0427 fcba
00000110: f015 04b7 7e85 e736 4dd9 daa8 7e30 9bb7
00000120: d4f2 8736 4eb9 093e 388e 7d3e 5505 0239
00000130: e5c2 b73d 3d2d ed39 58b8 273e 760a b939
00000140: a1a2 2aab 103d 073e ba30 303a 69f7 1d3e
00000150: f245 1e3e 013d 0b3a a9d7 d637 3100 abb8
00000160: e8db ba3e cbfc 9a36 0352 773e 9206 c133
00000170: a077 463d 2967 4a3b 29ff d6ba e547 5c3e
00000180: 8b07 543e 3cb9 373e c748 113d 0d01 8c38
00000190: 374e 43b9 1a0e de38 9d44 49ae dc31 fe36
000001a0: 3629 b23a 2466 af3d 20d1 b237 bc6c 833e
000001b0: 286b dd3a 0549 90b3 251a 503c 2b89 b83b
000001c0: 07f9 6e3b eb51 3b34 4e88 4cb3 8d66 3a3e
000001d0: 2f48 cd35 9152 91ab 6820 d530 58ed 1eba
000001e0: 1e3c 84b7 2e12 0b35 3d5d f13c e2ab 12ad
000001f0: 203d fda9 ec19 3436 8cc7 943d 63a6 033e
00000200: 772b 4f2a 29a8 de3c 622b 2135 2274 b22e
00000210: e9a6 2d37 713c ff3d aee7 c33d e72e a736
00000220: 14b9 07bb 05e3 3a3e 3e49 6e3e 339c 01ba
00000230: eefc 1f3e 6a34 9a3a 34e9 3bb0 3c6c e5ad
00000240: 02d9 633d 40eb 533e 1f3b 8a3e adb9 a2b5
00000250: 433f c1b9 2a38 893d fa31 1a3d f7c4 4a38
00000260: 0c97 bb3d aa24 c636 2c64 cf3c 11d1 ca2e
00000270: 35eb 27b4 ac61 5439 6bb2 0b39 8beb 99ad
00000280: 71b6 803e 1e69 8d3c 608c a838 b86e eb3d
00000290: e87e a3b1 59e2 843b 6d67 2b3e 1238 953e
000002a0: 8a84 2eb6 1eeb 1a3e ca72 4039 4a1f 9d3e
000002b0: d6a4 f82c 0daa 883d 1899 3f3e 7623 be3d
000002c0: a30a 6436 fd2d 8f3a 011b 2c3e 7fbc dc3c
000002d0: 0998 7f36 b03b c138 2b93 ca3d c6fd 22bb
000002e0: 8515 3b38 81d3 5130 c9fc 382b d452 9937
000002f0: 7e0d 55b2 88e8 86b0 a049 413e b10f c534
00000300: 7ef2 b1ac 6d60 913d 1362 88b7 7b6d 2439
00000310: 2ac1 ee36 dd46 92b8 6d5e 6b30 1fd7 273e
00000320: d7fb 9934 420e 5539 22ed 1cb3 f950 6bb0
00000330: 9156 833e 6cc1 ffb2 74c1 0e2f da21 2d3e
00000340: 1259 313c c750 333e 894c 013a 0915 78b2
00000350: 570a 2b38 2ea1 643b 054a 7e3e 0067 3439
00000360: 78e9 2e3e ccf8 eb3d 7b9a 40ba f890 a8b9
00000370: 7bfb dcb6 b0f8 ca34 7b12 4eba 1bef 97aa
00000380: c535 db27 90d6 d13d 5b92 b43e a29f 9939
00000390: 8580 aa3d 710a 353e d849 f73b 06ef 1930
000003a0: d1c8 9db2 fd14 c23e ccfc 0e3e f7a4 a033
000003b0: 5c96 223e 0707 d138 46f8 2230 7980 35ab
000003c0: 91ff 073e 2da9 12aa bf96 1c3a 21cf 8230
000003d0: 60af e5b9 010e fcb7 6a84 313e 5d79 a337
000003e0: 7dfd ad3c 5f82 4d3e 5121 1938 2fa1 962a
000003f0: e134 7031 cdfa 683e 1fb0 e231 ee79 d238
0.08978559 0.12810145 -1.7713052e-06 0.22080436 0.18147667 0.19651964 0.19230308 0.06559802
0.30454624 -6.1935786e-13 0.05164057 -6.1660314e-15 3.3729521e-09 0.26119927 -0.0011466673 -4.307431e-06
1.8377544e-13 0.003551436 0.3252105 0.12746766 5.4641423e-05 -0.0008793269 8.8333246e-07 0.26696312
0.14046413 0.24505208 2.675223e-06 1.1783837e-11 2.9526547e-07 0.00025642494 -7.001797e-07 -7.958172e-08
0.2612646 0.000109411034 0.078089185 0.1292289 4.4135177e-14 0.048085082 -2.501528e-08 3.7043915e-08
4.096806e-06 -0.00043449952 -0.0010487852 0.09068798 0.35308164 0.08567517 0.14635871 -6.795667e-07
0.00015914267 -2.1385693e-08 0.0001894823 2.0990972e-05 0.0899316 0.189474 1.3454329e-05 0.24682745
0.0064181867 0.21743819 8.3254306e-11 0.021100288 5.6223846e-05 0.18664055 -1.6554178e-09 6.0264938e-05
-0.00032706367 0.24182011 6.369682e-05 -0.0019237702 -7.872921e-06 6.899877e-06 -2.4297101e-14 -1.850002e-05
4.0515824e-06 0.13449594 0.24761283 0.00012399752 0.0897272 0.00045237868 0.16378915 0.00035293744
-6.0621825e-13 0.13206887 0.0006721128 0.1542641 0.1545637 0.00053115195 2.5611213e-05 -8.153951e-05
0.364959 4.6189866e-06 0.24152379 8.988458e-08 0.048453927 0.0030884242 -0.0016402948 0.215118
0.20706002 0.17941755 0.035469797 6.675916e-05 -0.00018625786 0.000105884115 -4.576305e-11 7.5755943e-06
0.0013592604 0.08564404 2.1316635e-05 0.25668895 0.0016892897 -6.718805e-08 0.012701546 0.005631586
0.003646435 1.7445534e-07 -4.762142e-08 0.18203183 1.5294698e-06 -1.0325786e-12 1.5507e-09 -0.00060625887
-1.576362e-05 5.180799e-07 0.029463405 -8.337305e-12 -1.12460605e-13 2.6837179e-06 0.07264623 0.1285644
1.8400373e-13 0.027179794 6.0040304e-07 8.115132e-11 1.0350465e-05 0.124627 0.09565674 4.982448e-06
-0.002070968 0.18250664 0.23270127 -0.0004944235 0.15623829 0.0011764888 -6.8361605e-10 -2.6082352e-11
0.055626877 0.2069521 0.2699823 -1.2123979e-06 -0.00036858962 0.067001656 0.037645318 4.834399e-05
0.09159669 5.905128e-06 0.02531632 9.223034e-11 -1.5638655e-07 0.00020254281 0.00013322539 -1.7498688e-11
0.25139192 0.017262038 8.037011e-05 0.11495727 -4.758352e-09 0.004055303 0.16738673 0.2914434
-2.6005168e-06 0.15128753 0.00018353309 0.30687934 7.0668844e-12 0.066730596 0.18710744 0.092841074
3.398084e-06 0.001092374 0.16807176 0.02694535 3.8086457e-06 9.214075e-05 0.09891351 -0.00248705
4.4604316e-05 7.633432e-10 6.572074e-13 1.8277591e-05 -1.24012995e-08 -9.815873e-10 0.18875742 3.6705526e-07
-5.0575646e-12 0.0709847 -1.6258133e-05 0.00015681043 7.11544e-06 -6.975022e-05 8.562669e-10 0.16390656
2.8681708e-07 0.00020318574 -3.653725e-08 -8.560757e-10 0.25651982 -2.9773865e-08 1.2983553e-10 0.16907445
0.010824459 0.17511283 0.0004932364 -1.4440283e-08 4.0779207e-05 0.003488611 0.24832924 0.00017204508
0.17081249 0.115220636 -0.0007347238 -0.00032151467 -6.585787e-06 3.7806376e-07 -0.000786103 -2.69889e-13
6.0843008e-15 0.10246003 0.3526791 0.0002930137 0.083252944 0.17679764 0.0075466447 5.600075e-10
-1.8368526e-08 0.37906638 0.13963622 7.4805875e-08 0.1587767 9.9672056e-05 5.9288074e-10 -6.448241e-13
0.13281085 -1.30261e-13 0.00059733907 9.517614e-10 -0.00043808948 -3.0047262e-05 0.17335668 1.9487628e-05
0.021239037 0.20069264 3.650907e-05 2.6757196e-13 3.4954655e-09 0.22751923 6.5974883e-09 0.000100362915

gcn.ln1.bias f4 [256]
00000000: 55af ea3b ccfd 7abb 593f bfb6 bfed a6bb
00000010: f9c8 19bc c81d f0ba 9ebc 1cbc 0300 3c3b
00000020: 9510 85bc ff4b 75ac 31bf b43b 43cf 25a8
00000030: 3ea8 a0b1 b7a6 23bd 5634 d6ba 02a1 0cb7
00000040: 438a a4aa 453b fabb 4bf6 edbc c00a fbbc
00000050: 944b 87b8 0dfe a03a 02d1 beb5 fc38 bfbc
00000060: 1791 22bd eb16 bebc 6c6e 39b6 8308 d4ac
00000070: 1405 91b5 19a8 c7b9 ff67 01b6 534f 2cb5
00000080: d5a7 85bc 2cdb 46b8 b09e 6fbc a592 b5bb
00000090: 4224 b3a9 66cd 09bb f635 c7b3 99b3 25b4
000000a0: 6b06 b4b6 8095 60bb 1eb8 2cbb ac09 bfbb
000000b0: cc27 44bc 1e44 d4bc c89f fdb9 1d47 4b34
000000c0: 8b56 09ba fe56 93b3 5a60 a2b8 3719 7db7
000000d0: 0e7f 22bd d82b 97bc 34fe beb7 cbf8 12bd
000000e0: 1ea9 a3bc 6592 ebbb b703 3aaf 6e93 ef3b
000000f0: 9f91 23b8 a69b d5bc 3e3d f1b2 8abd 28b9
00000100: 523a 38ba 1a69 bbbc ffb7 c4b8 2151 0fbb
00000110: 2e16 f0b7 f4a2 94b6 f4aa 3da9 1a40 beb8
00000120: 3021 6ab6 75b6 b0bc ad6b 313a 812f 05b9
00000130: 3ba6 9cbc 4d04 e5ba 6d5f e9bc 2e6b 29bb
00000140: fcb0 a5ab fa60 2abb ff79 03bb 2582 78bc
00000150: c72b 263c 69ef 32bb 6a93 39b9 5029 19bb
00000160: f3b8 b1bc 189e 58b6 4f0b 25bd 6d81 81b3
00000170: 3fbf bb3b edca 683a 3cf7 3fbb aafe c1bc
00000180: 8d65 9fbc 579f 673c 39b9 82bb e1cd 4eb9
00000190: 656f cab9 bdc0 80ba 566b 05b0 3a72 b3b6
000001a0: 8a85 14bb ecb3 6ebc a060 60b9 17d2 c1bc
000001b0: 70f8 ec3b 9351 76b7 91e9 d2ba 0064 af3c
000001c0: ff42 1cbc daea 84b5 ddee 07b4 9b2f 25ba
000001d0: 4338 ceb5 a7c3 36ac 93bc 5ab0 86e8 98ba
000001e0: cd63 e0b7 8beb 14b4 d4a8 c6bb a6a9 24ae
000001f0: a46e a0aa 2379 1eb6 32f4 f7bc 5d0a cbbc
00000200: 0a94 04aa e942 b3bb 02e0 27b5 dde8 12ae
00000210: 751e 90b7 75ba c43c 8916 383d 46dd 7fb8
00000220: 2dbd 8cba 511f e5bb 1ae3 cdbc 2293 d638
00000230: dd8c 87ba adfe 25b8 fd30 2bb1 eb8a cab0
00000240: d82d 9dbc 5586 c4ba 334d b5bc 3538 9bb6
00000250: b2d1 ea37 7822 883c 92f9 943b b01b 8ab8
00000260: 5b40 c4bc 7ac5 bab6 f5d6 a5bc bb1f a2ae
00000270: 9412 15b5 7fcc 3eb9 5b98 76b8 49f5 12ae
00000280: a5d7 10bc e0c0 263c 72ba 7ab8 e531 94bc
00000290: 534b eab1 ac50 c03a 3284 03bc 2c48 8fbb
000002a0: 47a2 cab8 961e cbba 2f87 58b9 eaf8 393a
000002b0: 0c8d 69ac 809b d9bc 586b aebc f4a6 82bc
000002c0: e3c6 9cb5 04d0 c9ba 3ff4 753a 587a afbc
000002d0: 9c14 6ab6 a586 2fba bc89 06bd a585 6bba
000002e0: 31df 25b8 7878 2eb0 6b18 5eaa f131 4eb7
000002f0: 603c 88b3 0b90 3db1 4b52 e03a 1b38 96b6
00000300: fa64 87ad ea1e cd3b a0f4 b4b9 c0fd 1db9
00000310: 62d9 b7b6 21c8 2cba 6c67 2cb0 e76d 293c
00000320: 87e6 c3b4 a145 1038 30ce a8b3 c7cd a5b2
00000330: 60c6 a0bc b764 a5b3 6319 89b0 1239 c3bc
00000340: 6a6d 323c 8fa8 c5bb acbd 16ba c63f d3b3
00000350: f727 06b8 2670 0cbb 5dd2 44bc 0970 0fba
00000360: ce00 46bc abeb 8ebc c8bf e8ba c5b3 01bb
00000370: 6ee6 0eba 2d70 ddb4 531b a3ba f0b7 3aab
00000380: bb47 5fa7 7311 71bb ae96 b4bc 3f90 dbba
00000390: a91c ca3c 52c1 f1bb a164 f93c 4536 99af
000003a0: 4a16 85b3 9901 b7bc 00bf 7d3c 864c 06b4
000003b0: cbd3 c03b 3809 7eb8 d530 97af bb58 bfab
000003c0: 8e27 96bc 3b03 2eaa 9d04 41ba e475 f9af
000003d0: 625c cd38 c44b 40ba ff82 663d 4081 0cb8
000003e0: 3eed 17bc 135a a7bc 359b 6ab8 8726 b3aa
000003f0: 1040 2fb1 d6ad 94bc 49b7 80b1 a75c bfb9
0.0071620145 -0.0038298247 -5.699618e-06 -0.0050942595 -0.0093862945 -0.0018319422 -0.009566454 0.002868653
-0.016243258 -3.485878e-12 0.005515956 -9.204283e-15 -4.67574e-09 -0.039953914 -0.0016342502 -8.382138e-06
-2.922819e-13 -0.00763646 -0.029048106 -0.030644774 -6.451379e-05 0.0012282744 -1.4216932e-06 -0.023342602
-0.03968915 -0.023204288 -2.7631422e-06 -6.0263474e-12 -1.080482e-06 -0.0003808148 -1.9283032e-06 -6.4190425e-07
-0.01631538 -4.7411e-05 -0.014625236 -0.005541163 -7.9554866e-14 -0.0021026968 -9.276475e-08 -1.543216e-07
-5.365165e-06 -0.0034268796 -0.002635486 -0.0058300104 -0.011972379 -0.025911387 -0.00048374967 1.8931719e-07
-0.0005239031 -6.861045e-08 -7.742709e-05 -1.5085846e-05 -0.03967195 -0.018453524 -2.2768138e-05 -0.0358818
-0.019978102 -0.0071890824 -1.6917921e-10 0.007311276 -3.899785e-05 -0.026075196 -2.8083942e-08 -0.00016092337
-0.00070277334 -0.022877265 -9.38028e-05 -0.0021868425 -2.8620558e-05 -4.429714e-06 -4.211471e-14 -9.071846e-05
-3.4888035e-06 -0.021571377 0.0006768059 -0.00012701565 -0.019122234 -0.0017472595 -0.028487885 -0.0025851238
-1.1773078e-12 -0.0025997744 -0.002006173 -0.015167748 0.010142273 -0.0027303344 -0.00017697891 -0.0023370571
-0.021694636 -3.227853e-06 -0.040293988 -6.030573e-08 0.0057295854 0.0008880336 -0.002929165 -0.023681004
-0.019457603 0.014137111 -0.0039893654 -0.00019722387 -0.00038611438 -0.0009823065 -4.853765e-10 -5.3479134e-06
-0.0022662603 -0.014569264 -0.000213983 -0.023659749 0.0072317645 -1.4681736e-05 -0.0016091337 0.021409988
-0.0095374575 -9.903117e-07 -1.2659753e-07 -0.0006301344 -1.536457e-06 -2.5972364e-12 -7.957592e-10 -0.0011665977
-2.6749354e-05 -1.3869264e-07 -0.0060626063 -3.743996e-11 -2.8498482e-13 -2.3614346e-06 -0.030267809 -0.024785215
-1.1775317e-13 -0.005470623 -6.253832e-07 -3.340338e-11 -1.718032e-05 0.02401469 0.044943366 -6.1002815e-05
-0.0010737531 -0.0069922586 -0.025132705 0.00010231721 -0.0010341663 -3.957625e-05 -2.4911622e-09 -1.4736917e-09
-0.019186899 -0.0014993647 -0.022131538 -4.6259033e-06 2.799262e-05 0.016617998 0.0045463527 -6.58551e-05
-0.023956468 -5.5662213e-06 -0.020244101 -7.3725435e-11 -5.553386e-07 -0.00018195993 -5.8792863e-05 -3.3414414e-11
-0.008840476 0.010177821 -5.9778286e-05 -0.018090198 -6.8188597e-09 0.001467248 -0.008027123 -0.004372617
-9.662337e-05 -0.0015496786 -0.00020649725 0.0007094281 -3.3189588e-12 -0.026563406 -0.02129142 -0.01594875
-1.1680789e-06 -0.0015397076 0.0009382404 -0.021420643 -3.4880713e-06 -0.0006695784 -0.032846197 -0.0008984453
-3.954693e-05 -6.347203e-10 -1.9726033e-13 -1.2290185e-05 -6.343976e-08 -2.7584999e-09 0.0017114369 -4.47688e-06
-1.5392566e-11 0.0062597888 -0.00034514535 -0.00015067216 -5.4791317e-06 -0.0006591101 -6.2720207e-10 0.010341144
-3.648931e-07 3.4397122e-05 -7.860615e-08 -1.9302105e-08 -0.019625843 -7.701731e-08 -9.975277e-10 -0.023830924
0.010890344 -0.0060320566 -0.0005750309 -9.8370535e-08 -3.198531e-05 -0.002142915 -0.012013045 -0.00054717116
-0.012085153 -0.01744636 -0.001775735 -0.001979099 -0.0005451207 -4.1246076e-07 -0.0012444056 -6.633574e-13
-3.0986352e-15 -0.0036784082 -0.022044506 -0.0016751363 0.02467187 -0.007377782 0.030443491 -2.78691e-10
-6.1973495e-08 -0.022339629 0.0154874325 -1.2507562e-07 0.0058846227 -6.0566905e-05 -2.7501437e-10 -1.3595994e-12
-0.018329408 -1.5455425e-13 -0.0007363053 -4.5376602e-10 9.7923694e-05 -0.00073355087 0.05627727 -3.3498975e-05
-0.009272872 -0.020428693 -5.5934495e-05 -3.182352e-13 -2.5502267e-09 -0.018149298 -3.7461274e-09 -0.0003649939

gcn.gc2.weight f4 [256, 64]
00000000: 58e4 e7b8 3db1 e2bb f2bf 063b c7ce fb3b
00000010: 9b52 9439 7c22 23b8 ac7e 8e39 33cf 2dbc
00000020: e9fd e236 93f4 9339 2a41 9439 9a3a 9439
00000030: de54 9439 b9f5 8a39 5a88 9439 1543 9439
00000040: 01b1 9439 e718 9439 3e3d 9439 c5ec aaba
00000050: 15e6 8ebc 56a2 e13a 9561 9439 0ca9 9039
00000060: 59f6 1cbc 17c1 9339 22a2 9339 a718 8539
00000070: 9f39 9439 1c1b 9639 4436 9439 3e5b 9439
00000080: 3e9a 9339 0ad6 9339 7a23 6fbb 2981 9339
00000090: 425c 9139 85f1 bd3b 2063 af3c 317c 9439
000000a0: 442f 9439 f04c ddba 4f59 9339 ede3 5139
000000b0: 664b 8c39 a439 8939 5572 6d3b a4f0 6b39
000000c0: f4b7 9239 b3b1 a4bb 763b 9439 e855 9439
000000d0: d93b 9439 c278 9439 ba37 9439 29d9 9339
000000e0: 44f0 1d3b 8cb9 9539 b4cb 9439 9050 ad39
000000f0: 5ce6 9339 4fcf 543d c95a 7439 2cdb 9339
00000100: 9fa1 bc3a b435 c33c 50a8 b6bc ba65 24bd
00000110: 1a44 6f3a 64a3 a83a 5e7d 723a 7723 993c
00000120: 6107 9a3a 6976 6f3a e825 6f3a d44d 6f3a
00000130: 8b49 6f3a b85e 743a d51c 6f3a c94b 6f3a
00000140: 9b08 6f3a 4262 6f3a d74e 6f3a b3dc 343b
00000150: 3c54 1dbd 6a06 1c3c 2931 6f3a 3374 6b3a
00000160: c627 cebc 3363 6f3a cca3 6f3a a570 5c3a
00000170: 7550 6f3a 4ec2 6c3a 1e52 6f3a 5489 653a
00000180: 7a64 6f3a 1a41 6f3a e4ba 403b 9c67 6f3a
00000190: f8cb 703a ab13 263b e0ac 883c 502d 6f3a
000001a0: e655 6f3a 4825 9639 53ce 6f3a 9dd2 813a
000001b0: 3aef 6a3a 3c28 753a c51e d838 5440 7e3a
000001c0: f1a7 6f3a 92de 12bc a64f 6f3a 2e41 6f3a
000001d0: 984f 6f3a a92e 6f3a 3652 6f3a 9c86 6f3a
000001e0: 7888 b4ba 765c 643a f58e 633a 2a11 f639
000001f0: de7d 6f3a 412f a43c 7054 7a3a 537c 6f3a
00000200: 150b fa35 e8fb bcb5 0b3d 01b6 1b79 7cb6
00000210: 56ff e634 1802 dc35 19af 0035 58cb 8036
00000220: 70b8 c035 cd27 e934 47f9 e634 cf2d e734
00000230: e230 e734 6f41 0535 f88c e734 2729 e734
00000240: ace7 e734 25f3 e734 a223 e734 9aea aab4
00000250: 5981 85b6 ee6d 0db6 c6f4 e734 d4ab f234
00000260: 3256 8135 f43f e734 a6f1 e934 2222 e734
00000270: d835 e734 8091 f434 824b e734 3aae de34
00000280: ee46 e734 e3fb f034 969b dd34 9647 e734
00000290: b8fd f134 73cc 3535 85fd bcb5 6109 e734
000002a0: 44b6 e734 a14c 3a31 187a eb34 51e6 3e35
000002b0: 8b87 2c35 1b8b 0735 51b0 d735 f1dc 3935
000002c0: 5943 ea34 dd0c e5b5 ba2c e734 b606 e734
000002d0: a439 e734 9f04 e734 156e e734 1810 e934
000002e0: 60a5 2c36 7f39 e834 2511 f734 9ab3 8935
000002f0: 61a7 e834 79b0 1736 bafc 1f35 cc94 ea34
00000300: 99a4 1bb9 f5b0 cfbc 1b4c 84bb a7dd 5e3b
00000310: 4595 bc39 d573 e3b6 4b91 b639 a5ff ffbc
00000320: 7c48 3c38 983b bc39 157a bc39 f884 bc39
00000330: 8e77 bc39 501a b339 1ad7 bc39 a984 bc39
00000340: 27f3 bc39 5e5c bc39 0f81 bc39 2e86 1cbb
00000350: c254 0dbd fb9a 283c 84ac bc39 6a26 c239
00000360: 688f 3abc a112 bc39 7fe1 bb39 9d6e bb39
00000370: 637d bc39 0af2 c039 5e7a bc39 cab9 bf39
00000380: 95e4 bb39 42e0 bb39 7b1d 48bc 95c1 bb39
00000390: 378a b939 274a 3cba 1616 293d 76be bc39
000003a0: 2273 bc39 738e 88ba f092 bb39 279a 9039
000003b0: 06dc d039 e83f b139 d945 2c3c 4f03 a439
000003c0: 73c5 ba39 84c6 11bc 5f7f bc39 f699 bc39
000003d0: 707f bc39 febc bc39 897b bc39 0818 bc39
000003e0: 6fc2 153c edfa ce39 2191 d239 accb ca3a
000003f0: fd29 bc39 35b3 683d a5cf a039 8326 bc39
-0.00011057471 -0.006918101 0.0020561186 0.007684562 0.00028290306 -3.8894344e-05 0.00027178728 -0.010608482
6.764884e-06 0.00028220247 0.0002827731 0.0002827242 0.0002829199 0.0002650449 0.0002833035 0.0002827874
0.00028360638 0.00028247313 0.0002827439 -0.0013040534 -0.017443696 0.0017214518 0.00028301464 0.0002759177
-0.009580218 0.00028181888 0.00028158823 0.00025386104 0.0002827169 0.00028630428 0.0002826919 0.0002829674
0.00028152944 0.00028197496 -0.0036489652 0.00028134257 0.00027725293 0.0057966136 0.021409571 0.0002832129
0.00028263975 -0.0016883891 0.00028104565 0.00020016702 0.00026759057 0.00026173622 0.0036231477 0.00022500992
0.00027984346 -0.005026066 0.00028273062 0.00028292765 0.0002827335 0.0002831873 0.0002827028 0.00028199822
0.0024099508 0.00028557738 0.0002838053 0.00033057155 0.00028209656 0.051955517 0.00023303473 0.0002820132
0.0014391429 0.023829319 -0.022297055 -0.040136077 0.00091272744 0.0012866077 0.00092502485 0.018693669
0.0011751467 0.0009134771 0.0009122775 0.0009128724 0.0009128085 0.00093219755 0.0009121423 0.00091284193
0.0009118409 0.0009131768 0.00091288745 0.0027597367 -0.03841041 0.009523014 0.0009124452 0.00089818536
-0.02516545 0.00091319083 0.0009141534 0.00084091193 0.00091291155 0.0009031639 0.0009129363 0.000875612
0.00091320986 0.00091268274 0.002940827 0.00091325655 0.0009185667 0.0025341313 0.016683996 0.00091238786
0.00091299263 0.00028638006 0.0009147871 0.0009904687 0.0008962039 0.00093520037 0.00010305414 0.00096989167
0.00091421517 -0.008964198 0.0009128995 0.0009126839 0.0009128987 0.00091240794 0.0009129377 0.0009137185
-0.0013773581 0.00087112875 0.0008680665 0.00046933565 0.0009135882 0.020042064 0.00095493253 0.0009135652
1.8629677e-06 -1.4080406e-06 -1.925803e-06 -3.762142e-06 4.302662e-07 1.6391887e-06 4.7938516e-07 3.8383696e-06
1.4358793e-06 4.342859e-07 4.3022212e-07 4.3060433e-07 4.306267e-07 4.964158e-07 4.312967e-07 4.3057045e-07
4.3195666e-07 4.3204014e-07 4.305303e-07 -3.1835663e-07 -3.978767e-06 -2.1074625e-06 4.32052e-07 4.5201034e-07
9.636335e-07 4.3073635e-07 4.3575454e-07 4.3051938e-07 4.306628e-07 4.5554407e-07 4.3082042e-07 4.147749e-07
4.307871e-07 4.4886755e-07 4.1277661e-07 4.3079189e-07 4.5074353e-07 6.772527e-07 -1.4080875e-06 4.3033927e-07
4.315972e-07 2.711012e-09 4.3860996e-07 7.111567e-07 6.4272234e-07 5.0493844e-07 1.6070063e-06 6.923938e-07
4.3634898e-07 -1.7065573e-06 4.3059646e-07 4.3031986e-07 4.3069042e-07 4.3030465e-07 4.3107198e-07 4.3411342e-07
2.5726258e-06 4.32552e-07 4.601981e-07 1.0259566e-06 4.3335152e-07 2.2603474e-06 5.959988e-07 4.369416e-07
-0.0001484327 -0.025352934 -0.004037393 0.0034006627 0.0003596937 -6.778612e-06 0.00034821997 -0.03124983
4.48902e-05 0.00035902555 0.00035949112 0.00035957224 0.0003594723 0.00034161145 0.00036018417 0.00035956994
0.00036039317 0.00035926973 0.0003595431 -0.0023883688 -0.03450466 0.0102908565 0.00035986688 0.00037031184
-0.01138673 0.00035872034 0.00035835427 0.00035749833 0.00035951575 0.00036801427 0.00035949325 0.00036568783
0.00035837726 0.00035834505 -0.01221406 0.0003581165 0.00035388928 -0.00071826804 0.04128083 0.0003600006
0.00035943935 -0.001041843 0.00035776896 0.00027580673 0.00039836782 0.00033807685 0.0105147 0.00031282983
0.00035623796 -0.0088974275 0.00035953053 0.00035972864 0.00035953103 0.00035998964 0.00035950195 0.0003587606
0.009140595 0.00039478336 0.0004016245 0.0015472076 0.00035889438 0.05681153 0.00030672285 0.00035886848

gcn.gc2.bias f4 [64]
00000000: 773e 32bc b2b5 ac3d c07b bbbc 73d6 49bd
00000010: ee73 32bc ee65 32bc 4771 32bc 3902 213e
00000020: d6da 30bc db73 32bc 1673 32bc ec73 32bc
00000030: 1b74 32bc 2172 32bc ec73 32bc ff73 32bc
00000040: b673 32bc eb73 32bc e973 32bc 41b3 36bc
00000050: ef1f 57bd a13f b2bc ee73 32bc 6e44 32bc
00000060: d6a8 4ebc d872 32bc d873 32bc ef5d 32bc
00000070: ef73 32bc ad70 32bc ef73 32bc 656f 32bc
00000080: 8272 32bc df71 32bc d76f ab3c 4572 32bc
00000090: 7572 32bc 5d77 bfbc d6c3 b8bc f873 32bc
000000a0: f173 32bc 2a78 38bc c973 32bc 3350 32bc
000000b0: fa78 32bc 9370 32bc 3f56 7fbc 7974 32bc
000000c0: 1871 32bc 7672 89bc ec73 32bc f673 32bc
000000d0: ed73 32bc f873 32bc ef73 32bc dd73 32bc
000000e0: 27c3 87bc 9475 32bc d864 32bc 59f8 2cbc
000000f0: eb73 32bc 68fb 0abd a75a 32bc f073 32bc
-0.010879151 0.08433093 -0.022886157 -0.04927678 -0.010891898 -0.01088856 -0.010891265 0.15723504
-0.010794362 -0.01089188 -0.010891696 -0.010891896 -0.0108919395 -0.010891468 -0.010891896 -0.010891913
-0.010891845 -0.010891895 -0.010891893 -0.011151136 -0.05252069 -0.021758856 -0.010891898 -0.010880573
-0.012613496 -0.010891639 -0.010891877 -0.010886653 -0.010891899 -0.010891122 -0.010891899 -0.010890816
-0.010891559 -0.010891407 0.020927353 -0.010891502 -0.0108915465 -0.023372347 -0.02255432 -0.010891907
-0.0108919 -0.011259118 -0.010891863 -0.010883379 -0.010893101 -0.010891098 -0.0155845275 -0.010892027
-0.010891221 -0.016778212 -0.010891896 -0.010891905 -0.010891897 -0.010891907 -0.010891899 -0.010891882
-0.016572548 -0.010892291 -0.010888301 -0.010557258 -0.010891895 -0.033931166 -0.010885871 -0.0108918995

gcn.ln2.weight f4 [64]
00000000: 820e 9d39 f0bc de3e d49a 993e 85fc 143f
00000010: 2a86 81a7 3f52 0939 9817 bbb7 0f58 223f
00000020: a84c 8739 96a3 d5b1 f3de 81b8 90ad eab0
00000030: 9ed8 5eb6 4937 7d37 275c e134 0ac2 8334
00000040: c4c3 8eb7 0216 c2ad f9d3 73a8 d374 293c
00000050: 9bf5 1a3f bbc0 2c3e d4b6 ff30 fc99 8fb8
00000060: 6ae0 f93e 1ee3 2a39 fc19 1bb4 39b4 a538
00000070: 8e25 6836 f7d1 1fb8 ba48 75b2 a3e2 92b8
00000080: 871b 3d39 7f73 94b8 24e2 eb3d 7b05 3439
00000090: 514b fe38 6778 ba3e fcc4 013f b7a8 37a3
000000a0: d455 c895 78f8 f93d 5384 01aa 2b66 1739
000000b0: 320c da38 5568 0039 584c 1c3e e273 b838
000000c0: 972f 1a39 b47c cf3d 5561 a9b1 e856 e6a7
000000d0: 79be a2a9 4c65 81a6 0c23 53ac ded3 aaae
000000e0: 81af 9b3d 5dec 85b8 b155 ad38 7f23 613b
000000f0: e197 92a8 83c7 283f 752f 1138 d78b 6aa7
0.00029956183 0.43503523 0.30000937 0.58197814 -3.5950154e-15 0.00013095977 -2.2303124e-05 0.63415617
0.0002580632 -6.2177135e-09 -6.192727e-05 -1.707507e-09 -3.3206666e-06 1.5092847e-05 4.1976566e-07 2.4541833e-07
-1.701888e-05 -2.206502e-11 -1.3535174e-14 0.0103427945 0.60531014 0.16870396 1.8605655e-09 -6.847453e-05
0.48804027 0.00016297071 -1.4444953e-07 7.901382e-05 3.4592554e-06 -3.81041e-05 -1.4277413e-08 -7.004037e-05
0.000180347 -7.078703e-05 0.11517742 0.0001716818 0.000121256926 0.36419985 0.506912 -9.956177e-18
-8.091477e-26 0.12205595 -1.1503411e-13 0.00014438543 0.000103973216 0.00012245898 0.15263498 8.7953886e-05
0.00014704313 0.10131207 -4.9296127e-09 -6.3932048e-15 -7.227287e-14 -8.97863e-16 -3.0004358e-12 -7.76834e-11
0.07601834 -6.38596e-05 8.265244e-05 0.0034353433 -1.6275123e-14 0.6592943 3.461489e-05 -3.254983e-15

gcn.ln2.bias f4 [64]
00000000: 73c1 893d 4d4f e03d f43d be3d fa26 bf3d
00000010: d526 99ab f3af f83c 2331 793e 4eb8 8c3e
00000020: d2cf cd3d 8293 21b5 3ce4 a23d 4675 a8b4
00000030: e20a eab9 29d5 083c 028e 0039 c7f3 21ba
00000040: 3c11 143c cefa 75b4 83a6 abaa d345 7f3d
00000050: f516 dc3d 8876 c93d 2a07 9533 a6ed c83d
00000060: 8c9d 8b3d 0736 413d 99fb a235 b81f 743d
00000070: a945 3fb8 57b5 0a3d d759 e532 ddcc 733d
00000080: f398 8b3d bf35 693d e642 d93d 2d52 a73d
00000090: bd55 b23c d4ea d03d da10 013e 45dc 06a7
000000a0: 084d 0499 5fe8 8d3d 17ad 6ead 96b2 f23d
000000b0: fe47 673d c7b8 0e3d d05c c23d 559f 783c
000000c0: 7914 313e 4616 a83d 6256 a7b3 a55b 42ab
000000d0: 2ec2 08ac 2a42 afaa c991 80af 0cd4 00b2
000000e0: 6af9 ba3d a4fe 513d fa6c 053d 3350 8e3d
000000f0: c8bf 6fab 4f2b e03d b6b4 083c 8177 16ab
0.06726351 0.109526254 0.0928916 0.09333606 -1.0882082e-12 0.030357337 0.2433515 0.27484363
0.10049404 -6.0191826e-07 0.079536885 -3.1377766e-07 -0.00044640066 0.008351603 0.00012259933 -0.0006177988
0.009037312 -2.2908645e-07 -3.0491243e-13 0.06232245 0.10746566 0.09837061 6.939656e-08 0.09810953
0.06817159 0.047170665 1.2143165e-06 0.05960056 -4.5602825e-05 0.033864345 2.6699963e-08 0.059521545
0.06816282 0.056936022 0.10608463 0.08169971 0.021769399 0.1020104 0.12604085 -1.8715644e-15
-6.839796e-24 0.06929087 -1.3567167e-11 0.11850469 0.05646514 0.034844186 0.09490359 0.0151747065
0.17292966 0.08207373 -7.7922564e-08 -6.904983e-13 -1.9434554e-12 -3.1132155e-13 -2.338665e-10 -7.4987945e-09
0.09129603 0.051268235 0.03257463 0.069488905 -8.5176007e-13 0.109457605 0.008343866 -5.345655e-13

attention.fc1.weight f4 [16, 64]
00000000: 3e8f 88b9 4067 9c3d 3969 3abc ef45 86bd
00000010: 0c48 19a8 5dbb b8b8 f270 8bba 3dce 333e
00000020: aeeb dcb9 226c fe31 ad1b a8b9 30be 8331
00000030: 71e8 c9b2 35f9 65b8 c971 6235 13fe 2337
00000040: a50f f9b7 3a5b aeb1 e7b7 9a27 6bd9 5bb9
00000050: a3ff a7bd 02d2 8ebb ba19 cf30 5284 d7b9
00000060: 80e6 40bd f1e5 33b9 7066 bbb3 b26c 6cb9
00000070: 63ad 0db3 a385 e1b8 bdcc 57b0 bce4 6cb9
00000080: 5cab 8bb9 03b0 60b9 bc74 df3b 803e adb9
00000090: 1aef 42b8 c42b 93bc 4ce0 2dbd fa3c 92a3
000000a0: c243 5015 2f84 81ba 964f dfa9 4666 05ba
000000b0: 4d10 5db9 0990 ebb8 00a0 9aba fdd2 fab7
000000c0: 8c31 48ba 4107 02bb 5c9a a231 6d6d 59a7
000000d0: f988 c9a7 03db 26a7 b44f 412c 8e35 dc2e
000000e0: d3a0 27ba 8779 45b9 d261 d1b8 1916 9fb9
000000f0: 3823 9e28 44de 9ebd a261 82b8 ec52 87a7
00000100: 2593 84b9 4757 9b3d 5c94 39bc 19d6 85bd
00000110: 4b89 1ba8 2905 afb8 9662 89ba 5d87 323e
00000120: 5961 d7b9 ae65 0732 8d80 a3b9 f855 7831
00000130: 5fbe 91b2 a969 70b8 633e 9335 2048 2237
00000140: 838a 04b8 1d2a b3b1 0687 8a27 156a 54b9
00000150: 74ce a5bd bd04 8ebb 353b cd30 c90e d2b9
00000160: 950e 41bd c7f0 2db9 bd68 bcb3 3b39 65b9
00000170: 5161 eb31 f461 d7b8 eae5 27b0 89b2 65b9
00000180: c4a2 87b9 c4c1 59b9 e246 de3b 0a81 a8b9
00000190: 7c56 35b8 9cf8 91bc 1aad 2cbd 010e 8aa3
000001a0: db3e 7515 8a91 80ba 50f8 b9a9 db4a 02ba
000001b0: 8f30 56b9 c568 e1b8 7bdd 98ba 6a83 ffb7
000001c0: 0086 44ba a35b 01bb 936d a031 8cbe 5aa7
000001d0: f396 f7a7 34b7 2aa7 368b 2d2c 0e7a cd2e
000001e0: 7317 26ba 6516 3fb9 625e c7b8 1eb5 9bb9
000001f0: 399c 9a28 f32d 9dbd 2f2a 87b8 8f58 83a7
00000200: 3147 83b9 03a5 9b3d 7210 39bc 5552 85bd
00000210: a38c 1da8 4fe9 abb8 23fc 86ba 27dd 323e
00000220: 6eab d4b9 c285 0932 3bb1 a1b9 fff3 7931
00000230: 3a8b 7eb3 8755 6cb8 05c6 9c35 851b 2237
00000240: f52f 01b8 5b77 b1b1 5063 8827 be4a 50b9
00000250: 189d a5bd 6dbd 8dbb 4ddb cf30 1a76 cfb9
00000260: 3cee 3ebd 4e79 2cb9 be4e bdb3 2013 63b9
00000270: 9d80 a832 4888 d4b8 3b75 1ab0 9295 63b9
00000280: 6a43 86b9 45cf 57b9 b1c7 de3b 389f a6b9
00000290: ada7 2eb8 2cbf 91bc 4922 2cbd ec25 8aa3
000002a0: f326 7715 0776 7fba b759 b5a9 ac89 00ba
000002b0: 1c49 54b9 76aa deb8 4eff 97ba 4c60 f4b7
000002c0: 9379 41ba ffb3 00bb 87b1 9f31 f97d 5ea7
000002d0: e293 eda7 7853 2da7 1c36 2b2c 9d66 ce2e
000002e0: af58 24ba 4b68 3db9 6663 c4b8 adb6 99b9
000002f0: c308 9a28 ad42 9cbd aeea 84b8 c65a 84a7
00000300: 7720 a4b9 2c42 9e3d 683c 41bc c6b0 8bbd
00000310: 7096 dda7 0d14 f3b8 62db a5ba a4b5 363e
00000320: 25b2 04ba 4238 8831 a338 cab9 f264 a531
00000330: a897 9bb4 0831 4fb8 f018 5fb5 e932 2337
00000340: 1baa f6b7 9068 59b1 7dd1 0b28 a988 8cb9
00000350: c145 b2bd 52f8 93bb 9dcb d130 c16a 01ba
00000360: b77b 4cbd ec99 58b9 1c55 a1b3 7cfc 8db9
00000370: 646f a3b4 325b 0eb9 333b 64b0 374f 8eb9
00000380: fbf9 a7b9 73fb 86b9 8a48 e03b 2f7b d0b9
00000390: 3e08 94b8 011a 9abc 309b 36bd 98a3 94a3
000003a0: e5d4 0415 f7c3 8bba 73ce 0baa 3ae4 1fba
000003b0: f7ca 84b9 e456 13b9 2a6b a8ba 3a8f 27b8
000003c0: 2337 6eba dd51 09bb ee91 a331 c922 55a7
000003d0: fc6d 29a6 cb93 eda6 67f2 8f2c 275b 0d2f
000003e0: bdde 3aba ac9a 6db9 2726 06b9 6356 bcb9
000003f0: f2d3 9c28 7318 abbd d363 6fb8 2ccd ada7
-0.00026046665 0.07636881 -0.011377626 -0.065563075 -8.508829e-15 -8.808703e-05 -0.0010638519 0.17559142
-0.00042137265 7.404666e-09 -0.00032064077 3.8342236e-09 -2.3505182e-08 -5.4829947e-05 8.435714e-07 9.774713e-06
-2.9690398e-05 -5.0744378e-09 4.2942974e-15 -0.00020966462 -0.08203056 -0.004358531 1.5068544e-09 -0.00041106582
-0.047094822 -0.0001715643 -8.726499e-08 -0.00022547206 -3.2986815e-08 -0.00010753728 -7.8507495e-10 -0.00022591924
-0.0002663982 -0.00021427874 0.0068193357 -0.00033043697 -4.6475885e-05 -0.017965205 -0.042450234 -1.5855176e-17
4.2058717e-26 -0.0009881313 -9.9169953e-14 -0.00050887873 -0.00021082275 -0.00011232502 -0.0011796951 -2.9900571e-05
-0.00076367776 -0.001984075 4.732369e-09 -3.017412e-15 -5.5937213e-15 -2.3155854e-15 2.7471194e-12 1.0013955e-10
-0.0006394509 -0.00018832656 -9.984117e-05 -0.00030343307 1.7556797e-14 -0.077572376 -6.2170686e-05 -3.755993e-15
-0.00025286633 0.07585006 -0.011326876 -0.065349765 -8.633999e-15 -8.3456114e-05 -0.0010481651 0.1743445
-0.00041080525 7.8811535e-09 -0.0003118556 3.6137617e-09 -1.6966792e-08 -5.7318863e-05 1.097051e-06 9.672745e-06
-3.160025e-05 -5.2143734e-09 3.8449087e-15 -0.00020257414 -0.080960184 -0.004334061 1.4932541e-09 -0.00040065337
-0.047133047 -0.00016588262 -8.773484e-08 -0.00021860462 6.8504638e-09 -0.00010270244 -6.1080974e-10 -0.00021905651
-0.00025870476 -0.00020766916 0.0067833522 -0.000321396 -4.3234308e-05 -0.017818742 -0.04215727 -1.4967921e-17
4.952694e-26 -0.0009808999 -8.258726e-14 -0.0004970261 -0.0002042672 -0.00010748351 -0.0011662686 -3.0459563e-05
-0.0007496774 -0.0019738458 4.66907e-09 -3.0356873e-15 -6.871993e-15 -2.3691554e-15 2.4662056e-12 9.344002e-11
-0.00063358917 -0.00018223522 -9.5066396e-05 -0.00029698847 1.7165185e-14 -0.0767478 -6.445159e-05 -3.645582e-15
-0.0002503931 0.07599833 -0.011295425 -0.06509844 -8.7457465e-15 -8.1973725e-05 -0.0010298531 0.17467175
-0.00040563516 8.0048626e-09 -0.0003084036 3.6372965e-09 -5.926561e-08 -5.634644e-05 1.1680537e-06 9.66236e-06
-3.080066e-05 -5.164947e-09 3.7855258e-15 -0.0001986427 -0.08086604 -0.00432556 1.5123561e-09 -0.0003957011
-0.046613917 -0.00016448388 -8.8153215e-08 -0.00021655532 1.961626e-08 -0.00010134332 -5.619147e-10 -0.00021704126
-0.000256087 -0.00020581212 0.0067987074 -0.00031780615 -4.1640993e-05 -0.017791353 -0.042024884 -1.497805e-17
4.9911978e-26 -0.00097450655 -8.053578e-14 -0.0004903327 -0.00020245131 -0.00010617536 -0.0011596472 -2.9131908e-05
-0.00073804817 -0.0019638536 4.6476916e-09 -3.0876979e-15 -6.594105e-15 -2.4053821e-15 2.4330598e-12 9.386023e-11
-0.00062693184 -0.00018063297 -9.364523e-05 -0.00029318538 1.7101234e-14 -0.07629905 -6.337963e-05 -3.6735777e-15
-0.00031304706 0.07727465 -0.011794187 -0.06820826 -6.1502927e-15 -0.00011590878 -0.0012653882 0.17842728
-0.0005061946 3.9645167e-09 -0.0003857064 4.813608e-09 -2.8981344e-07 -4.939831e-05 -8.311026e-07 9.7274105e-06
-2.9404697e-05 -3.1637093e-09 7.7614756e-15 -0.000268047 -0.08704711 -0.004515686 1.5264622e-09 -0.0004936867
-0.04992267 -0.00020656706 -7.512628e-08 -0.0002708173 -3.0442163e-07 -0.00013576148 -8.3030044e-10 -0.0002714337
-0.00032038972 -0.00025745816 0.006844585 -0.0003976463 -7.058725e-05 -0.018811228 -0.044581592 -1.6115477e-17
2.6825132e-26 -0.001066326 -1.2417306e-13 -0.0006099377 -0.00025328223 -0.00014051382 -0.001284932 -3.9949293e-05
-0.00090871955 -0.0020953335 4.7605146e-09 -2.9578545e-15 -5.878271e-16 -1.6485238e-15 4.0912165e-12 1.2856259e-10
-0.00071285275 -0.00022659701 -0.00012793449 -0.00035922517 1.7411396e-14 -0.08354273 -5.707501e-05 -4.8239594e-15

attention.fc1.bias f4 [16]
00000000: 3201 77be 1f15 75be a3ca 77be 5b63 6cbe
00000010: ed06 753e 982c 733e 5698 74be 920f 753e
00000020: 8a60 70be 9834 77be fd26 7e3e 4c8b 763e
00000030: bbe4 743e 4e21 7ebe 7cf1 743e f847 77be
-0.2412155 -0.23933838 -0.24198394 -0.23084776 0.23928423 0.2374748 -0.23886237 0.23931721
-0.23474327 -0.24141157 0.2481956 0.24076575 0.23915379 -0.24817392 0.23920244 -0.24148548

attention.fc2.weight f4 [4, 16]
00000000: d85b 0fbe 7e82 0ebe b0c0 0dbe 9014 15be
00000010: ee0d 0b3e 60e6 0d3e 44d4 0cbe 8e90 103e
00000020: 55d9 07be 13a7 0cbe ab32 103e e7ee 0d3e
00000030: c2d1 0e3e 1d9d 11be f556 0f3e 3cda 0dbe
00000040: a058 0fbe f31f 0ebe e476 0ebe cc38 15be
00000050: 9be1 0a3e 834b 0e3e 84c8 0dbe 6556 103e
00000060: 3bd9 07be 22a6 0cbe 9df9 0f3e 850c 0e3e
00000070: 5b36 0e3e c01f 12be 4c52 0f3e daf9 0dbe
00000080: cf99 0fbe 96fc 0dbe 91ec 0dbe c67e 15be
00000090: e82a 0b3e b2ff 0d3e 829b 0dbe c0bc 103e
000000a0: 3fdc 07be 478d 0cbe 8ffd 0f3e b040 0d3e
000000b0: 042b 0f3e ad72 11be 8ad7 0f3e 1407 0ebe
000000c0: 0474 0fbe 6bce 0dbe 4a06 0ebe 6b31 15be
000000d0: 1eda 0a3e 5127 0e3e 6892 0dbe 2ba7 103e
000000e0: 4daf 07be eb52 0cbe 0619 103e 4bd1 0d3e
000000f0: a61d 0f3e ad27 12be 6cdf 0f3e 89e5 0dbe
-0.1399988 -0.13916966 -0.13843036 -0.14558625 0.13579533 0.13857412 -0.13752848 0.14117643
-0.132665 -0.13735609 0.14081828 0.13860665 0.13947204 -0.1422009 0.13998015 -0.13852781
-0.13998652 -0.13879375 -0.1391254 -0.14572448 0.13562624 0.13895993 -0.13846022 0.14095457
-0.1326646 -0.1373525 0.14060064 0.13871963 0.13887922 -0.14269924 0.13996238 -0.13864842
-0.14023517 -0.13865885 -0.13859774 -0.14599141 0.13590586 0.13867071 -0.13828853 0.14134502
-0.13267611 -0.13725768 0.14061569 0.13794208 0.13981253 -0.14203902 0.14047065 -0.13869888
-0.140091 -0.13848273 -0.13869587 -0.14569633 0.13559768 0.13882186 -0.13825381 0.1412627
-0.13250466 -0.13703506 0.14072046 0.1384937 0.13976154 -0.14272948 0.14050072 -0.13857092

attention.fc2.bias f4 [4]
00000000: 82b5 35be 10f1 17be 24c4 8abd 00c4 753e
-0.17745021 -0.14838052 -0.06775692 0.2400055

fc_final.weight f4 [1, 64]
00000000: e250 823c 1dea 28be 4f98 853e d998 bf3e
00000010: b6b3 8a28 ce6c 5c3b f592 93ba f9ec bebd
00000020: 36df bd3c b8e5 33b2 312b cdba 3cde 94b1
00000030: 28dc 9537 f93d 9539 3373 4833 cf39 c7b6
00000040: df33 8439 1dc6 7fb3 4afb a828 4d39 323d
00000050: 6994 643e 190e fcbd caa2 18b1 f906 9fbc
00000060: 7740 583e 69e5 9d3a 7020 b334 8179 8a3c
00000070: 9d0c 04b8 2b23 ccba 24ff dc32 90b3 1fbc
00000080: 8c71 e13a 7d78 5cbb df54 973d 1a7d 093b
00000090: 341d 753a 37ec 6bbe fc00 60be 2f54 4e24
000000a0: 1173 9e16 65e5 f03d bffc 0f2b 0ea9 773c
000000b0: 9dee 433c 4f86 003b 7110 29be e68f 323a
000000c0: 032d 813b a4db cf3d 0fc5 bb33 4bb5 2229
000000d0: 3804 8b28 5be8 8227 2dff 0eab 5e17 16af
000000e0: 4c7b c1bd 60f0 b6bb fb19 533b a26b 34bd
000000f0: 7f0f 2aa8 baed bebe c5ad 7939 44e7 8928
0.015907709 -0.16495557 0.26092765 0.374213 1.5399015e-14 0.0033634189 -0.0011259007 -0.09322543
0.023177724 -1.0471403e-08 -0.0015653131 -4.332632e-09 1.7864702e-05 0.00028465668 4.6670902e-08 -5.937392e-06
0.0002521565 -5.9551997e-08 1.8760726e-14 0.043511678 0.22322239 -0.123073764 -2.2211446e-09 -0.019412505
0.21118341 0.0012046519 3.336495e-07 0.01690364 -3.1483e-05 -0.0015574446 2.5727395e-08 -0.009747401
0.0017199977 -0.0033641153 0.07389235 0.0020979107 0.000935036 -0.23039328 -0.21875376 4.4740436e-17
2.5598894e-25 0.117625035 5.115456e-13 0.015115989 0.011958745 0.0019611304 -0.16510178 0.00068116037
0.0039421334 0.10149315 8.743711e-08 3.6128473e-14 1.543393e-14 3.633417e-15 -5.080266e-13 -1.3650722e-10
-0.09447345 -0.005582854 0.003221153 -0.04404796 -9.440256e-15 -0.37290746 0.00023811225 1.5310351e-14
