Model_OGT/Fold2_best_model.pkl (torch_old, 197263 bytes, 13 tensors)

gcn.gc1.weight f4 [118, 256]
00000000: 0310 273c 1a55 e1bb 9dec e1b9 af0b a8b8
00000010: 2322 84b9 b7df e9b9 0c6d 82ba 7e67 093c
00000020: dbcc 4cb9 7e5d b9bb 162a b3b9 5518 07b9
00000030: 2299 41ba e065 96b9 594c 483b 0da8 193c
00000040: 2440 e3b9 d047 2c3c 2fb3 c83b 3fd2 4cb9
00000050: 071c 42b9 c964 d83b 2cc0 8cb9 eb2c e2b9
00000060: 914e 0dba 3fd6 b9b9 2384 d9b9 e823 d6b9
00000070: 7ff5 e938 55bd c8bb 8ab2 7cb9 c89a e7ba
00000080: 77a0 94b9 a559 73b9 7ce2 213c 0cc9 01ba
00000090: 0b4c f33b de0a 6eb9 2848 5db9 3ab7 4b3d
000000a0: b354 e3bc 665d d7b9 15d2 e838 ca73 49b9
000000b0: 0672 36b9 1a17 d0b9 4df0 8db9 a1e1 a8b9
000000c0: 467d 6cba 1461 21ba 8af7 37b9 734a acb9
000000d0: aac4 263d b5df 2aba b3ec 35ba da89 d93a
000000e0: 9f8d c9b9 b993 88b9 1a4c 6abc 789b adba
000000f0: 0ec5 a7b9 c689 1abb 6a6e 46ba ef5f 313c
00000100: c1c1 f8b8 ddeb 25b9 998d 5fb9 0a40 02ba
00000110: 2262 aabc 728b 5fb9 71ed 333c fc2c a8b9
00000120: 8143 0fbc 8838 76b9 7fb6 61bb c8ea 43b9
00000130: 293b 73b9 55ab 88b9 ba8f a7b9 b1df 10ba
00000140: 47ab 8ab9 6f27 f13b f5e6 e9b8 9183 56ba
00000150: f0db 28bb 4b4b 2d39 6e93 343d 461a c6b9
00000160: 9b5e f2b9 fe3d 383a 4409 7a3c 2d60 1dbc
00000170: c8ee ccb9 7449 80b9 a39d b7b9 4760 4db9
00000180: c431 8cb9 fb42 99b9 e224 00bb b97b c038
00000190: 0280 e6b9 ce78 ffb9 8252 0f39 844f 8738
000001a0: 9f4a 36ba bdac 86ba 4de8 01bb 5c47 eaba
000001b0: 0271 733b 17b1 0abc 95ee c439 3b65 ab3a
000001c0: 109c e2b9 65bb 58ba 9287 c3b9 4cdb 883c
000001d0: 8103 7aba 53ea 5cb9 4aa1 c8b9 603f aeb9
000001e0: 52e0 69bb 2cb3 52b9 7705 e8b9 95bd 62b9
000001f0: af11 54b9 1cd4 a2bc 2485 efb8 6494 b4bc
00000200: eb1a 85b9 b83a 82b9 daf6 84ba 2c4f c6b9
00000210: 582d df39 6c5b f0b9 cc70 4cb9 483e 9cb9
00000220: 9a1b e4b9 45f0 65b9 3ce5 72bc aa5c 1b3c
00000230: d400 18ba a055 b7b9 5614 12ba bc73 acbb
00000240: bc51 8fb9 7b78 64b9 e68a b8bb 17c9 08ba
00000250: 590d c3b9 c6f6 51bc 9c99 2b3c 8a58 86b8
00000260: c29d b0b9 d92f 393d a725 d4b9 ca76 463d
00000270: c6e9 40b9 c817 dab9 268b ec3b b92f c6b9
00000280: ff95 18b9 3053 bcb8 efe7 c2b9 cb71 a0b9
00000290: 3040 79b9 112f a9bb 51b1 75bc d75b 45ba
000002a0: 3317 ddb9 f556 26ba fd10 bab9 8312 83b9
000002b0: e42f 6fb9 49a3 2d3a a15d 48b9 9ade 80b9
000002c0: 790f a5bc b021 8bb8 b6e0 a7b9 0a96 c5b9
000002d0: cc0e 20ba d1a4 01ba 595e 5fbb 1e48 7ebc
000002e0: 005b 253a 40fc 2c3c 4b11 f0b9 3394 85b9
000002f0: 8e45 8abc 0b6e a3b9 a51d 59bc 1dba b5b9
00000300: 33de a7b9 0dcc 6eba 7db9 65bc 26ef a8b9
00000310: 6b50 19ba 35df 76b9 716e 47b9 3740 09ba
00000320: f780 66bc f742 4db9 93be 2aba 76c0 82b9
00000330: bf14 43b9 57c1 96b9 90b0 bab9 9668 03ba
00000340: cab4 1ab9 7e10 48b9 2732 87bb 41ce 46bb
00000350: 07c9 d5bb 925f 61b9 32ef 9cb9 5451 6e3b
00000360: 5fd3 bab9 cac2 2cbd 0941 3cbb 0af7 833d
00000370: ec5f e1b9 b87b 30bd 4a95 86ba ca68 9b3c
00000380: bb2e 99b9 6596 26bd 39c2 77b9 c79e 20bb
00000390: 16f1 14ba 9fdc 5db9 4767 81bb aed9 8eb9
000003a0: 5f23 67b9 9d4f 9dbb 02be 79b9 9d19 87b9
000003b0: 2d44 5ab9 0205 7cb9 726b 90b9 c025 103d
000003c0: e9af 0d3b f86d ab3c 5ebb 2eba 9d74 8f39
000003d0: 7045 0bbc bddd ebb9 c973 a4b9 7c8d b7b9
000003e0: 363e 24ba 2634 7db9 c038 0eba 7da3 6eb9
000003f0: ee7b 093d d9f0 bcb9 d06a 4fb9 2a6d 8db9
0.010196689 -0.0068766 -0.00043091635 -8.0130405e-05 -0.00025202436 -0.00044607904 -0.0009950711 0.008386491
-0.0001953127 -0.005656897 -0.00034172897 -0.00012883668 -0.0007385184 -0.00028686132 0.0030563085 0.009378445
-0.00043344602 0.010515168 0.006124876 -0.00019533279 -0.00018511723 0.0066038114 -0.0002684606 -0.00043139546
-0.00053904305 -0.00035445575 -0.00041487915 -0.00040844013 0.00011156033 -0.0061260858 -0.00024099104 -0.001767003
-0.00028348315 -0.00023207681 0.009880658 -0.0004950918 0.0074248365 -0.00022701497 -0.00021103083 0.049735285
-0.027750349 -0.00041077583 0.00011101753 -0.00019211989 -0.0001739935 -0.00039690064 -0.00027072654 -0.00032211564
-0.0009021353 -0.00061561284 -0.00017544455 -0.00032861865 0.040714897 -0.00065183203 -0.0006939873 0.0016596869
-0.00038443223 -0.00026050003 -0.014300371 -0.0013245186 -0.0003199954 -0.0023580655 -0.00075695536 0.010826095
-0.00011861651 -0.00015823492 -0.00021319686 -0.0004968649 -0.020798746 -0.00021318885 0.010981903 -0.00032076973
-0.0087441215 -0.00023481448 -0.0034441052 -0.00018684112 -0.00023196325 -0.00026067594 -0.00031959807 -0.00055264967
-0.00026449023 0.007359437 -0.00011153325 -0.0008183057 -0.0025765859 0.00016526614 0.044085912 -0.00037785078
-0.00046228323 0.00070282805 0.015260998 -0.00960545 -0.00039087818 -0.0002446879 -0.00035021928 -0.0001958619
-0.0002673996 -0.00029232338 -0.0019553234 9.1783186e-05 -0.00043964392 -0.00048727397 0.0001366828 6.4521126e-05
-0.00069538684 -0.0010274869 -0.00198223 -0.001787405 0.0037146215 -0.008465073 0.0003756179 0.0013076434
-0.00043222355 -0.000826767 -0.00037294306 0.016706131 -0.0009537265 -0.00021068128 -0.00038267142 -0.00033235084
-0.0035686684 -0.00020093907 -0.0004425456 -0.00021623664 -0.00020224483 -0.019876532 -0.000114212075 -0.022043414
-0.00025387792 -0.0002483928 -0.0010144368 -0.0003782449 0.00042567658 -0.00045844482 -0.00019496976 -0.00029801042
-0.00043508114 -0.00021928649 -0.014825162 0.009482542 -0.0005798463 -0.00034968276 -0.00055724883 -0.00526282
-0.00027335982 -0.00021788657 -0.0056317924 -0.0005217953 -0.00037203243 -0.012815183 0.010473635 -6.4061096e-05
-0.00033686875 0.045211647 -0.00040463844 0.04845313 -0.00018397634 -0.0004159792 0.007218736 -0.0003780106
-0.00014551728 -8.9800335e-05 -0.00037175367 -0.0003060236 -0.00023770402 -0.0051630815 -0.014995889 -0.0007528639
-0.0004216969 -0.0006345355 -0.00035489342 -0.0002500006 -0.00022810657 0.00066237577 -0.00019108366 -0.00024579914
-0.02014898 -6.634311e-05 -0.00032020145 -0.00037686556 -0.00061057205 -0.0004945519 -0.0034083335 -0.015520124
0.00063078105 0.010558188 -0.0004578925 -0.00025478154 -0.01687887 -0.0003117177 -0.013251697 -0.00034661675
-0.00032018273 -0.00091093854 -0.014021275 -0.00032221637 -0.000584847 -0.0002354354 -0.00019019262 -0.0005235704
-0.014068834 -0.0001957527 -0.0006513383 -0.00024938927 -0.00018604378 -0.0002875428 -0.00035608234 -0.0005012838
-0.00014753934 -0.0001907963 -0.0041258517 -0.003033534 -0.0065242085 -0.00021493275 -0.00029932853 0.0036364393
-0.00035634168 -0.042177953 -0.0028725287 0.06443603 -0.00042986812 -0.043086737 -0.001026788 0.018970866
-0.0002921725 -0.04067077 -0.00023628109 -0.0024508701 -0.00056816766 -0.0002115839 -0.003949079 -0.00027246535
-0.00022043053 -0.0048007504 -0.00023817274 -0.0002576829 -0.00020815498 -0.00024034458 -0.00027545873 0.03519225
0.0021619743 0.02092646 -0.0006665493 0.0002736197 -0.008500442 -0.000449879 -0.00031366784 -0.00035009894
-0.00062653737 -0.00024147387 -0.00054253265 -0.00022758353 0.033565454 -0.000360376 -0.00019780849 -0.0002697495

gcn.gc1.bias f4 [256]
00000000: 8c11 9e3d 4194 3f3c 61a5 e53c fffa 8f3c
00000010: 05f8 bf3c ddf0 e83c 265f 203d da40 123d
00000020: 1116 b33c 259e e6bb c9f0 d33c c3f2 a33c
00000030: 567c 103d b990 c53c 7e6d b2bc 9f03 b33d
00000040: 342a e63c 5c94 01bc 4ef7 95bb 93f1 b23c
00000050: 4817 ae3c 3f0f 2a3d cdaa c33c 427c e63c
00000060: ebe3 fa3c eaa8 d63c 0363 e13c 887e e13c
00000070: e60d 1c3c 0129 423c 14ce ba3c 7c3e 3a3d
00000080: 20ca c73c d67d bb3c b8b3 48bd 4d2d f23c
00000090: bc6e 8b3c a935 bb3c 1ecb b63c ca11 0abd
000000a0: e2da 4ebb a1db e43c dc43 1b3c be4e e03c
000000b0: 20dd ac3c 2e85 e33c 632d c43c 5e85 cf3c
000000c0: f3c5 163d 721e 053d 6443 af3c 5537 d13c
000000d0: bf3b 26bc 552b 083d cbb9 0b3d 15d6 8e3c
000000e0: 2bb8 dc3c 27fc c13c 8ab4 b3bc 49b4 383d
000000f0: 8833 cf3c fe3c 2e3d 8a5f 123d bb65 a5bc
00000100: 6cb4 233d 3965 a93c 7c86 b73c f86f f03c
00000110: 3c78 013d 7b5b b73c 26b8 0b3d 9ce3 d53c
00000120: a7eb bf3d 49f5 b93c a85a c8bc b6f5 b03c
00000130: 8ef7 bb3c 3751 c23c c07f cf3c ccfc fd3c
00000140: 69bd c23c caf3 073d a3db 9c3c 6825 173d
00000150: ea62 0fbd a811 86bb 8224 db3b 4045 db3c
00000160: 48ad eb3c 38f3 2b3c a72c 783d 6949 003c
00000170: 3f6e df3c de23 be3c f8a4 d53c 4112 b33c
00000180: 4981 c53c db22 2b3d 568a a13d b7e8 4d3c
00000190: 2647 e83c d5ef f03c 5c1d f73c 6a9a 643c
000001a0: b14d 8d3d c98f 343d f43e ad3c 55b4 9c3d
000001b0: 3b7f 0f3d 1573 53bc 4e0c 42bd 1a2b 8e3c
000001c0: f5ab e63c 11d4 053d e722 da3c b014 2c3d
000001d0: 7c49 223d 4cd6 b53c c9e9 db3c 94f3 d03c
000001e0: 41da 0c3d 9568 b43c d323 e83c be7f 5c3c
000001f0: 624f b43c 7b48 e93b a86c 993c dfe6 b5bb
00000200: 671b c13c bdc4 be3c c59f 2d3d 8f38 db3c
00000210: e18d a33b e0be eb3c c2df b23c 7dbb ca3c
00000220: 47a4 e63c d7cd b83c d8bc 443c 9fe6 bfbc
00000230: aecb 023d d522 d53c 4ead 023d ae40 5a3d
00000240: 349d c43c 164d b93c 8cde 2fbc 6e0d f83c
00000250: 8941 d83c 088b b53c 0c81 183d 0357 cd3b
00000260: f7af c43c 6b98 793b d4bd e03c 996b c6bc
00000270: bd2c b03c a223 e33c 4e80 693d cd0e db3c
00000280: b660 a63c 0f47 4abc 9a5e d93c dd38 cc3c
00000290: 6077 bc3c a882 69bc 68cd 8839 bb5d 103d
000002a0: c8ed e33c 6def 063d bef9 d63c 5e81 bf3c
000002b0: ae8d b63c 1425 cc3c 65fb b13c fbd3 be3c
000002c0: 0c02 a53a e8b2 943c 409c ce3c 2c20 db3c
000002d0: 9a02 053d 6ef3 ef3c e01f a73c ec97 343c
000002e0: a097 063c 4c31 d23c 5aa2 ea3c 3bf5 bf3c
000002f0: 8a75 de3c efac cd3c 8a40 d03c 98c4 d43c
00000300: 9cb9 073d 5d91 263d a694 c83c 3fdf cf3c
00000310: ab01 023d 92b3 bc3c 8ec8 b13c 38fc f63c
00000320: 5f87 783c 73dd b23c 4196 093d 7a02 bf3c
00000330: 2f76 b03c 6871 c73c 99c4 d63c 4b2b f43c
00000340: 32c1 2e3c a5cc b13c 07b0 06bd f8b9 a33c
00000350: ea5b 2cbd 6df8 b73c 8f02 cb3c d686 6a3d
00000360: a8cd 6b3c b960 b2bc b0ce 47bd 4c46 dbbb
00000370: f48f e53c 881f 01bd cb2b 4e3d b22d d0bc
00000380: 4b41 c83c 8b4f ddbc 4a07 bd3c 5f3e b03d
00000390: c6c3 003d 8ae6 b63c a476 9d3c 198b c53c
000003a0: b4cd b73c e133 05bd cbfb bc3c 4e83 c13c
000003b0: 786f b63c 4fb1 bd3c c24a c53c 680a f439
000003c0: e203 9c3c 7078 a2bb fbc0 133d e5d3 e6bc
000003d0: 5be3 65bd d118 eb3c a3e6 cc3c b794 d53c
000003e0: 4a9b 053d 09e5 bd3c b7ad fb3c 04c7 ba3c
000003f0: c7f9 d73c 63cb d73c 9fb7 b33c fc4e c43c
0.077181906 0.011693061 0.02803296 0.017575739 0.023433695 0.028435165 0.03915324 0.03570638
0.021861108 -0.0070378953 0.025871651 0.020013219 0.035274826 0.02411686 -0.021780726 0.08740925
0.028096296 -0.007908907 -0.0045766 0.021843707 0.021251336 0.041518446 0.023885155 0.028135423
0.030626258 0.026203591 0.027513033 0.027526155 0.009524798 0.011850596 0.022803344 0.045469746
0.024388373 0.022887152 -0.04899952 0.029562617 0.017020576 0.022852736 0.02231365 -0.03370837
-0.003156357 0.027936758 0.009476628 0.027381297 0.021101534 0.027773466 0.023947423 0.02533215
0.036809873 0.032499738 0.021394439 0.02553908 -0.0101460805 0.03324445 0.034112733 0.017436067
0.026943287 0.023679806 -0.021936674 0.04509381 0.025293127 0.042538635 0.035735644 -0.02019011
0.039966986 0.02067815 0.022402994 0.029350266 0.031608805 0.022382488 0.034111165 0.02610951
0.09371119 0.022699969 -0.02445729 0.02160154 0.022945192 0.023720367 0.02532947 0.031004332
0.023771958 0.03319148 0.0191477 0.036900908 -0.03500644 -0.0040914603 0.0066877017 0.02676642
0.02876915 0.010495 0.06058946 0.007830002 0.02727425 0.023210462 0.02607964 0.02185929
0.0241095 0.041781288 0.078877136 0.012567691 0.028354239 0.029411236 0.030165367 0.013952831
0.06899584 0.044082437 0.021148182 0.07651583 0.035033446 -0.012905856 -0.047375016 0.017354537
0.028158167 0.032672945 0.02662797 0.042011917 0.03962086 0.022196911 0.026844876 0.025506772
0.03438783 0.022022525 0.028337395 0.0134581905 0.022010509 0.007119236 0.01872857 -0.0055512036
0.023572637 0.023287171 0.042388696 0.026760368 0.0049912785 0.02877754 0.021835212 0.024747605
0.028154505 0.02255909 0.0120079145 -0.023425398 0.031932525 0.026017586 0.031903557 0.05328434
0.024000742 0.022619765 -0.010734212 0.030279841 0.026398437 0.022161022 0.037232444 0.006266476
0.024009688 0.0038085233 0.027434267 -0.024221228 0.021505708 0.027726952 0.057007127 0.026740456
0.020309787 -0.012346043 0.026534367 0.024929458 0.023006141 -0.014252342 0.0002609298 0.03524564
0.027823344 0.032943178 0.026242133 0.023377117 0.022284355 0.024920024 0.02172632 0.02329444
0.0012589111 0.018151715 0.02522099 0.02674874 0.032473184 0.029290881 0.020400941 0.011022549
0.008214861 0.025658272 0.028641868 0.023432365 0.027155656 0.025106875 0.0254214 0.02597265
0.033135995 0.040665973 0.024484944 0.025375007 0.031739872 0.023034845 0.021702077 0.030149564
0.015168994 0.02183411 0.03359056 0.02331661 0.02154073 0.024346069 0.026216792 0.0298058
0.010666179 0.021704027 -0.032882717 0.019986138 -0.042079844 0.022457326 0.024781493 0.057257496
0.014392294 -0.021774637 -0.048781097 -0.0066917296 0.028022744 -0.03152421 0.050334733 -0.025412414
0.024445197 -0.027015468 0.023074765 0.08605646 0.031436704 0.022326726 0.019221611 0.024114178
0.022436954 -0.03252018 0.023069283 0.023622181 0.02226995 0.023155836 0.024083499 0.0004654706
0.01904482 -0.004958205 0.036072712 -0.028177211 -0.056125026 0.028698357 0.02501232 0.02607189
0.0326188 0.023180502 0.030722482 0.022799976 0.02636422 0.0263421 0.021938143 0.023963444

gcn.ln1.weight f4 [256]
00000000: 3a8f 5a3e 4836 0a3e 3fa7 a12f ce9a ecb9
00000010: 32ca 0d38 900b 1e30 15f9 c639 6fdb 363e
00000020: b365 f133 03de 8e3d aeda 0d35 274b efb0
00000030: 95e8 a639 75eb 5836 02fe 203e b7b1 b03d
00000040: 6c93 8135 dd64 ce3d 01bc 153e 8d9a b429
00000050: 1fc1 ae38 01fb 083e 11b2 b92f 1110 f531
00000060: 9ee8 c439 ac2a 9d30 48f4 bc38 582d d837
00000070: d8f5 c037 f66e 883e fbc6 2036 85f8 613b
00000080: 0164 6c35 f947 0433 f8f0 273e de97 a135
00000090: ad60 493d 05de d036 d54b 832b 8b44 c03e
000000a0: 2b2e 7a3e fe0c ca36 321c 2e3e 0044 cc3b
000000b0: 90f2 4633 0d1a 603d 41a0 9533 70bc 6836
000000c0: f6e0 ad3b e476 cf2f 12e5 f1b2 6e61 8733
000000d0: b497 843e 9716 2734 0cfd 9136 e288 0c3e
000000e0: 88c7 e534 cc0a 1539 7729 2f3e 31c3 0d3b
000000f0: a6fc 8f2f cc21 b73d c390 a837 20bf b13d
00000100: 25ec b93d 62ca 47aa 28c3 812a 207c 9b2b
00000110: 19c7 0f3e c8db a832 c19f 363e b201 343b
00000120: acde b23d 3f0b 1035 0383 523e 7d03 6d2a
00000130: 3a4e cc37 561f 242d b10b 7733 160a e538
00000140: fc99 1131 4ed4 043e 24a2 922d 05a2 3a39
00000150: e1df 073e 3ecf 843c a815 c73e 8d97 f535
00000160: aef8 b338 8fb1 033e 3686 0c3e 9f07 823e
00000170: 5166 8d38 ea36 dc35 cb74 a32a 235b e635
00000180: 1421 ec37 7c87 463c c929 fb3c 8757 153c
00000190: 5493 9e39 ae4c 1032 1af3 7f3e 79e3 8e38
000001a0: 24f5 c63c 386b 613b 4cb2 123e 2f0d 053d
000001b0: a266 dd3d 5b3c 033e ddfd 5a3e ac3d 5f3e
000001c0: 64c4 3037 d76b 523c 8017 502f 0966 753e
000001d0: d1f7 6b36 1ae5 5037 b5b9 3f37 6e89 9936
000001e0: 0215 803d df68 2a2a bc69 bb38 2063 743b
000001f0: 257f 9739 16dc 233e 9065 6faf 68cf 243e
00000200: 5a91 dc37 0ff2 1a39 36c1 903a 88d9 332f
00000210: b6ef 713c 838d 9533 4570 0425 bd99 c229
00000220: 6b64 0c36 2e65 2430 2a74 393e 7e31 553e
00000230: c9be 1f39 d895 0831 2623 0eb6 1b12 083e
00000240: 451b ad38 eb3f 0033 8399 1b3e 58eb 0838
00000250: 8881 7735 5062 273e 0469 323e ee9a b13b
00000260: 8933 e035 aa00 443e ac77 c92e fe42 2c3e
00000270: 97b2 07ae 5b1e e836 9cb5 813d 67cc 9e33
00000280: 61db ddb5 cdfe ae3c 5bb9 c136 d803 8537
00000290: f268 d8b8 e597 583e a4a9 5f3e da07 0f36
000002a0: 90e3 472e 814b 0b34 2d0f e236 8f5f a434
000002b0: 2d9f a034 ad5b db3d c0bd 3c28 d01b cd36
000002c0: 75bd 3d3e e983 c8ad f54f 2237 527c 8f32
000002d0: a61d 3e37 0bc8 4db7 0e9c 3d3d c8f4 4f3e
000002e0: def6 f93d 35d1 513e c457 1bba abfa e033
000002f0: 7d68 883e bee5 6037 666f 793e d682 65b0
00000300: 7d96 0c3c c79d 983b 9def 453e 7452 0437
00000310: 401f 6a36 4c60 ee35 f35a 093a 4264 eb36
00000320: ca69 2f3e 35ac 4731 22ff 0833 e20b 4033
00000330: 0e5e 1734 8862 5738 4b6f 122e 1555 0f35
00000340: ded0 7c3a b019 9335 c669 bc3d f420 853e
00000350: 07d4 e63d 1f65 3f28 5660 0b39 9ba0 f03d
00000360: 4b6f 0d3b 9224 7e3e bfe4 d93d 2ce2 763e
00000370: 3222 8c32 26c6 753e 3d82 823c a724 403e
00000380: 8600 d339 6fc6 463e b14f 7832 0fb5 133d
00000390: 7f1a f52e eecc 122f abe7 973d f453 9733
000003a0: 4fbf 8e36 450f 073e fc37 c535 95fe f72f
000003b0: 1f01 6a32 efc1 7a29 4431 7527 4329 643e
000003c0: 54c5 c53d 7f30 393e 7876 8a3c ef21 013e
000003d0: dd35 533e 78df 9939 7ae9 bf36 3a02 e428
000003e0: 5db2 b434 7a10 7b23 b15c 6a2f f8b5 3232
000003f0: 5412 363e 191a 7336 9655 9838 badf 5830
0.21343699 0.13497269 2.9404565e-10 -0.00045128766 3.380533e-05 5.7496496e-10 0.00037951084 0.17857145
1.1240936e-07 0.06975939 5.2844814e-07 -1.7410898e-09 0.00031835274 3.2323562e-06 0.15721896 0.086276464
9.654154e-07 0.10077832 0.14622499 8.020416e-14 8.332938e-05 0.13377 3.3777828e-10 7.132265e-09
0.00037557347 1.1435382e-09 9.0100395e-05 2.5770321e-05 2.3002664e-05 0.26647156 2.395768e-06 0.0034480405
8.8062376e-07 3.0799104e-08 0.16400516 1.2039634e-06 0.049164463 6.2247295e-06 9.329157e-13 0.37552294
0.24431674 6.0215816e-06 0.17002943 0.006233692 4.6321077e-08 0.054712344 6.967503e-08 3.468038e-06
0.0053063584 3.7737558e-10 -2.8160262e-08 6.30415e-08 0.2589699 1.5561305e-07 4.3507953e-06 0.13724092
4.2799752e-07 0.0001421377 0.17105661 0.0021631236 2.6191066e-10 0.08941993 2.009457e-05 0.08679032
0.09078244 -1.7744966e-13 2.305042e-13 1.1047864e-12 0.14040793 1.9657719e-08 0.17834379 0.002746683
0.087338775 5.3660546e-07 0.2055779 2.1051039e-13 2.4355122e-05 9.329279e-12 5.7519802e-08 0.000109214496
2.1187807e-09 0.12971613 1.6670283e-11 0.00017798699 0.13268997 0.016212102 0.3888371 1.829803e-06
8.581705e-05 0.12860702 0.13723072 0.2539644 6.742462e-05 1.6407259e-06 2.9035658e-13 1.716286e-06
2.8148796e-05 0.012117263 0.030659573 0.009115106 0.00030245876 8.399338e-09 0.2499508 6.813458e-05
0.024286814 0.0034396183 0.14325827 0.032483276 0.10810591 0.12815993 0.21385904 0.2180087
1.0536143e-05 0.012843094 1.8925839e-10 0.23964705 3.5161977e-06 1.2451108e-05 1.1427725e-05 4.5757542e-06
0.06254007 1.5135418e-13 8.9365494e-05 0.0037290528 0.00028895694 0.16001925 -2.1773006e-10 0.16094744
2.6293728e-05 0.00014776758 0.001104391 1.6357238e-10 0.014766624 6.964094e-08 1.1487213e-16 8.642e-14
2.0920077e-06 5.980664e-10 0.1811072 0.20819661 0.00015234495 1.987578e-09 -2.1180108e-06 0.13288157
8.254362e-05 2.9860455e-08 0.15195279 3.2644108e-05 9.2203163e-07 0.16346097 0.17422873 0.0054200804
1.6704299e-06 0.19140878 9.16168e-11 0.1682243 -3.0854066e-11 6.9176726e-06 0.06333467 7.394629e-08
-1.6529631e-06 0.021361733 5.7734264e-06 1.5856625e-05 -0.0001031923 0.21151693 0.21842057 2.131323e-06
4.5449478e-11 1.2972852e-07 6.7370916e-06 3.0616908e-07 2.9918138e-07 0.10710845 1.0477242e-14 6.112714e-06
0.18529303 -2.2795947e-11 9.674569e-06 1.6703925e-08 1.1331786e-05 -1.2265528e-05 0.046291403 0.2030822
0.12205289 0.20489962 -0.0005925859 1.0476409e-07 0.26642218 1.3404931e-05 0.24358901 -8.3495644e-10
0.008580801 0.0046574804 0.19329686 7.887011e-06 3.4886907e-06 1.7760408e-06 0.0005239688 7.0152173e-06
0.17130199 2.90562e-09 3.189701e-08 4.471429e-08 1.4097188e-07 5.135176e-05 3.3295405e-11 5.339546e-07
0.0009644161 1.095983e-06 0.09199862 0.26001704 0.1127091 1.0624557e-14 0.00013291961 0.11749383
0.0021581228 0.24818638 0.10639333 0.24109715 1.6313695e-08 0.24001369 0.015931243 0.18763982
0.00040245446 0.19411634 1.445362e-08 0.036061343 1.1146017e-10 1.3351428e-10 0.07417234 7.0467564e-08
4.254201e-06 0.13189419 1.4693937e-06 4.510993e-10 1.3620848e-08 5.5679362e-14 3.4027287e-15 0.22281365
0.09656778 0.18084906 0.016902193 0.12610601 0.20626016 0.0002934893 5.719424e-06 2.531405e-14
3.365739e-07 1.3610226e-17 2.1315107e-10 1.04023385e-08 0.17780429 3.6225013e-06 7.2638664e-05 7.8898277e-10

gcn.ln1.bias f4 [256]
00000000: 4d9b 603c b6b9 8fbb 4f4e 52af c843 a7b9
00000010: cd47 97b9 d7f7 8d2f bab9 1fba b065 fbbb
00000020: ac28 5833 947b 24bc 4e78 1f33 76a4 65b1
00000030: df66 d0b9 8851 61b8 b88d 2fba 6d85 1a3d
00000040: a08c 8db5 f25c fd3b af01 c23b 642a 28a9
00000050: 0879 b4ba 5c3f ebbc 1ec4 f7ae 59b3 05b2
00000060: fda5 72ba a883 dcb0 3ede 67b9 fd3b 2fb8
00000070: 959e 4436 4aec 69bc 2f46 9ab8 0b62 53bd
00000080: 745c 6bb6 7d84 c6b3 8bda a4bb a003 c2b5
00000090: f17b fa3a e030 7cb8 7c3b cba8 448e 5dbb
000000a0: fdc8 0dbc 2444 c9b6 cadb 12bc e638 133d
000000b0: d2a0 07b5 c774 d6bb cae2 acb4 7426 9134
000000c0: 199e 1fbb eee8 28af 3d71 4ab6 e1c9 0fb4
000000d0: 49b4 a5ba 938c b2b3 74e6 41b6 37bb 72bc
000000e0: 42f1 fd34 b75a 1eba 2f13 1bbc ac12 95bc
000000f0: 0386 bcaf 2909 07bd fc8b 87b7 2b5f 833c
00000100: 3586 0cbb 3719 45ab a69d 462a 60b2 06ab
00000110: 3f3b 2cbc 58ca 3432 7875 d6bb faca 813c
00000120: 7625 403d 1ddf 90b6 2cd7 b03c eacb fc29
00000130: 74aa 0aba 3ffb 402c 2079 e2b3 7c3d 7db9
00000140: a4fe 79b1 4c04 0cbc a6aa 6daf 6578 4cba
00000150: 0d24 c33b 593e d8bb 5c01 5ebc 8a81 a8b2
00000160: a4c7 b2ba 2ef5 7cbd 390b 3d3c 1ce3 07bc
00000170: ad1c edba 5d92 08b6 f7fa 7faa ffd7 59b9
00000180: 9fd4 0cba 64ee 4d3d a97f 473d 2e97 52bb
00000190: ac26 71ba 47b6 0431 4b96 69bc e3ff 5e37
000001a0: e84e 853d aa41 3eba ef5c d03b b73f c93d
000001b0: d934 f53c eae6 2abc 7396 30ba 142c d1bc
000001c0: ca1c 91b7 2c72 4c3b 2d92 80af 0a68 e7bb
000001d0: 485f 76b9 4910 f6b8 e77f 13b7 f370 10b7
000001e0: 858c ec3b ac48 d429 5016 93b9 79f5 1cbc
000001f0: 1999 50ba 8a8c c1bb 9b6d 9eaf 0110 e8bc
00000200: 7d51 a6b9 e81c 26ba 626e e6ba 8ceb 272e
00000210: 2b6f 29bc 1fa3 52b3 23c1 05a6 6648 93a9
00000220: e17a dcb5 c9c7 0db2 b405 f3bc 830c 003d
00000230: d6ce 35ba f50d 56b1 aeff 76b7 337b 07bc
00000240: 8c30 24ba e73c 04b4 f140 9a3c 21cc 3eb8
00000250: 6b69 0b35 2cf9 75bd 1257 a5bb 9cd1 01bb
00000260: bfb2 3fb7 d11a b93a d7c2 062e 1c45 43bb
00000270: 1c5e 28af 560e 37b7 0335 1a3d ad43 8bb4
00000280: 329b 96b7 07d3 fcbb e663 8bb7 018d 8736
00000290: af78 85ba 6806 63bc be7e 49bb 6013 26b6
000002a0: cc3a d2ad e6a1 b6b3 449c afb7 dba6 ceb4
000002b0: 7ab8 a2b6 c260 0cbd fc5b d727 e9d2 75b8
000002c0: 9e4e bfbc 3679 ed2e 3274 a0b7 7e92 10b2
000002d0: b410 f6b6 1519 42b8 0f82 1bbc 5370 9ebc
000002e0: 39bc 71bc 4121 32bd 4342 eaba 491a 85b5
000002f0: 3b08 dfbc c00d efb6 d068 ddbc bebf bfb1
00000300: 15ec 533d 0488 1d3c 21d5 b4bc bf73 c5b5
00000310: 7db7 4db6 277f 8035 0bad 023a 7dd2 0636
00000320: 8f9f 19bd f4ee 3bb2 0056 11b4 5a0f d632
00000330: 8ddc 0eb8 4365 9db9 e223 2dae 02c7 9cb4
00000340: 95d4 8139 ffa2 c9b7 6854 f8bc 608f 8dbc
00000350: ea96 9abc b619 c8a7 8797 6738 843d a13c
00000360: 480e 4bb7 e74b cfbb 9c67 8cbc c802 69bc
00000370: 8061 3ab2 7a7a 8cbc 572a a13d da8c a7bb
00000380: 91fe 89ba dc54 3dbc 6428 cd31 1328 783d
00000390: b95a 54ae 39ff 8b2e 278f efbc a0a1 0bb5
000003a0: 916a 56b8 89b6 513c 3fd9 dab6 8977 882e
000003b0: 1d68 05b4 6532 5ba7 f582 a1a4 b23b cfbb
000003c0: 9988 86bc 6f8e c43a 8552 babb 22f8 cbbc
000003d0: b077 093a f28e 80ba 22a6 88b7 8716 81a7
000003e0: 1703 9fb3 6701 0523 951b b4ae f9af adb2
000003f0: 5eea f4bc d31e 36b7 6ea6 9ab9 09ac 3030
0.013708902 -0.004386152 -1.912721e-10 -0.00031903223 -0.0002885446 2.5823851e-10 -0.0006093044 -0.007672034
5.032841e-08 -0.010039229 3.712949e-08 -3.341737e-09 -0.00039749497 -5.3720112e-05 -0.0006696838 0.0377249
-1.0546246e-06 0.007732027 0.005920611 -3.734026e-14 -0.001376898 -0.028716736 -1.1267097e-10 -7.782398e-09
-0.00092563016 -1.6044526e-09 -0.00022112668 -4.177912e-05 2.9298583e-06 -0.014277527 -7.356365e-05 -0.051607173
-3.5071544e-06 -9.244193e-08 -0.005030935 -1.4455181e-06 0.0019110424 -6.0127e-05 -2.2563325e-14 -0.003380672
-0.008653876 -5.9981994e-06 -0.008963535 0.035942934 -5.0525443e-07 -0.0065446827 -3.2202507e-07 2.7036333e-07
-0.0024355708 -1.5362264e-10 -3.016626e-06 -1.3391356e-07 -0.001264223 -8.314341e-08 -2.8893382e-06 -0.014815143
4.730046e-07 -0.0006040739 -0.009465023 -0.01819738 -3.4292222e-10 -0.03296772 -1.615844e-05 0.01603659
-0.0021442298 -7.002345e-13 1.7640628e-13 -4.785391e-13 -0.010512172 1.0523387e-08 -0.006544765 0.015843857
0.046910726 -4.3175082e-06 0.021586977 1.12264215e-13 -0.0005289682 2.742431e-12 -1.05459776e-07 -0.00024150865
-3.6379015e-09 -0.008545946 -2.1615651e-10 -0.00077999226 0.0059552253 -0.0065992293 -0.013550129 -1.9616682e-08
-0.001363982 -0.06175726 0.01153832 -0.008293893 -0.0018090211 -2.0350774e-06 -2.273562e-13 -0.00020775197
-0.0005372259 0.050276175 0.04870573 -0.0032133567 -0.0009199183 1.931214e-09 -0.014257024 1.3291809e-05
0.06509191 -0.00072577095 0.006358735 0.09826606 0.029932426 -0.010431031 -0.0006736286 -0.025533713
-1.7298753e-05 0.0031195981 -2.3386929e-10 -0.007061963 -0.00023495883 -0.000117332274 -8.791662e-06 -8.609367e-06
0.0072188997 9.427298e-14 -0.0002805465 -0.00958001 -0.00079573836 -0.005906646 -2.8817912e-10 -0.028327944
-0.000317227 -0.0006336705 -0.0017580504 3.818061e-11 -0.010341446 -4.9042793e-08 -4.6405394e-16 -6.5406705e-14
-1.642704e-06 -8.252706e-09 -0.029665805 0.031261932 -0.0006935423 -3.1149032e-09 -1.4722273e-05 -0.008269119
-0.00062633376 -1.2315614e-07 0.018829795 -4.548964e-05 5.193494e-07 -0.060052082 -0.00504578 -0.0019808775
-1.1426105e-05 0.0014122372 3.0641125e-11 -0.002979583 -1.5312945e-10 -1.0910988e-05 0.037648212 -2.5940008e-07
-1.7953662e-05 -0.007715586 -1.661661e-05 4.0397285e-06 -0.0010183061 -0.013856508 -0.003074571 -2.4747205e-06
-2.3900347e-11 -8.5044846e-08 -2.0934393e-05 -3.8491893e-07 -4.849452e-06 -0.034271963 5.9774217e-15 -5.8608977e-05
-0.023352917 1.07990436e-10 -1.9127594e-05 -8.415212e-09 -7.333316e-06 -4.6276564e-05 -0.009491458 -0.01934067
-0.014754348 -0.043488745 -0.0017872531 -9.916922e-07 -0.027225604 -7.1243558e-06 -0.027027518 -5.58063e-09
0.051738817 0.009614948 -0.022074284 -1.471133e-06 -3.0654185e-06 9.573749e-07 0.0004984892 2.0090076e-06
-0.037505683 -1.0939164e-08 -1.3535464e-07 2.491986e-08 -3.4060842e-05 -0.0003002082 -3.9367516e-11 -2.9202062e-07
0.00024763183 -2.4036968e-05 -0.030313686 -0.01728028 -0.01887079 -5.5539027e-15 5.5215813e-05 0.019682653
-1.2103068e-05 -0.006326187 -0.017139249 -0.0142218545 -1.0848794e-08 -0.017148245 0.07869404 -0.0051132264
-0.0010528137 -0.011555877 5.970877e-09 0.060585093 -4.8283797e-11 6.366325e-11 -0.029243065 -5.201673e-07
-5.1120824e-05 0.012799867 -6.522197e-06 6.205798e-11 -1.2424466e-07 -3.0419674e-15 -7.004447e-17 -0.006324255
-0.016422557 0.0014996062 -0.0056861066 -0.024898592 0.000524397 -0.0009808226 -1.6289825e-05 -3.5829117e-15
-7.4045765e-08 7.210241e-18 -8.190352e-11 -2.0219874e-08 -0.029896911 -1.0855222e-05 -0.0002949717 6.4272904e-10

gcn.gc2.weight f4 [256, 64]
00000000: 0054 bf3b f450 bf3b f449 bc3b 2251 bf3b
00000010: 4745 5d3d 55af 873c 6a51 bf3b b92e 18bc
00000020: ac1e be3b af50 bf3b 4322 bf3b 4d51 bf3b
00000030: dc4f bf3b 4151 bf3b bd61 bf3b 4150 bf3b
00000040: 0952 bf3b 2353 bf3b e450 bf3b a24b bf3b
00000050: e630 393d 1751 bf3b 2351 bf3b b3cc f83c
00000060: fe5a bf3b 1c8c be3b 8a4a bf3b ac47 463c
00000070: ec58 bf3b 583c bf3b e457 bf3b c953 bf3b
00000080: 0150 bf3b 5fcc 703b 7452 bf3b adc9 c03b
00000090: 0e92 f93b cf27 15bd a653 bf3b 2351 bf3b
000000a0: 8f3b bf3b 6523 043d 524f bf3b 9f7e c7bc
000000b0: 8154 bf3b 5e23 f23c 3251 bf3b 9068 7d3c
000000c0: e764 bf3b 9f5f 3cbd 4780 423d 715e bf3b
000000d0: b14e bf3b 4851 bf3b 4d51 bf3b 1e52 bf3b
000000e0: cd42 bf3b 4651 bf3b 7d3b c03b e12d bf3b
000000f0: 2b4f bf3b 1f51 bf3b 5c5b bf3b a583 bf3b
00000100: 9e3a 373b b940 373b a17c 2a3b b13f 373b
00000110: 2681 c4bb 9ff1 41bb fc3d 373b 83d1 d4bb
00000120: eeb2 393b 473d 373b 80e7 373b 0e40 373b
00000130: fe3d 373b 823f 373b eca3 363b 9043 373b
00000140: ad3f 373b ce3c 373b 313f 373b db53 373b
00000150: 38e7 a13c c73f 373b a03f 373b d1e7 673c
00000160: 5544 373b 9b25 3e3b e552 373b 824d e43b
00000170: 6138 373b d28a 373b e341 373b 4b58 373b
00000180: b043 373b 0425 c7bc 4544 373b 27fb 2e3b
00000190: 3423 193c 6a75 40ba fa3b 373b 8a3f 373b
000001a0: 720c 383b 7cc0 673b 9649 373b eaf9 afbb
000001b0: 6e3c 373b 797f ec3b 4b3f 373b a1f5 1ebd
000001c0: 63b6 363b 8af4 c5bc 93e1 3cbd 7c36 373b
000001d0: 2e48 373b 793f 373b 043f 373b 2953 373b
000001e0: ea62 373b 5d3f 373b 41ef 393b 994a 383b
000001f0: 2e43 373b ed3f 373b 3852 373b 5e01 373b
00000200: 0c10 2e2e c92b 2e2e 6936 422e 5329 2e2e
00000210: bbc4 1e2f cef2 39ae 3727 2e2e ae24 922e
00000220: 96a1 342e 1725 2e2e f92d 322e 1627 2e2e
00000230: bd2c 2e2e 8628 2e2e f3d0 2c2e d434 2e2e
00000240: 3424 2e2e 381e 2e2e 7829 2e2e 0f64 2e2e
00000250: 70c4 042f 652a 2e2e 9928 2e2e 32b4 842e
00000260: 8e19 2e2e 35bf 302e 6c6c 2e2e 1be3 2bad
00000270: 3909 2e2e 61fb 2e2e 9f1c 2e2e 4272 2e2e
00000280: 4c35 2e2e a072 86ad 2627 2e2e 0ea0 1b2e
00000290: 39db 81ae 960f 67ae c418 2e2e c228 2e2e
000002a0: 886d 2f2e 2ad2 8dac c03d 2e2e de2c e52e
000002b0: 5b18 2e2e 5307 1aad f928 2e2e 9402 cc2d
000002c0: 754d 2d2e dabf ba2e 7e22 a5ae e4f4 2d2e
000002d0: 0b3e 2e2e 2c28 2e2e 9228 2e2e 9644 2e2e
000002e0: 62a3 2e2e 4c28 2e2e 5dac 302e 40c8 2f2e
000002f0: 1c2b 2e2e d829 2e2e a83a 2e2e c1ac 2b2e
00000300: 7b66 1939 3600 1939 9b34 2db8 57f4 1839
00000310: e440 d839 5269 5e39 f717 1939 076e c037
00000320: 9173 1239 d4ae 1a39 f0a9 1f39 75ef 1839
00000330: b7c4 1939 fcee 1839 2f74 0639 3929 1939
00000340: cbeb 1839 23da 1839 46f1 1839 a3e5 1939
00000350: fc3e f239 97fa 1839 04f0 1839 39aa a639
00000360: 32ea 1839 d519 3eb8 d36f 1a39 c33c 3bb9
00000370: 6ccb 1839 76f0 1c39 ace2 1839 5570 1b39
00000380: 8b2b 1939 0018 89b9 9eef 1839 d167 3938
00000390: 2c3e 58b9 9e4d 74b9 9e1e 1939 f906 1939
000003a0: e160 2139 6323 a138 8a8c 1939 4212 8239
000003b0: 07d2 1839 2596 b7b8 d8ef 1839 c79a b6b9
000003c0: db63 1839 f58a 2b38 f498 2fb8 9b31 1939
000003d0: afaa 1939 85ee 1839 30eb 1839 9800 1e39
000003e0: 751a 1b39 14ee 1839 7b5d 0239 c9f6 2139
000003f0: e69c 1a39 9cf4 1839 d7ab 1939 58ca 1339
0.005838871 0.005838508 0.0057461206 0.005838529 0.054021146 0.016563097 0.0058385627 -0.009288483
0.005801996 0.0058384757 0.0058329417 0.005838549 0.0058383774 0.0058385436 0.0058405087 0.0058384244
0.005838637 0.005838768 0.0058385003 0.0058378736 0.04521265 0.005838524 0.0058385297 0.030371046
0.0058397045 0.005815042 0.005837743 0.012102049 0.0058394577 0.005836051 0.005839335 0.0058388454
0.0058383946 0.0036742908 0.0058386866 0.0058834166 0.007616288 -0.036414918 0.005838829 0.0058385297
0.0058359574 0.032260317 0.005838313 -0.02435237 0.005838931 0.02955788 0.0058385367 0.015466824
0.005840886 -0.04598963 0.047485616 0.0058401157 0.005838238 0.005838547 0.005838549 0.0058386466
0.0058368207 0.005838546 0.0058664666 0.0058343266 0.005838295 0.005838528 0.0058397483 0.0058445507
0.0027958523 0.0027962162 0.0026014226 0.0027961547 -0.005996841 -0.002959348 0.002796053 -0.0064947023
0.002833541 0.0027960108 0.0028061569 0.0027961764 0.0027960534 0.0027961438 0.00278687 0.0027963854
0.0027961538 0.0027959826 0.002796125 0.0027973566 0.019763574 0.0027961598 0.0027961507 0.01415439
0.0027964313 0.0029014114 0.0027972993 0.0069672475 0.0027957188 0.0028006327 0.0027962856 0.002797621
0.002796393 -0.024309643 0.0027964276 0.0026699991 0.009346772 -0.0007341715 0.0027959333 0.0027961456
0.002808359 0.0035362532 0.0027967445 -0.0053703682 0.0027959603 0.0072173444 0.002796131 -0.03880847
0.0027879707 -0.024164457 -0.04611356 0.002795606 0.0027966606 0.0027961417 0.0027961144 0.0027973151
0.0027982541 0.0027961351 0.0028371366 0.0028120636 0.0027963626 0.0027961687 0.002797259 0.00279244
3.9577272e-11 3.960191e-11 4.415882e-11 3.9599723e-11 1.4439909e-10 -4.2279784e-11 3.959785e-11 6.645827e-11
4.107078e-11 3.9595962e-11 4.0513346e-11 3.9597735e-11 3.9602755e-11 3.959901e-11 3.9293856e-11 3.960994e-11
3.9595174e-11 3.958986e-11 3.959985e-11 3.965189e-11 1.2075119e-10 3.9600673e-11 3.9599077e-11 6.034674e-11
3.9585717e-11 4.0187593e-11 3.9659317e-11 -9.770652e-12 3.957121e-11 3.978629e-11 3.958844e-11 3.96645e-11
3.9610357e-11 -1.528494e-11 3.959779e-11 3.5385077e-11 -5.9051826e-11 -5.2537162e-11 3.9585016e-11 3.959922e-11
3.9887676e-11 -4.030794e-12 3.9617865e-11 1.04216843e-10 3.958465e-11 -8.755513e-12 3.959941e-11 2.319326e-11
3.940444e-11 8.4923804e-11 -7.509458e-11 3.9553152e-11 3.9618125e-11 3.95987e-11 3.9599053e-11 3.9623936e-11
3.9708133e-11 3.959881e-11 4.0170856e-11 3.996825e-11 3.960131e-11 3.9600184e-11 3.9615117e-11 3.9034335e-11
0.00014629394 0.00014591296 -4.1295407e-05 0.00014586873 0.00041247078 0.00021210805 0.00014600145 2.2939419e-05
0.00013966697 0.00014751713 0.00015226728 0.00014585054 0.00014664499 0.00014584878 0.00012822518 0.00014606574
0.0001458369 0.00014577112 0.00014585731 0.00014676763 0.00046204764 0.00014589202 0.00014585262 0.00031788813
0.00014583094 -4.5323588e-05 0.00014728242 -0.00017856345 0.0001457163 0.00014966898 0.00014580291 0.00014823799
0.00014607438 -0.00026148558 0.00014585114 4.4204124e-05 -0.00020622526 -0.00023298568 0.00014602623 0.00014593815
0.00015390247 7.6836695e-05 0.00014643572 0.00024809135 0.00014574091 -8.7540866e-05 0.00014585198 -0.00034829063
0.00014533049 4.089899e-05 -4.18657e-05 0.00014609697 0.00014654802 0.00014584705 0.00014583464 0.00015068275
0.00014791808 0.0001458454 0.0001243259 0.00015446091 0.00014745034 0.00014586974 0.00014655232 0.00014094391

gcn.gc2.bias f4 [64]
00000000: 820a f2bb ba0a f2bb 5bf6 eebb c90a f2bb
00000010: bc64 b1bc 6b9c 3dbd e00a f2bb ce1d a73c
00000020: d6f8 f1bb 370a f2bb ec0d f2bb be0a f2bb
00000030: bf0a f2bb c90a f2bb 69de f1bb b80a f2bb
00000040: f80b f2bb 620c f2bb aa0a f2bb 8b09 f2bb
00000050: 349d 0abd d00a f2bb c00a f2bb 2c3c 5cbc
00000060: 6309 f2bb d150 eebb 6209 f2bb eae8 f8bb
00000070: aa0a f2bb 3d06 f2bb 440a f2bb 1d05 f2bb
00000080: 9f0a f2bb c173 dd3d 020b f2bb 3662 efbb
00000090: c72a 1cbc c663 4cbc 450b f2bb d20a f2bb
000000a0: 81ff f1bb 52ae 5fbd 630a f2bb ece7 a03d
000000b0: 160b f2bb bacb 3ebd be0a f2bb 515f 36bd
000000c0: 92e8 f1bb a731 083e a36e 6ebd 1908 f2bb
000000d0: 300b f2bb c80a f2bb be0a f2bb a0fe f1bb
000000e0: 6c0a f2bb c80a f2bb 272e f2bb f419 f2bb
000000f0: 6a0a f2bb c20a f2bb 9008 f2bb 75d6 f1bb
-0.0073865065 -0.0073865326 -0.0072925515 -0.0073865396 -0.02165448 -0.04629175 -0.0073865503 0.020399954
-0.0073844 -0.0073864716 -0.0073869135 -0.0073865345 -0.007386535 -0.0073865396 -0.0073812497 -0.0073865317
-0.0073866807 -0.00738673 -0.007386525 -0.0073863915 -0.033841327 -0.007386543 -0.0073865354 -0.0134420805
-0.007386373 -0.0072728177 -0.0073863724 -0.007596125 -0.007386525 -0.0073859976 -0.0073864777 -0.0073858635
-0.00738652 0.10813094 -0.007386566 -0.007305409 -0.009531683 -0.01247496 -0.0073865973 -0.007386544
-0.007385195 -0.054609604 -0.007386492 0.078567356 -0.0073865755 -0.046581008 -0.0073865345 -0.044524495
-0.007382461 0.13300191 -0.05821098 -0.007386219 -0.0073865876 -0.007386539 -0.0073865345 -0.00738509
-0.0073864963 -0.007386539 -0.0073907557 -0.0073883478 -0.0073864954 -0.0073865363 -0.0073862746 -0.0073803016

gcn.ln2.weight f4 [64]
00000000: caa4 84b8 52b6 a4a9 2e49 71b8 33aa 5533
00000010: 4a4e 963e 831a ef3e dba3 b2b3 ffc6 b23d
00000020: edc2 1db8 3b68 5d1b 093c 12b8 3c01 c3a1
00000030: f681 7f28 9b55 c9b0 f510 05b8 35db 9f36
00000040: 6f9f 66b7 96ba ac37 cd0c 3fb7 6654 5920
00000050: 3055 993e 666b 2ab4 c004 1b35 6090 b83e
00000060: 0147 6238 bae6 8db8 8898 88b4 a65b 633c
00000070: a4f9 88b8 e5bd 0e1c a2e5 1ab7 090e bd38
00000080: 6f6e f734 af77 eb3e 9f0b 2db2 dd34 5fb8
00000090: 2b5a c83b f039 f83e 20da 19b8 1062 95b4
000000a0: 3e69 2caf e3ff 0f3f 6ad7 c0b7 fee7 a83e
000000b0: 0b38 0bb9 1462 eb3e 719a 4fab 9c85 153f
000000c0: b000 15b8 cd2c f53e 5270 173f a8a0 1eb8
000000d0: e683 641e 19a6 1836 4847 f335 07db b238
000000e0: d39c 412c c6b6 fab7 4b30 9d38 e218 6038
000000f0: c2d8 83b7 d472 03b3 0fdc 9938 3756 9b38
-6.324945e-05 -7.3146906e-14 -5.752703e-05 4.9747722e-08 0.29356605 0.46699914 -8.318576e-08 0.08729362
-3.7613256e-05 1.831437e-22 -3.4865025e-05 -1.3214041e-18 1.4183524e-14 -1.4649005e-09 -3.1725463e-05 4.7640883e-06
-1.3746189e-05 2.0590884e-05 -1.1387468e-05 1.840854e-19 0.29947805 -1.5871555e-07 5.774891e-07 0.3604765
5.3948726e-05 -6.76638e-05 -2.5442955e-07 0.013876831 -6.5314845e-05 4.722929e-22 -9.232581e-06 9.0148365e-05
4.6087686e-07 0.4598975 -1.0072568e-08 -5.3216576e-05 0.0061142645 0.48481703 -3.6681187e-05 -2.7824763e-07
-1.5680698e-10 0.5624983 -2.2988494e-05 0.32989496 -0.0001327695 0.45973265 -7.3755504e-13 0.58406997
-3.552501e-05 0.47885743 0.5915576 -3.781976e-05 1.20974955e-20 2.2746447e-06 1.8125656e-06 8.5284984e-05
2.7514005e-12 -2.9887433e-05 7.495339e-05 5.3428936e-05 -1.5717353e-05 -3.060525e-08 7.3365976e-05 7.407035e-05

gcn.ln2.bias f4 [64]
00000000: 1a7f 073c 8811 21ac dd1c 1a3d 6cb1 2db7
00000010: fb51 043e 928d 043e 65ec 0438 2ebd bc3d
00000020: 317f 4c3d 6a7d 779d f669 3f3d 10e9 b1a4
00000030: 27de 08ac 706c 03b5 78a0 803d 6548 eeba
00000040: 5e54 43ba ab7f b8b8 15d3 8bba 6d03 34a3
00000050: 62ff d53d 7877 ddb9 fe24 1bb9 db14 be3d
00000060: 47ba 963d cd71 913d d00a 09b8 0d53 433d
00000070: 78d7 303e dc15 9a9c 7773 a33d 9bce 853d
00000080: 535d c7b9 913d 193e e6fd 3ab8 8f0e 183e
00000090: c522 923d 36e4 d73d ef12 953b c1ca eab6
000000a0: 3b09 8131 6666 da3d 70f1 0abb 4148 d43e
000000b0: a79e 3c3e 1aef 363e 1a81 a4ad 8471 ae3d
000000c0: 433e 8f3d 0c01 973e 25a5 df3d 06f7 8f3d
000000d0: 177d eea1 48f6 9fba fd04 55ba fa24 4c3d
000000e0: 6ac5 24b0 13b0 e5b9 5459 643d c595 0b3d
000000f0: b17d 083d 6b52 0db5 f7b1 4b3e 1f02 483d
0.0082700495 -2.2889208e-12 0.037625182 -1.0352913e-05 0.12921898 0.1294463 3.1691412e-05 0.09215771
0.049925987 -3.2755015e-21 0.04673191 -7.715634e-17 -1.9450082e-12 -4.89591e-07 0.06280607 -0.0018179534
-0.00074512314 -8.797584e-05 -0.0010667766 -9.758545e-18 0.10449101 -0.00042241416 -0.00014795733 0.092813216
0.07359748 0.07101784 -3.2673415e-05 0.047686625 0.17269695 -1.0196516e-21 0.079810075 0.065335475
-0.0003802577 0.14964892 -4.4582317e-05 0.14849304 0.07135538 0.10541575 0.004549376 -6.997347e-06
3.7554435e-09 0.10664062 -0.0021201037 0.41461375 0.18419896 0.17864648 -1.8701974e-11 0.08517745
0.06994297 0.29492986 0.10920171 0.07029538 -1.6160618e-18 -0.0012204135 -0.00081260485 0.04983995
-5.9943395e-10 -0.0004380947 0.055749252 0.03407838 0.033322994 -5.2646527e-07 0.19892107 0.048830148

attention.fc1.weight f4 [16, 64]
00000000: 8ef5 5838 d7e3 0229 dfe1 8037 19dc 6fb2
00000010: 5d6f 963c fce8 6d3d 2cc9 7034 3c16 e8bb
00000020: aacc e937 bcde 2d9a d009 b637 3e77 2c21
00000030: c410 b228 03a4 7030 45e7 8338 d8e9 7fb7
00000040: f699 3137 efb4 1036 99ab bab6 027e 0120
00000050: 111e a03c b2f5 84b5 63c2 ccb5 47f9 da3c
00000060: c598 cd38 8bb8 d138 42ff 6a33 4a53 f438
00000070: bf1c df39 f055 c799 0461 fe38 87e6 9038
00000080: 3f93 27b6 b28d ccbd 0d37 e0b3 9863 b739
00000090: 8ffd 1b39 968d 423d faf6 e237 af08 9333
000000a0: 270a 952e 6b58 b63d f0ad 6f36 077d a3bd
000000b0: 29f9 f339 e680 6e3d d785 452a bfaf 9c3d
000000c0: 3057 b438 2e62 0abe 1bc0 ac3d f90e b938
000000d0: d5cc 081f 2c00 1db7 4d1e 74b4 6ad9 d637
000000e0: 205e e0aa 74f9 ea35 46d8 2538 5b3e 9b37
000000f0: 8e4e 7337 3803 2431 2f37 053a f09f c237
00000100: 88e5 5ab8 e02c 04a9 a5e2 76b7 4c6b 6032
00000110: 3745 96bc c4a6 6cbd 9dee 6bb4 42db e83b
00000120: 129c d3b7 a7ac 271a 9af4 a3b7 c334 30a1
00000130: 939b aba8 a136 7db0 014d 74b8 e1eb 7937
00000140: 202c 31b7 bdf7 05b6 a720 b536 972a 09a0
00000150: 9bf6 9fbc 7401 7335 ff97 c835 97ee dabc
00000160: 8a85 c0b8 7626 c5b8 1bbf 79b3 1ae3 e9b8
00000170: 622f d5b9 c03b cc19 b648 efb8 354e 86b8
00000180: 5d24 2236 2734 cd3d 5fc0 da33 740f afb9
00000190: d18e 14b9 f617 42bd b789 e4b7 0e26 95b3
000001a0: c149 94ae 352a b6bd 4fcc 73b6 20f1 a33d
000001b0: c047 e9b9 3137 6ebd b102 47aa 280f 9cbd
000001c0: 9564 a8b8 d9ca 0a3e 7f61 acbd d4fd acb8
000001d0: 9386 0c9f c422 1937 06c5 1534 0107 c1b7
000001e0: b1ac 0a2b 95c8 ebb5 9710 17b8 db97 9ab7
000001f0: b9de 6cb7 bbd0 27b1 c0d5 feb9 bc88 aeb7
00000200: b99c 4d38 54de f928 1d5d 7e37 485b cdb1
00000210: 1868 943c 5f4b 693d 5021 7d34 31cf e5bb
00000220: 0165 c237 8045 319a 7be5 9637 27da 3f21
00000230: 1b09 d728 c986 c230 6c71 6638 f631 74b7
00000240: 0fed 2637 881d 6436 0ac4 c2b6 921a a11f
00000250: b240 9e3c c64e 9eb5 2e39 c5b5 fc8f d83c
00000260: 1115 b938 ef6a be38 a77d 2133 5699 ea38
00000270: 9d27 d339 3293 b499 d5d7 e738 5f85 7e38
00000280: 177f 25b6 96b0 cabd d107 fdb3 e23a ad39
00000290: 292b 1239 b05b 3f3d decb d037 af1a 8c33
000002a0: 8446 9c2e 13fc b33d bac3 c835 66d1 a1bd
000002b0: 0f33 e739 4136 6b3d 5382 3a2a 8ce9 9a3d
000002c0: 1ffb a038 f905 09be ebdd a93d bd89 a538
000002d0: 197c cc1e 2613 12b7 980e 5db5 3bdd b037
000002e0: 244b b1a9 2921 0a36 93b8 0b38 c7f0 a437
000002f0: 1baf 7937 bf4a 3c31 db9d fc39 59f9 9f37
00000300: 4f25 3fb8 6f80 e9a8 908d 86b7 4049 2cb1
00000310: a03f 92bc 3f0b 66bd 099a 85b4 dde9 e23b
00000320: 60ad a7b7 22ab 371a b073 84b7 85c3 4ca1
00000330: 60ce f6a8 423a 01b1 04a3 4db8 5d91 6737
00000340: c818 1ab7 51e5 a7b6 dfc2 cb36 6f81 299f
00000350: 2b41 9cbc 7453 c035 8730 be35 4de2 d4bc
00000360: 9aca a9b8 b02f b0b8 98f7 8db2 be1e e5b8
00000370: c9e8 cab9 ede7 9119 624b d7b8 1306 64b8
00000380: e82f 2336 2f53 c83d 8e0f 0e34 a437 a6b9
00000390: 6834 0bb9 e606 3cbd 70e9 bbb7 14bd 83b3
000003a0: e027 9fae d790 b1bd c4ed 6135 01bd 9f3d
000003b0: 8456 deb9 1cb1 67bd 5eb4 2eaa 88fa 98bd
000003c0: ea87 92b8 b64c 073e fae6 a6bd ceff 96b8
000003d0: a497 629e 4008 0737 f057 be35 a36c 97b7
000003e0: 5d89 9caa c18b 1eb6 0539 f2b7 adea b5b7
000003f0: b833 87b7 92fe 50b1 2d1a f3b9 0101 8ab7
5.1727104e-05 2.9063418e-14 1.5363968e-05 -1.3961675e-08 0.018363649 0.05808352 2.2424928e-07 -0.0070827287
2.7871069e-05 -3.5955485e-23 2.170066e-05 5.843368e-19 1.976924e-14 8.7544566e-10 6.289644e-05 -1.525363e-05
1.0585869e-05 2.156299e-06 -5.5632086e-06 1.0968418e-19 0.019545587 -9.906273e-07 -1.5255758e-06 0.026730193
9.803617e-05 0.000100002704 5.4714526e-08 0.000116503405 0.00042555292 -2.0610828e-23 0.000121297344 6.909394e-05
-2.4970648e-06 -0.09987964 -1.04408265e-07 0.00034978683 0.0001487641 0.047498308 2.7056307e-05 6.8468005e-08
6.777539e-11 0.08903583 3.571502e-06 -0.079828314 0.0004653421 0.058228396 1.754355e-13 0.076507084
8.599309e-05 -0.13514015 0.08435079 8.824276e-05 2.8968553e-20 -9.357969e-06 -2.2735294e-07 2.561203e-05
-3.9855706e-13 1.7506959e-06 3.9540486e-05 1.8506476e-05 1.4502219e-05 2.386697e-09 0.00050817704 2.3201079e-05
-5.2189018e-05 -2.934881e-14 -1.4715512e-05 1.30629125e-08 -0.018343551 -0.057776228 -2.1972888e-07 0.0071062157
-2.5225836e-05 3.4674258e-23 -1.9545016e-05 -5.970095e-19 -1.9052283e-14 -9.2118496e-10 -5.824585e-05 1.4896476e-05
-1.0560296e-05 -1.9962747e-06 5.3980216e-06 -1.1618443e-19 -0.01952677 9.052667e-07 1.4945398e-06 -0.026725097
-9.180147e-05 -9.400856e-05 -5.814864e-08 -0.00011152607 -0.0004066183 2.1117238e-23 -0.000114099515 -6.404185e-05
2.4161047e-06 0.10019713 1.0186408e-07 -0.00033390115 -0.00014167583 -0.047386132 -2.7243846e-05 -6.945275e-08
-6.743362e-11 -0.08894769 -3.6328745e-06 0.08004975 -0.0004449468 -0.058158103 -1.7675684e-13 -0.07620078
-8.029599e-05 0.13553943 -0.084170334 -8.248878e-05 -2.975747e-20 9.127605e-06 1.3948383e-07 -2.3010654e-05
4.9267106e-13 -1.7567241e-06 -3.6016656e-05 -1.8428944e-05 -1.4118553e-05 -2.4420348e-09 -0.0004860591 -2.0806088e-05
4.9021768e-05 2.7740973e-14 1.5161259e-05 -5.9766627e-09 0.018116042 0.056956645 2.357458e-07 -0.0070132245
2.3173636e-05 -3.6658884e-23 1.7988254e-05 6.500204e-19 2.3873744e-14 1.4153666e-09 5.4941906e-05 -1.4555166e-05
9.9495655e-06 3.3991837e-06 -5.8044725e-06 6.823011e-20 0.019317959 -1.1794843e-06 -1.4694285e-06 0.026435845
8.825411e-05 9.079824e-05 3.7600014e-08 0.000111865505 0.0004027457 -1.8671015e-23 0.0001105514 6.068253e-05
-2.4660892e-06 -0.09896962 -1.17826524e-07 0.00033041002 0.00013939723 0.0467183 2.4890465e-05 6.524112e-08
7.106585e-11 0.08788314 1.4958125e-06 -0.07901268 0.00044097795 0.057424787 1.6565334e-13 0.07564077
7.6761695e-05 -0.13381185 0.082942806 7.893469e-05 2.1650666e-20 -8.7067365e-06 -8.235015e-07 2.1083853e-05
-7.873414e-14 2.0582904e-06 3.331208e-05 1.9662444e-05 1.48823265e-05 2.7400089e-09 0.00048182797 1.9070389e-05
-4.5572695e-05 -2.5923896e-14 -1.6039965e-05 -2.5070932e-09 -0.017852604 -0.05616307 -2.4885256e-07 0.0069248513
-1.9988685e-05 3.7981753e-23 -1.5789497e-05 -6.9376656e-19 -2.7400987e-14 -1.8805086e-09 -4.902763e-05 1.3802518e-05
-9.184885e-06 -5.003684e-06 6.0725574e-06 -3.5894207e-20 -0.019074043 1.4329403e-06 1.4170226e-06 -0.025986815
-8.0962855e-05 -8.4012165e-05 -1.6527153e-08 -0.00010925297 -0.0003870188 1.5086323e-23 -0.0001026604 -5.4365093e-05
2.4316778e-06 0.09781491 1.323044e-07 -0.00031703443 -0.00013275596 -0.045905016 -2.240084e-05 -6.134556e-08
-7.237566e-11 -0.08670204 8.4165026e-07 0.077997215 -0.000424076 -0.05656539 -1.5516882e-13 -0.0746966
-6.9871385e-05 0.13212857 -0.08149524 -7.200205e-05 -1.1995699e-20 8.048548e-06 1.4181696e-06 -1.805119e-05
-2.7806482e-13 -2.3625182e-06 -2.88752e-05 -2.168616e-05 -1.6117338e-05 -3.041269e-09 -0.00046368074 -1.645135e-05

attention.fc1.bias f4 [16]
00000000: 77a8 073e 2a46 0abe 6b72 073e b0e8 05be
00000010: 87ae 03be 3c81 0abe f228 073e b2c0 05be
00000020: 8464 07be 0944 063e 244f 06be 6563 083e
00000030: fe58 063e 949c 08be ab9f 053e c02b 09be
0.13247858 -0.13503328 0.1322724 -0.13077044 -0.12859546 -0.13525862 0.13199213 -0.13061789
-0.13221937 0.13111891 -0.13116127 0.13319166 0.13119885 -0.1334098 0.1304919 -0.13395596

attention.fc2.weight f4 [4, 16]
00000000: dc31 143e 6017 14be c86b 113e 8168 0fbe
00000010: cf92 08be e680 18be 5d9f 0e3e ba4b 0ebe
00000020: fed9 10be 431a 0d3e e22a 10be aea4 173e
00000030: c6d7 0d3e d9fd 13be 7944 0d3e a1c5 10be
00000040: f536 143e d232 14be cfc8 113e 762a 0fbe
00000050: 1499 08be 125a 18be a22d 0e3e 7d38 0ebe
00000060: 084a 10be 0a38 0d3e ae83 10be 5b45 173e
00000070: 1060 0e3e b830 14be 13cb 0c3e 005e 11be
00000080: bc2d 133e e8a0 13be 63df 113e 643b 0fbe
00000090: 09ba 08be fd27 18be 7bb1 0e3e a22a 0ebe
000000a0: 8581 10be 909d 0d3e b846 10be 916d 173e
000000b0: ea47 0e3e b753 14be 9cee 0c3e 1535 11be
000000c0: 850c 143e 2315 14be 86bb 113e 982c 0fbe
000000d0: 89aa 08be cb7b 18be 7914 0e3e 46f0 0dbe
000000e0: 07ee 10be 1e7c 0d3e ea88 10be 2a1c 173e
000000f0: 1340 0e3e 7fa1 13be d40e 0d3e cd80 11be
0.14472145 -0.14462042 0.14201272 -0.14004709 -0.13337253 -0.14892921 0.1392798 -0.13896075
-0.14145657 0.1377955 -0.14078858 0.14808914 0.13851842 -0.14452304 0.13795651 -0.1413789
0.1447409 -0.14472511 0.14236759 -0.13981041 -0.13339645 -0.14878109 0.13884595 -0.13888736
-0.1409074 0.13790908 -0.14112732 0.14772551 0.13903832 -0.1447171 0.13749342 -0.14196014
0.14372915 -0.1441685 0.14245372 -0.139875 -0.13352217 -0.14859004 0.13934891 -0.1388345
-0.14111908 0.13829637 -0.14089477 0.1478789 0.1389462 -0.1448506 0.13762897 -0.14180405
0.14457901 -0.14461188 0.14231691 -0.13981855 -0.13346304 -0.14890973 0.13874997 -0.13861188
-0.141533 0.13816878 -0.14114729 0.14756837 0.1389163 -0.14417075 0.13775188 -0.1420929

attention.fc2.bias f4 [4]
00000000: 4229 043e bccd 123e 7341 6e3c 220b 8ebc
0.12906364 0.14336294 0.0145419715 -0.017339293

fc_final.weight f4 [1, 64]
00000000: 6ef6 c039 0d6b 14ac 3c57 aebb 3a84 1cb6
00000010: 450e 21be 4be2 5f3e 6860 c635 0cfa b1bd
00000020: b90f 49bb 5b2d 001b 4b90 29bb 92c4 4ca4
00000030: b8a1 4fa5 bee2 9cb4 b132 13bc 0345 9bb9
00000040: 32d6 6039 b412 3737 a9aa 43b8 4907 9c20
00000050: 3d90 2b3e f2ab 9336 3934 3eb8 002b 2e3e
00000060: 4332 283b 4941 cdbc 182c 3635 0149 353d
00000070: 265f c43a d4fe 3f1b 6af9 e63a 70ed 973b
00000080: 1010 82b6 2c95 37be ec6d 8d35 bd14 abbc
00000090: ab22 103d 4843 a8be dee3 4139 a935 51b6
000000a0: 5c87 452f 9136 923e 9e90 5cb7 1336 d93c
000000b0: 7369 263a ea35 41be 6e25 99ad e3c9 c33e
000000c0: 7dc8 0fbc 6b40 b4bd c799 ccbe 0488 21bb
000000d0: 269e 5b1f 2392 3db9 b12b 86b7 4713 7d3b
000000e0: a1e3 dfac 6b39 bfb9 0b3a 123c ecd6 0f3b
000000f0: 0189 a339 87fb 02b5 7202 6b3b da5b ef3b
0.00036804698 -2.109149e-12 -0.0053204577 -2.3322777e-06 -0.157281 0.21863668 1.4780207e-06 -0.08690271
-0.0030679537 1.0602567e-22 -0.0025873359 -4.440195e-17 -1.800918e-16 -2.922224e-07 -0.008984254 -0.00029615322
0.00021442099 1.0912005e-05 -4.6650563e-05 2.643225e-19 0.16754241 4.4009585e-06 -4.5348166e-05 0.1700859
0.0025664724 -0.025055544 6.786445e-07 0.044259075 0.001498197 1.5881489e-22 0.0017621939 0.004636459
-3.876172e-06 -0.17927998 1.053731e-06 -0.020883912 0.035189312 -0.32863832 0.00018490801 -3.1174661e-06
1.7965135e-10 0.28557256 -1.3146693e-05 0.026515042 0.00063481106 -0.18868223 -1.7410708e-11 0.38239965
-0.0087758275 -0.08801349 -0.39961073 -0.0024647722 4.650587e-20 -0.00018078885 -1.599439e-05 0.0038616227
-6.363313e-12 -0.0003647314 0.008924971 0.0021948172 0.0003119186 -4.8794794e-07 0.0035859612 0.0073046507
