Model_OGT/Fold5_best_model.pkl (torch_old, 197263 bytes, 13 tensors)

gcn.gc1.weight f4 [118, 256]
000000 40 d9 67 bc 11 b6 de ba 80 88 e3 3b 13 c5 1b bc
       -0.0141509175 -0.0016991516 0.0069437623 -0.009507435
000010 3a 59 cd ba 99 20 f2 ba 38 57 07 bb dd f2 b0 ba
       -0.001566685 -0.001847285 -0.0020651352 -0.0013500113
000020 21 8e e0 ba 44 c8 b6 ba 59 46 de ba b9 d8 fd ba
       -0.0017132201 -0.0013945182 -0.0016958221 -0.0019366957
000030 e5 4c 80 3a c1 0a ec ba bd f6 f1 3b 6f a6 af ba
       0.0009788541 -0.0018008576 0.00738415 -0.0013401042
000040 df 2f bb ba e7 d7 cb ba be f8 0a bb ce d1 c2 3c
       -0.0014281234 -0.0015552015 -0.002120539 0.023781683
000050 58 02 e7 ba b9 e0 4a 3d ae 52 b3 3c ec f1 d1 ba
       -0.00176246 0.04953072 0.02189001 -0.0016017533
000060 f5 bd 87 ba d7 f1 cf ba ed 45 26 bc 38 ce a3 ba
       -0.0010356294 -0.001586492 -0.010148508 -0.0012497371
000070 c8 1f c5 ba b2 a9 db ba 2f 11 3a 3c 53 fb ec ba
       -0.0015039379 -0.0016758947 0.011356636 -0.0018080272
000080 0d a8 c8 3a 06 40 62 3d 2c 96 ca ba f6 a0 bd ba
       0.0015308872 0.05523684 -0.0015456132 -0.0014467526
000090 47 7f f0 bb db 6e 91 bb 6a 47 c7 bb 73 8c bf ba
       -0.0073393914 -0.004438264 -0.0060815113 -0.0014614001
0000a0 f6 d3 cf ba 34 44 cc ba 05 dc 4d bb b8 a7 d5 ba
       -0.0015856016 -0.0015584291 -0.003141166 -0.0016300594
0000b0 ac 12 bd ba 5a aa be ba 82 e7 88 3b eb 0b f3 3a
       -0.001442512 -0.0014546618 0.0041779885 0.001854298
0000c0 ab 1c bf ba 25 d1 dc ba 6d c8 d5 ba 94 89 c0 ba
       -0.0014580687 -0.0016846998 -0.0016310342 -0.0014689439
0000d0 06 17 bf ba c9 5d a6 3b 4a ad 20 bc ff bb 05 bb
       -0.0014579005 0.005077098 -0.00980694 -0.0020406244
0000e0 26 02 c8 3a ab c0 df ba 6b 44 c1 ba 48 90 94 ba
       0.0015259429 -0.0017070969 -0.0014745122 -0.0011334503
0000f0 e9 b5 e9 ba 45 2b c0 ba 17 39 c7 ba 04 ca ce ba
       -0.0017830703 -0.0014661333 -0.0015199509 -0.0015776758
000100 7d 21 b4 bb c6 14 d2 ba 2f e3 00 bb 93 f5 bc ba
       -0.005497156 -0.001602792 -0.0019666662 -0.0014416449
000110 0a 17 d6 ba a8 6a ec ba 51 d8 cd ba 7d 52 84 39
       -0.001633377 -0.0018037157 -0.0015704726 0.0002523846
000120 da 52 ba ba 3b a2 d6 ba 36 38 f6 3b 74 46 52 3b
       -0.0014215366 -0.0016375253 0.007514025 0.003208545
000130 48 39 cc ba a0 9c c6 ba 9f a2 c6 ba 7b 09 c1 ba
       -0.0015581036 -0.0015152879 -0.0015154666 -0.0014727557
000140 73 2b 82 ba 48 a3 cb ba 49 f5 c6 b9 e5 e9 c2 ba
       -0.0009931162 -0.0015536333 -0.00037948255 -0.0014870731
000150 40 c9 e7 ba f3 91 b2 ba 75 b6 09 bd 6e 7f 76 3b
       -0.0017683879 -0.0013623819 -0.03362127 0.0037612575
000160 a0 87 ea ba 52 14 f0 ba 2f bd 49 bc d0 77 cc ba
       -0.0017893203 -0.0018316603 -0.012313171 -0.0015599672
000170 fb 32 fc ba 41 d2 c1 ba 9a 38 f2 ba a9 df 0c 3c
       -0.0019241268 -0.0014787392 -0.0018480003 0.008598247
000180 48 5b bc bb 45 a6 0d bb 48 9d be ba 57 b4 00 bb
       -0.0057481863 -0.0021613997 -0.0014542723 -0.001963874
000190 82 76 cd ba e7 e3 d2 ba 22 9c 11 ba 81 37 cc ba
       -0.0015675577 -0.0016089649 -0.00055545766 -0.0015580506
0001a0 7e cd b6 ba 3d 0d d1 ba fa 2c 7e 3c 7a 3f cf ba
       -0.001394674 -0.001594938 0.015513653 -0.0015811764
0001b0 d8 9a a4 ba e4 15 c8 3b f0 55 ce ba df 21 d7 ba
       -0.0012558354 0.006106125 -0.0015742164 -0.0016413293
0001c0 91 7b c8 ba e5 3f da ba d6 f9 db ba 5a 01 cd ba
       -0.0015295615 -0.0016651122 -0.0016782831 -0.0015640662
0001d0 23 4e d4 ba 1b b7 cc ba 0d 9b b9 bc e7 ff 2a bd
       -0.0016197603 -0.0015618535 -0.022656942 -0.041747954
0001e0 c9 5b e6 3b f4 c8 c7 ba a7 b3 13 ba f5 53 aa 3b
       0.0070299846 -0.0015242384 -0.0005634375 0.0051979967
0001f0 eb 74 6b bb 81 b8 bf ba f1 15 d6 ba be 54 bd ba
       -0.0035927843 -0.001462713 -0.0016333443 -0.0014444811
000200 12 dc c4 ba 87 23 ca ba 03 ba a8 bb 76 11 b6 ba
       -0.0015019199 -0.0015421965 -0.0051491274 -0.0013890702
000210 b9 3d dc ba 3d 29 ba ba 6f ec f2 ba 1b f5 eb 3b
       -0.0016803063 -0.0014202964 -0.0018533597 0.0072008497
000220 55 47 67 bc ca bd db 39 f5 92 da ba f2 9a b2 ba
       -0.014116128 0.0004191234 -0.0016675877 -0.00136265
000230 26 bf df 3c 46 fd b6 ba 5d cc fa ba 01 5b ca ba
       0.027312826 -0.0013960979 -0.0019134391 -0.0015438498
000240 3a 81 25 bb 0a 17 07 bb 60 6f c1 ba 43 4e d9 ba
       -0.0025254027 -0.0020613098 -0.0014757924 -0.001657911
000250 84 94 77 39 71 56 9b 39 42 33 9a b9 04 62 0c ba
       0.00023611082 0.00029628308 -0.0002941136 -0.00053551816
000260 73 f1 43 3d fb 66 f1 39 c1 d5 de 3b 4a e6 98 bc
       0.047837686 0.00046043828 0.006800384 -0.018664498
000270 b8 d4 c5 ba 53 90 de bb b4 06 dc ba 74 96 d8 ba
       -0.0015093302 -0.006792107 -0.0016786666 -0.0016524331
000280 af 0a d5 ba c3 ff cf ba 74 ae 32 bb c1 6b bb ba
       -0.0016253794 -0.001586907 -0.0027264627 -0.0014299081
000290 fd b3 23 ba 6d 8b dd ba ae b8 c8 ba e0 dd b0 ba
       -0.0006244777 -0.0016902514 -0.0015313828 -0.0013493858
0002a0 e5 16 d2 ba cb fa e9 ba fe 35 c1 ba 34 99 c6 ba
       -0.0016028552 -0.0017851231 -0.0014740822 -0.0015151859
0002b0 27 2b 0e bc db a9 d2 ba 97 03 bf ba d6 3c 72 bc
       -0.0086772805 -0.0016072349 -0.0014573213 -0.014785012
0002c0 0a 1a 6e bc ba 37 d6 ba cb 1b c0 ba d0 86 95 3d
       -0.014532575 -0.0016343512 -0.001465672 0.07301104
0002d0 95 59 c8 ba f6 81 cb ba fe c5 c3 ba 3c 1e 14 bc
       -0.0015285487 -0.0015526402 -0.0014936326 -0.009040412
0002e0 62 f3 e3 ba 70 71 5e bc ae 1c ab ba ab 7b 8f 3d
       -0.0017391259 -0.01357685 -0.0013054812 0.0700601
0002f0 40 ba d0 ba da 6e 4b bc e6 01 fa ba 9a 6c e2 ba
       -0.0015924647 -0.012416566 -0.0019074052 -0.0017274797
000300 7a 3a dd ba da f8 d1 ba 9f d9 ca ba e4 f8 c5 ba
       -0.0016878389 -0.0016019598 -0.0015476233 -0.0015104082
000310 ff ba d8 ba 79 ae ea bc f4 a4 be ba 32 f5 e6 ba
       -0.0016535221 -0.028647648 -0.001454501 -0.0017620681
000320 ba 69 b8 ba e8 f5 be ba 3f bd da ba f4 e6 07 3b
       -0.0014069595 -0.0014569135 -0.001668848 0.0020737024
000330 f8 63 c9 ba db de 7f 3c c3 c2 dc ba 75 a5 ae ba
       -0.0015364876 0.015617098 -0.0016842711 -0.0013324457
000340 d3 18 d7 bb 88 83 04 3d 93 d0 e0 ba 6f 82 bb ba
       -0.0065642386 0.032352 -0.0017152004 -0.001430584
000350 a7 2c d8 ba 96 64 f2 ba 27 fb ba ba 21 4d d4 bc
       -0.00164928 -0.0018493112 -0.0014265523 -0.025915684
000360 ef b5 9f ba a2 3f c2 ba 29 e1 b1 ba 7f 9d 01 bb
       -0.0012184958 -0.001481999 -0.0013571131 -0.0019777713
000370 9c 09 84 3c 14 0f e8 ba 13 9a e0 ba f3 57 bc ba
       0.016117863 -0.0017704689 -0.0017135761 -0.0014369473
000380 f9 21 8c bc 35 a0 07 bb 9e 3b bc ba 10 91 d6 ba
       -0.017106043 -0.0020694856 -0.0014361029 -0.0016370136
000390 c9 0b be ba 5f a7 19 3c 7c 06 d3 ba 41 2d f1 ba
       -0.0014499362 0.009378283 -0.0016099955 -0.0018400328
0003a0 c4 2a d6 ba 70 78 08 bb b2 0d 83 bc c4 f6 6c 3c
       -0.001633965 -0.002082374 -0.015997741 0.01446313
0003b0 3d 0b 58 bb e7 f9 05 bb 77 28 de ba 13 49 bd ba
       -0.0032965683 -0.0020443143 -0.0016949315 -0.0014441333
0003c0 48 e4 e2 ba 94 4f c4 ba 32 c9 c3 ba 90 8f bf ba
       -0.0017310465 -0.0014977329 -0.001493728 -0.0014614929
0003d0 dd e5 be ba d5 71 9b ba db 99 06 bb df de fc ba
       -0.0014564354 -0.0011859486 -0.0020538482 -0.0019292495
0003e0 0b 43 29 bb 0f a7 b9 ba 52 65 a3 36 a8 28 0e bb
       -0.0025827314 -0.0014164167 4.869574e-06 -0.0021691713
0003f0 6d 3d a2 ba b2 b3 28 bb 6f d0 c6 ba a5 f2 c5 ba
       -0.0012377925 -0.0025741872 -0.0015168319 -0.0015102221

gcn.gc1.bias f4 [256]
000000 51 a8 9f 3c 9b af 07 3d 35 13 09 3d 61 c0 04 3d
       0.01948944 0.033126455 0.033465583 0.03241003
000010 8c 61 f4 3c f2 41 16 3d 64 5b 2a 3d 1e 0a c6 3c
       0.02983167 0.036683984 0.041591063 0.024174746
000020 7e 04 09 3d 4d 7b cf 3c 90 4b 07 3d b9 56 1e 3d
       0.03345155 0.02532735 0.033031046 0.038656924
000030 d2 86 69 3c f7 b1 11 3d 12 77 19 3d 83 ff c3 3c
       0.014253335 0.03557011 0.03746707 0.023925548
000040 95 d3 d6 3c 02 07 f2 3c 51 b0 2f 3d ee 9d 71 3d
       0.026223937 0.029544357 0.042892758 0.058988504
000050 1c d8 0d 3d 6c 3c d8 bb 2f 90 f0 3c 28 65 fb 3c
       0.034629926 -0.0065989997 0.029365627 0.030687883
000060 a1 dc 85 3c 91 80 f8 3c 28 fe 3f bd b4 fd b0 3c
       0.016340556 0.030334743 -0.04687324 0.02160535
000070 a4 55 e7 3c c3 4e 05 3d 8c d8 9e 3d 37 61 12 3d
       0.028239079 0.032545816 0.07756147 0.035737243
000080 49 8b 4b bc ff 31 5d bc d1 be ef 3c 5d 10 da 3c
       -0.012423345 -0.0135006895 0.029265793 0.02661913
000090 93 1d f6 3c 88 3f ed 3a e9 a8 09 bd f8 dc dd 3c
       0.030043399 0.0018100599 -0.03360835 0.027082905
0000a0 79 50 fa 3c 90 89 f1 3c 0d 66 ab 3c 0a ac 00 3d
       0.03055595 0.02948454 0.020922685 0.03141407
0000b0 77 00 da 3c df a9 de 3c 94 c1 33 3d 4d 49 ba bc
       0.02661155 0.02718061 0.043885782 -0.02274003
0000c0 27 4a dd 3c 67 3d 06 3d 4a c8 00 3d f8 6d df 3c
       0.027012898 0.0327734 0.03144101 0.027274117
0000d0 70 99 dd 3c f5 71 9b 3c a3 ab 75 bc 52 d3 27 3d
       0.027050704 0.018975237 -0.014994535 0.040973015
0000e0 f5 e4 2d 3c 70 f4 06 3d c2 04 e1 3c cf fa 96 3c
       0.01061367 0.032947958 0.027468089 0.018430142
0000f0 88 f6 0f 3d cd c9 de 3c 80 42 ec 3c 51 24 f2 3c
       0.03514722 0.027195835 0.028840303 0.029558333
000100 c8 20 19 3d 84 4f fc 3c f4 2f c0 3c b2 bd d9 3c
       0.03738478 0.030799635 0.023460366 0.026579712
000110 d2 99 00 3d d2 ea 11 3d 39 f6 f4 3c 06 18 21 bc
       0.031396694 0.035624333 0.029902564 -0.009832388
000120 03 6b d5 3c 17 68 01 3d 3d a1 82 3d 83 0d cd 3c
       0.026052004 0.03159341 0.0637841 0.025030857
000130 8e 78 f2 3c 29 5f e9 3c c4 5d e9 3c ed 81 e0 3c
       0.0295985 0.028487759 0.028487094 0.027405703
000140 7f a4 cf 3c 69 6a f1 3c 30 06 49 3d 67 44 e1 3c
       0.025346993 0.029469686 0.049078166 0.027498437
000150 87 84 0e 3d 35 ef c8 3c 9a 04 4d 37 73 00 39 3d
       0.034794357 0.024528125 1.2220024e-05 0.045166444
000160 ba 97 10 3d 85 d8 14 3d 01 d9 d5 bc 96 c3 f2 3c
       0.035300948 0.0363393 -0.026104452 0.029634278
000170 fd 91 1d 3d 71 a5 e1 3c 8e 65 16 3d a6 0f 58 bb
       0.038469303 0.027544709 0.036717944 -0.0032968312
000180 f6 57 af 3c 0e e8 32 3d 36 53 dc 3c 97 55 21 3d
       0.021404248 0.043678336 0.026895147 0.039388265
000190 ea 3f f4 3c 82 eb fc 3c 0c bd 0f 3c 4c 60 f2 3c
       0.029815633 0.030874018 0.0087731 0.029586934
0001a0 8e 6e cf 3c cb 00 fa 3c ac 46 7a bc 1a 2e f7 3c
       0.025321271 0.030517956 -0.015275639 0.03017335
0001b0 c0 43 c5 3c 2d c2 96 3a a8 bf f5 3c 8e d1 01 3d
       0.024080157 0.0011501961 0.029998615 0.031693988
0001c0 15 39 ec 3c 3e 1e 03 3d 3b bb 05 3d 88 b4 f3 3c
       0.028835813 0.032011263 0.03264926 0.02974917
0001d0 7d 23 ff 3c 29 37 f3 3c b1 23 01 bd cc b5 45 3c
       0.031144852 0.029689388 -0.03152818 0.0120672695
0001e0 c7 57 95 3d e4 63 eb 3c f9 81 98 3c 56 e1 18 3d
       0.07292133 0.028734155 0.018616663 0.037324272
0001f0 62 b7 40 3d a9 8c 79 3d 4d ea 00 3d ca b3 da 3c
       0.047049887 0.06092516 0.031473447 0.026697058
000200 d7 74 e6 3c 85 42 ef 3c 86 73 b8 3c 17 5d ce 3c
       0.028131885 0.029206524 0.022516023 0.025190873
000210 e5 26 04 3d 56 17 d5 3c f1 77 16 3d fe 31 1b 3b
       0.032263655 0.026012104 0.03673548 0.002368092
000220 e4 da 52 3c 28 8f 14 3d 37 6b 04 3d 6e 93 c8 3c
       0.01286957 0.036269337 0.03232881 0.024484362
000230 df a7 c3 3c ae d8 cf 3c 49 5f 1c 3d 0c 57 ef 3c
       0.023883758 0.025371876 0.03817681 0.029216312
000240 5f dc 63 3d 6b 00 2a 3d f2 85 e1 3c ea 7a 03 3d
       0.055630084 0.041504305 0.02752969 0.03209964
000250 f7 92 6c bb 1f 4c ac 3b 8a 9d ca 3b 10 9c 3a 3d
       -0.003609834 0.005258098 0.006183331 0.04555899
000260 5f ab b0 b9 df 31 88 3d ce dc 56 3d 28 64 13 bd
       -0.00033697017 0.06650137 0.05245667 -0.03598419
000270 ec 0d e8 3c 97 8a 17 3d ec 8a 05 3d 78 f3 02 3d
       0.028326951 0.036997404 0.03260319 0.03197047
000280 8e 23 00 3d ca 30 f8 3c 06 49 3c bd 34 1f d7 3c
       0.031283908 0.030296702 -0.045968078 0.026259996
000290 1e 36 e5 3b b9 ae 06 3d 16 f5 ec 3c ad d7 c5 3c
       0.0069949767 0.032881472 0.02892546 0.024150694
0002a0 53 ab fb 3c 39 4c 10 3d 8c 7b e0 3c b4 89 e9 3c
       0.030721342 0.03522894 0.027402662 0.028508045
0002b0 47 d1 42 3d 40 b3 fc 3c 6f 6c de 3c 1d c9 05 3d
       0.047562864 0.030847192 0.027151315 0.0326625
0002c0 33 46 f9 3c e9 67 02 3d ad de de 3c 97 cc 2f bd
       0.030428981 0.031837378 0.02720579 -0.04291972
0002d0 18 25 ec 3c 9c 80 f0 3c 54 f2 e4 3c de 5e 0c 3d
       0.028826281 0.0293582 0.027947582 0.03427016
0002e0 7d 32 0b 3d 8e b3 2d 3d 27 98 bc 3c 03 04 06 bd
       0.033983696 0.042407565 0.02302177 -0.03271867
0002f0 6b 7e f9 3c c9 4d fc 3b ee 72 1b 3d 18 27 0b 3d
       0.030455789 0.0076997024 0.037951402 0.03397283
000300 e2 79 06 3d 45 7e fb 3c 4f 93 f0 3c d1 52 e8 3c
       0.03283108 0.030699858 0.029367117 0.028359802
000310 96 6c 03 3d cc e4 20 3c 8d 90 dc 3c 66 de 0d 3d
       0.032085977 0.009820174 0.026924396 0.034635924
000320 4b 44 d2 3c c1 ed dc 3c ab 4a 04 3d a8 6b 0a bd
       0.02566733 0.026968839 0.03229777 -0.033794075
000330 ea e3 ed 3c bc a3 7a bb 27 35 06 3d 6a f1 ff bc
       0.029039342 -0.0038244566 0.032765534 -0.031243045
000340 6f 85 42 3a 59 8c af bc 4c 7e 09 3d 7d 59 d7 3c
       0.0007420396 -0.021429228 0.03356771 0.026287789
000350 56 4f 87 3d 27 49 16 3d 21 af d6 3c 9b 9c 0b 3d
       0.06606929 0.036690857 0.026206555 0.034084897
000360 50 1d ab 3c a1 47 e2 3c a6 74 c7 3c 40 73 22 3d
       0.020888 0.027622046 0.024347614 0.039660692
000370 0c ea 13 bd 0f b2 0e 3d 28 56 09 3d 68 ba d8 3c
       -0.036111876 0.03483778 0.03352943 0.026456073
000380 25 c4 cf bc b8 91 5a 3d f4 69 d8 3c cc 55 01 3d
       -0.025362084 0.053361624 0.02641771 0.031575963
000390 9d 7c db 3c 77 3f 0f 3d 67 88 fd 3c ff 76 15 3d
       0.026792819 0.034972634 0.03094883 0.036490437
0003a0 f1 21 01 3d d0 b7 2b 3d 72 54 82 3c 8b 3b 27 bd
       0.03152651 0.041923344 0.015909407 -0.04082827
0003b0 06 e6 92 3d ba 12 26 3d c3 fa 05 3d f0 4f da 3c
       0.0717278 0.040545203 0.032709848 0.026649445
0003c0 ec c7 0a 3d fd be e5 3c 12 4e e7 3c 4e d6 dd 3c
       0.033882067 0.028045172 0.028235469 0.027079728
0003d0 81 b2 dc 3c 75 21 a3 3c 38 24 29 3d 1a bd 1d 3d
       0.026940586 0.019913414 0.041294307 0.03851042
0003e0 1d e5 4c 3d 3f 45 d4 3c 50 ac 3f 3d 43 b3 32 3d
       0.050023187 0.025911925 0.04679519 0.04362799
0003f0 ff 19 ae 3c 76 7e 61 3c 84 b3 e9 3c 3a 5d e8 3c
       0.02125263 0.013763061 0.028527983 0.028364766

gcn.ln1.weight f4 [256]
000000 00 a8 54 3e f9 63 8c 30 21 49 94 3e e4 4f f0 3d
       0.20767212 1.0214755e-09 0.28962043 0.11733988
000010 d6 04 84 aa 9a 03 c3 39 3e e4 01 b6 46 93 1b 37
       -2.3451266e-13 0.00037195982 -1.9355352e-06 9.27301e-06
000020 f1 4a 81 27 96 3f 09 35 65 15 a6 2d 12 17 ae b7
       3.5885944e-15 5.1129007e-07 1.8881516e-11 -2.075316e-05
000030 20 0c 04 3e 30 07 92 38 75 f0 b4 3e ba a5 a9 a8
       0.1289525 6.963161e-05 0.35339704 -1.8834642e-14
000040 7f db e5 2a 78 db be 37 43 d0 1f 37 73 56 7a 3e
       4.0830878e-13 2.2751963e-05 9.525628e-06 0.2444704
000050 9e c4 f6 2f 3a 50 51 3e da 5b 94 3e fa 7d 8c 2f
       4.4886844e-10 0.2044076 0.28976327 2.5555363e-10
000060 2c fc 14 3a e0 1e 0a 38 3b d8 b7 3d 54 8e b9 a6
       0.00056833285 3.293052e-05 0.089767896 -1.2875532e-15
000070 4e 47 e7 38 0e c4 01 34 9f ea 30 3e 1a 47 06 ac
       0.0001102822 1.2085385e-07 0.17277001 -1.9082015e-12
000080 88 ac ca 3d 82 49 6c 3e 9b 4e 2a 37 30 da ab 37
       0.09896189 0.23074916 1.0151091e-05 2.048639e-05
000090 88 cb 58 3e b9 35 f9 3d 7d b8 3b 3e 45 fb de 2d
       0.21171391 0.1216845 0.18332095 2.5350064e-11
0000a0 c5 5e a3 37 49 86 84 38 d1 b6 cf 3d 92 30 27 3a
       1.9475245e-05 6.319263e-05 0.10142291 0.0006377782
0000b0 c8 87 b0 37 1f 9a 60 b3 73 56 ad 3d dc 3a e0 3d
       2.1044063e-05 -5.2294236e-08 0.084637545 0.109487265
0000c0 b2 c5 a0 37 d6 67 84 38 cb 57 80 38 bf b7 38 31
       1.9165545e-05 6.3135914e-05 6.119868e-05 2.6879972e-09
0000d0 9c b5 0a 3b 52 1a c8 3d ff 09 aa 3d 0f 72 2b 38
       0.0021165377 0.09770645 0.08302688 4.0875802e-05
0000e0 06 2d 74 3e 93 be 59 35 34 e3 95 35 5c 52 86 b3
       0.238453 8.111612e-07 1.116749e-06 -6.254842e-08
0000f0 66 99 8c 35 0a 52 16 32 56 e9 55 37 e4 5e bf 37
       1.0475458e-06 8.749803e-09 1.2750117e-05 2.2813161e-05
000100 c7 7c 3c 3e 17 db 05 35 ab 0e 90 3d 65 fd 87 37
       0.18406974 4.986518e-07 0.07034048 1.621125e-05
000110 27 61 73 35 68 dc e8 34 82 77 1e 30 6b d3 b8 3d
       9.066593e-07 4.3373734e-07 5.7649896e-10 0.090247
000120 7b 91 08 33 62 09 c2 2b 0e de fe 3d 63 b3 8c 3e
       3.179728e-08 1.3787133e-12 0.12444697 0.2748061
000130 da 49 5d a9 92 47 86 30 9a 82 8b 38 2d fc 1a 32
       -4.9135914e-14 9.770125e-10 6.652363e-05 9.021318e-09
000140 2a 4f 52 3c 12 bc bf 37 a1 9b 63 3d 91 dc 75 38
       0.012836257 2.2856551e-05 0.05556834 5.861797e-05
000150 73 62 8c 28 a9 09 6c 35 4c c8 03 3e c5 20 a1 3d
       1.5585818e-14 8.793091e-07 0.12869376 0.078675784
000160 1c 3e 04 2b ab 0e f0 37 8c 37 5e 3e 36 53 7b 23
       4.6982015e-13 2.861706e-05 0.21700877 1.3624358e-17
000170 ae 3f 9c 33 ff 12 b3 32 1c 05 94 39 09 6d 33 3e
       7.275899e-08 2.0846981e-08 0.00028232567 0.17522062
000180 8b c1 70 3e 6e 29 73 b6 a1 de 1b 31 51 c7 7c 39
       0.23511331 -3.6233937e-06 2.2682018e-09 0.00024106844
000190 67 8f f4 a9 f0 01 d6 27 e1 c0 19 3a bb 44 b3 2e
       -1.0860653e-13 5.9399032e-15 0.0005865228 8.1521866e-11
0001a0 80 ac 6b 36 47 6d fe b1 8b 39 9a 3e 58 4b ca ac
       3.5118137e-06 -7.4047963e-09 0.30122027 -5.74955e-12
0001b0 a5 c5 fd 39 cb 35 b0 3d fa 10 3b 2e 42 4d bd 36
       0.00048403177 0.0860401 4.2533956e-11 5.641633e-06
0001c0 9c 59 22 2e 4b fa c5 b8 92 aa 8d 32 1f 62 0b 32
       3.6914125e-11 -9.440313e-05 1.6492127e-08 8.113175e-09
0001d0 b6 f0 28 2e e1 d4 35 2a 1b 61 03 3e 28 f9 9a 3e
       3.841257e-11 1.6149887e-13 0.12830012 0.30268216
0001e0 73 15 1e 3e dc c5 ce 2e cf 4b 8a 3c 12 0d 24 3e
       0.1543787 9.402942e-11 0.016881851 0.16020611
0001f0 d7 3b 08 3d a9 45 9a 3c 96 1e 96 32 c3 47 ad ba
       0.033260193 0.018832045 1.7476207e-08 -0.0013220239
000200 5a 8b 36 aa 0e bc 3f bb 3a 08 d1 3d d8 b0 af 26
       -1.6213195e-13 -0.0029256376 0.10206647 1.2190998e-15
000210 50 47 12 ba a0 18 2f 2d 97 10 0c 32 d7 39 15 3e
       -0.00055800844 9.953066e-12 8.152845e-09 0.14572845
000220 34 1b 35 3e fb fe 73 3d 4f 7d 26 29 36 8f 07 25
       0.17686158 0.05956934 3.6968092e-14 1.1757905e-16
000230 e4 65 90 3e 01 65 35 26 3b e3 13 2f 69 4b 8d a8
       0.28202736 6.2933876e-16 1.34503e-10 -1.5686849e-14
000240 8e 36 f4 3d 7a ad 0c b7 62 36 a6 37 48 9f 9d 2d
       0.11924468 -8.385041e-06 1.9814066e-05 1.7919569e-11
000250 db 4a ff 3c 5d d8 69 3c 55 c6 e2 3b d4 83 29 3d
       0.031163624 0.014272776 0.0069206157 0.041385487
000260 5e f0 8d 3e f0 00 52 3d 96 66 37 3e d7 4c 8d 3e
       0.27722448 0.051270425 0.17910227 0.27597687
000270 19 76 92 25 a0 81 c8 3d 73 c2 0c 32 34 bd ae 37
       2.540699e-16 0.09790349 8.193285e-09 2.0830521e-05
000280 ea 22 98 29 b2 fd b4 36 fa fe 03 3e 50 32 ec 2e
       6.7562126e-14 5.393952e-06 0.12890235 1.0740975e-10
000290 eb 74 10 3e 77 9a 9a 28 d4 ca 10 36 78 74 b6 2c
       0.141071 1.7164423e-14 2.1575734e-06 5.1856817e-12
0002a0 35 f9 91 a8 64 00 8e 34 23 f4 3a 2d 6e 21 9a 38
       -1.620631e-14 2.6449845e-07 1.0627085e-11 7.349519e-05
0002b0 c1 b9 27 3e aa 83 1e 32 be 63 25 38 06 80 2f 3e
       0.16379453 9.226747e-09 3.9431958e-05 0.17138681
0002c0 87 a4 ae 3e 99 e5 5e ba 28 0a fa 32 fd 6e 82 3e
       0.341099 -0.00085028406 2.9108449e-08 0.25475302
0002d0 90 29 c4 39 28 f6 09 37 da 62 82 38 5a 38 52 3e
       0.00037415 8.223149e-06 6.2172956e-05 0.20529309
0002e0 a8 35 c3 38 c7 c0 57 3e 73 8e 77 b2 1c a8 85 3e
       9.308319e-05 0.21069632 -1.44096814e-08 0.2610482
0002f0 a9 de 9f 24 8d 3d 34 3e 72 bd 41 2e ea 03 e4 39
       6.933246e-17 0.17601605 4.405138e-11 0.00043490465
000300 db 86 43 39 4f df 22 32 4b dd cc 32 3d 71 0a 2c
       0.00018646887 9.480416e-09 2.3849358e-08 1.967384e-12
000310 5f 6b 18 34 84 aa 73 3e d4 cb 12 35 53 15 06 2c
       1.4195165e-07 0.23795515 5.468585e-07 1.9054383e-12
000320 d4 ce d4 37 b7 18 17 34 2a ed 14 27 e2 b1 8c 3d
       2.5368681e-05 1.4071962e-07 2.0667693e-15 0.06869866
000330 29 f4 0a 3a df 5c b2 3d 55 a1 bc 30 df a2 4b 3e
       0.0005300665 0.0870912 1.3724654e-09 0.19886349
000340 74 9e 54 3e 0d af 57 3e 42 5c db 38 12 1f 8e 38
       0.2076357 0.2106287 0.00010459918 6.776875e-05
000350 52 be 16 3d 0d 04 50 2f da 45 f1 34 9d a4 ae 3e
       0.036802597 1.8918929e-10 4.4940572e-07 0.34109965
000360 de f5 27 b4 e5 56 d9 a8 cc db 4c 38 29 65 e3 37
       -1.5642533e-07 -2.4129524e-14 4.8842092e-05 2.7107615e-05
000370 77 d1 6a 3e 7f 24 a1 39 29 3f 84 39 00 0b 46 37
       0.22931467 0.00030735505 0.0002522406 1.1804281e-05
000380 38 f0 08 3e 8a 31 35 3c 0e e9 d3 35 d8 09 3d 36
       0.13372886 0.011059174 1.5788553e-06 2.8168924e-06
000390 f8 ba 41 2c 14 5b 21 3e 1b 8b 96 36 18 9e 32 39
       2.7530738e-12 0.157574 4.4865424e-06 0.00017034297
0003a0 db ba c4 26 ca 68 16 b2 9c 99 5c 3e ce 42 7a 3e
       1.3650879e-15 -8.754975e-09 0.21542972 0.24439546
0003b0 5e b0 29 3d 81 4c 2f 34 89 04 d0 37 6f 88 4b 25
       0.041427962 1.6325977e-07 2.4797644e-05 1.7653669e-16
0003c0 26 e2 9b 25 a2 22 3b 27 99 5d f5 37 fd e1 ac 38
       2.7041458e-16 2.5970238e-15 2.924986e-05 8.243693e-05
0003d0 a8 8a ab 32 9b 74 b4 a8 ac d0 81 33 f4 0e b1 35
       1.9970074e-08 -2.0034584e-14 6.044988e-08 1.319188e-06
0003e0 95 7c c6 3c 63 22 f7 21 a0 da 57 3d 98 51 01 3a
       0.024229327 1.6746473e-18 0.05269873 0.0004933118
0003f0 7f 4f 82 a5 39 87 69 3d 15 d0 50 34 80 25 90 2b
       -2.2605274e-16 0.057013724 1.944721e-07 1.0242224e-12

gcn.ln1.bias f4 [256]
000000 a0 27 c6 bc 09 b5 1b b2 42 38 ab bc 3a 80 ce bc
       -0.024188817 -9.06335e-09 -0.02090085 -0.025207628
000010 1a 8a ac a9 f7 df 8d ba ec a9 d3 35 40 e9 f1 b6
       -7.662291e-14 -0.0010824193 1.5770179e-06 -7.2095136e-06
000020 55 35 7c 26 f9 11 21 b5 fb c1 5f 2d 8b de bc b7
       8.750234e-16 -6.000333e-07 1.2719155e-11 -2.2514976e-05
000030 fc 12 8f bb 74 8f 78 b8 b2 73 73 bc 14 78 96 29
       -0.004366277 -5.926141e-05 -0.014859127 6.6821684e-14
000040 05 35 cc aa 58 15 5d b8 e5 61 d4 b6 a3 b4 82 3c
       -3.627447e-13 -5.2710384e-05 -6.3294888e-06 0.015955275
000050 e7 61 fc ae bb e5 87 bc 9e ec 37 bd 82 aa 5e 2d
       -1.1477024e-10 -0.016589036 -0.04490339 1.2657099e-11
000060 6d 56 73 ba f6 c2 6e b8 1d fa 64 bc 29 d0 6f a7
       -0.0009282593 -5.6925193e-05 -0.013975647 -3.3280757e-15
000070 c5 e7 9c b9 ba 78 0e 34 19 0e a4 3c d0 b0 cb ad
       -0.0002992732 1.32687e-07 0.020026254 -2.3156949e-11
000080 ef 29 b9 3b d5 97 21 3c 1e 50 06 37 ee 07 17 b9
       0.005650751 0.00986286 8.005676e-06 -0.00014403436
000090 90 9e 62 bb f5 97 8e bc 33 07 a2 3b c7 0c 81 ad
       -0.0034579374 -0.017406443 0.004944706 -1.4671276e-11
0000a0 d1 c0 a7 b8 52 39 eb b9 d4 b6 3f bd 85 05 81 3a
       -7.9990954e-05 -0.000448654 -0.046805218 0.0009843564
0000b0 77 b1 fb b8 53 7d f9 b4 20 d9 1e 3d bc 87 f9 bb
       -0.00012001668 -4.647105e-07 0.038781285 -0.0076150578
0000c0 fc a0 62 b8 6c 91 3d b8 37 03 9c b9 02 b3 2a 31
       -5.4032527e-05 -4.5196546e-05 -0.00029757034 2.484001e-09
0000d0 ab 70 33 bb e7 5f 75 bc 99 e6 5a ba 1f e0 04 b8
       -0.0027380388 -0.014976478 -0.0008350402 -3.167998e-05
0000e0 46 26 f9 bb 0f 23 8b b6 f2 aa 43 34 d4 64 cc b2
       -0.0076034395 -4.146604e-06 1.822298e-07 -2.3794577e-08
0000f0 f2 85 e0 b5 cb a7 f4 b1 08 88 78 b8 82 b9 d7 b8
       -1.6728284e-06 -7.1204105e-09 -5.9254497e-05 -0.000102865524
000100 38 05 ba bb 01 86 38 b3 85 76 cd bc 07 5f 2d b8
       -0.0056768917 -4.2962714e-08 -0.025080929 -4.1334915e-05
000110 bc d5 e9 b5 a4 9e 43 b4 1d 9c 11 b0 91 12 8b bc
       -1.7422058e-06 -1.8218503e-07 -5.2972543e-10 -0.016976627
000120 73 56 9a b2 d4 61 f2 ac 4f fd 44 3c 21 8f ea bc
       -1.7967272e-08 -6.888915e-12 0.012023284 -0.028632702
000130 be 61 6c a8 1f 2e 01 b0 8f 50 94 b7 aa 9c c8 b1
       -1.3121826e-14 -4.699547e-10 -1.7680488e-05 -5.8385767e-09
000140 86 60 0b bc cb 06 b7 b6 52 79 4a bc 98 0f c8 bb
       -0.0085069 -5.454616e-06 -0.012358027 -0.0061053745
000150 70 fd 1f a9 75 18 0f b6 84 4c b3 bc 8a 8c 07 3c
       -3.5524914e-14 -2.1322896e-06 -0.021887071 0.008273253
000160 05 e7 c8 2a 8f b1 b7 b7 b2 4e 8e bb 74 98 3c 23
       3.568744e-13 -2.1897982e-05 -0.0043428773 1.0223784e-17
000170 3b 2b 1a b3 f3 b1 dd b2 15 16 1d ba 53 49 ea bc
       -3.5895237e-08 -2.5808708e-08 -0.0005992365 -0.028599417
000180 10 f2 19 bd f4 71 93 b6 ff b5 1d 31 e7 8c 7a ba
       -0.037584364 -4.3942073e-06 2.294996e-09 -0.0009557739
000190 86 b8 dc a8 a3 46 40 a7 7a 1c 48 39 96 c6 41 ae
       -2.450493e-14 -2.6683645e-15 0.00019084095 -4.40595e-11
0001a0 4a bd 16 b9 79 bf 20 b1 57 2a 6a bb 4e e8 f0 ab
       -0.0001437563 -2.3391904e-09 -0.0035730803 -1.7117503e-12
0001b0 a7 7f 2b bc f8 a4 19 bb d2 ec 92 ae fe 19 f5 b5
       -0.010467446 -0.0023444276 -6.681379e-11 -1.8261487e-06
0001c0 b3 d0 11 2f 8c 2c 63 37 5e 3d 00 32 cf cb a8 b1
       1.3261818e-10 1.3540626e-05 7.464534e-09 -4.912614e-09
0001d0 f7 23 0a ad a3 dc 37 29 57 a5 b3 bc 74 70 92 bc
       -7.852378e-12 4.0825535e-14 -0.021929426 -0.017875887
0001e0 3b cc 55 3b 8a db f7 ad 41 6b 10 ba 2a ec b7 bc
       0.0032622952 -2.8178144e-11 -0.0005509146 -0.022451479
0001f0 b8 07 1d bd 1c 13 9d 3d b8 7e 16 b1 68 0c f3 ba
       -0.03833744 0.076696604 -2.1899904e-09 -0.0018543126
000200 97 c8 4b a9 5f 00 1e bb 80 35 fb bc 32 be d2 29
       -4.524904e-14 -0.0024109108 -0.03066516 9.358867e-14
000210 72 cd 0d 39 dc 2d ee ac 2c 2d 09 b0 69 5a 16 3c
       0.00013523342 -6.7694583e-12 -4.99045e-10 0.009176829
000220 90 6d d2 bc c7 c4 8b 3c d0 e2 91 a6 19 48 a5 a5
       -0.02568701 0.017061604 -1.0122874e-15 -2.8671793e-16
000230 2a d9 14 bc 15 dc 82 a6 81 7a b3 af c8 fd 70 a7
       -0.009084979 -9.080215e-16 -3.2646955e-10 -3.3444266e-15
000240 a7 2a 2f bb 2e 1d 3d 34 d4 70 bb b8 dd 68 22 2d
       -0.0026728304 1.7612612e-07 -8.937871e-05 9.231918e-12
000250 60 52 25 bb 86 d4 cc 3b af d9 a5 3b b0 58 76 bc
       -0.0025226101 0.0062509207 0.0050613503 -0.015035793
000260 a0 d6 46 38 fe 20 41 3c d1 ad 1b bc 11 42 d3 3b
       4.7406764e-05 0.011787651 -0.00950189 0.0064470847
000270 44 46 a9 a4 b5 3e e8 bc 94 6f 03 b1 d9 c4 0b b7
       -7.34111e-17 -0.028350214 -1.9126434e-09 -8.330878e-06
000280 51 82 5b 29 3b 94 a7 b6 92 fd 9a 3b b7 dc ef ad
       4.87408e-14 -4.994244e-06 0.004729935 -2.7269171e-11
000290 87 a7 68 bc 9c d7 a7 27 a3 8d 4e b6 4d 7f ff ac
       -0.014200098 4.6585575e-15 -3.0778835e-06 -7.261669e-12
0002a0 44 b7 e0 26 74 a7 61 b3 95 de 3a ac 27 9d 2f b9
       1.5592797e-15 -5.2539193e-08 -2.6555748e-12 -0.00016747844
0002b0 cb b0 a5 bc d6 ed 32 b3 a0 3b 23 b9 f7 d5 e8 bc
       -0.020225903 -4.1660165e-08 -0.00015567103 -0.028422339
0002c0 e7 61 ab bc 1a a1 f3 b9 ec 86 4a b2 9a 01 f9 3a
       -0.020920707 -0.00046468602 -1.1788625e-08 0.001899767
0002d0 70 6f a8 38 e1 75 3b 35 9b 97 0b b9 36 7e 98 3c
       8.031621e-05 6.9834465e-07 -0.0001331255 0.01861487
0002e0 64 be 02 b9 bf 16 ad bc 41 d7 6e b3 67 5e 82 bc
       -0.00012468692 -0.02112901 -5.5609465e-08 -0.015914155
0002f0 18 3c 01 a5 f8 e8 1c bd f2 5f 81 2c 9d ed 9a 3b
       -1.1209327e-16 -0.038308114 3.6770526e-12 0.0047280327
000300 c7 d5 0b 37 71 7c cf 31 74 5a 8b b2 e7 1d bf 29
       8.3348195e-06 6.0386403e-09 -1.6222863e-08 8.487291e-14
000310 7d f7 f5 b3 69 1b cc bc 96 7e 67 b5 67 48 8e 2b
       -1.14537194e-07 -0.024915414 -8.623841e-07 1.0109803e-12
000320 05 fd 95 b9 c4 ce 19 b3 15 60 74 a6 80 c4 30 3c
       -0.0002860801 -3.581114e-08 -8.478472e-16 0.010789037
000330 91 64 14 3a fb e9 b9 3c 15 2b 0b b1 c1 1f 1a 3c
       0.00056607375 0.022694578 -2.0251651e-09 0.009406985
000340 6a 6d 86 bc 67 53 df 3c 4b 9b 69 3a 12 b1 f5 b6
       -0.016409595 0.027261449 0.0008911385 -7.3221827e-06
000350 2d 93 b2 3a fa dc 97 ae 40 46 15 b5 93 b6 16 bd
       0.0013624184 -6.905938e-11 -5.560905e-07 -0.03679521
000360 3e 33 42 b6 65 0e 51 2b 8a 19 f3 b8 ec d0 9e b8
       -2.893808e-06 7.427169e-13 -0.000115919 -7.572942e-05
000370 bf 08 62 3b 70 2c 7b ba ef e3 0f ba b2 a6 9c b8
       0.0034490076 -0.0009581512 -0.0005488982 -7.469709e-05
000380 56 0d b6 bb b5 3f d7 3c a6 3e c7 b6 8c 53 a7 b5
       -0.005555789 0.026275495 -5.9379554e-06 -1.2466785e-06
000390 af b1 26 aa 0a 67 08 bd 6e 26 ec b6 25 dc 22 b9
       -1.4805408e-13 -0.03330139 -7.037822e-06 -0.00015531534
0003a0 e0 8e 04 a8 bd 86 3c b6 a3 8b 21 3b 91 6f 84 bc
       -7.358453e-15 -2.809261e-06 0.002464988 -0.01616648
0003b0 f3 5d 2b 3b 9f 7a 13 35 9b 65 c7 b8 96 fd 06 a5
       0.0026148527 5.4940205e-07 -9.507985e-05 -1.1708566e-16
0003c0 ef 60 57 a6 54 d6 f7 25 bb e9 62 b9 3c 8d a0 b6
       -7.472448e-16 4.2992904e-16 -0.00021640111 -4.7848134e-06
0003d0 0e 45 07 b3 0a 73 3d a8 1e ea b7 b2 92 fe 39 b5
       -3.149494e-08 -1.0516553e-14 -2.1410468e-08 -6.928832e-07
0003e0 21 2d a2 bc d1 9d 01 a2 e5 73 b3 bc c1 34 87 ba
       -0.01979691 -1.7566307e-18 -0.021905849 -0.0010315405
0003f0 6a 3b dd a5 33 19 41 bd 30 9b b5 34 f2 3a 23 29
       -3.837765e-16 -0.047143172 3.382679e-07 3.6244398e-14

gcn.gc2.weight f4 [256, 64]
000000 9e f8 23 3a 0a e9 3e ba 4b e8 23 3a de f8 23 3a
       0.00062550034 -0.00072826503 0.0006252571 0.00062550406
000010 d9 d1 74 bd 46 dd 23 3a 7b fd 23 3a 9c f6 23 3a
       -0.05977044 0.0006250929 0.0006255728 0.0006254704
000020 c4 22 28 3a 92 f8 23 3a 7c f8 23 3a ab 8d a7 39
       0.0006413872 0.00062549964 0.00062549836 0.00031958273
000030 42 0e 24 3a 79 17 24 3a eb 19 21 3a 95 e4 23 3a
       0.0006258228 0.0006259601 0.00061455247 0.0006252018
000040 fd 02 24 3a fa f8 23 3a f8 ee 23 3a 52 1d 24 3a
       0.0006256549 0.0006255057 0.00062535657 0.00062604726
000050 11 ed 97 bc f2 0e ba bb d8 e4 22 3a 35 f8 23 3a
       -0.01854566 -0.005678051 0.000621391 0.0006254942
000060 fd fa 23 3a e2 91 23 3a b4 f6 23 3a 24 f2 1f 3a
       0.0006255357 0.0006239695 0.0006254718 0.00061014504
000070 65 f9 23 3a 70 88 c9 bc 67 f8 23 3a bd fd 23 3a
       0.0006255119 -0.024601191 0.00062549714 0.00062557665
000080 16 1c 05 3a 07 f7 23 3a 1b f7 23 3a e5 23 1f 3a
       0.00050777325 0.00062547665 0.0006254778 0.00060707174
000090 f2 fe 18 3d 2d d1 23 3a fd 09 87 3a 01 f8 23 3a
       0.03735251 0.0006249126 0.0010302659 0.0006254912
0000a0 e1 f6 23 3a e7 f8 23 3a 4e f5 23 3a 1a d9 32 3c
       0.00062547444 0.0006255046 0.000625451 0.010916019
0000b0 58 e4 23 3a 0c 64 22 3a 2f 25 10 3d 97 f8 23 3a
       0.00062519824 0.0006194718 0.03519171 0.00062549993
0000c0 9b f8 23 3a f6 10 24 3a 46 f9 23 3a 64 37 74 b9
       0.00062550016 0.0006258631 0.0006255101 -0.00023290288
0000d0 ec 01 4b bb 8e 18 50 3a 1d fa 23 3a 9b a1 23 3a
       -0.0030976487 0.0007938229 0.00062552263 0.00062420376
0000e0 b3 2b a2 3a 02 00 24 3a 70 2c 23 3a 4e c4 23 3a
       0.0012372643 0.00062561047 0.0006224578 0.0006247208
0000f0 bd 20 06 3b 63 58 20 3a 0b ed 22 3a e4 c6 23 3a
       0.002046629 0.0006116686 0.0006215132 0.00062475936
000100 a7 94 ba 31 05 90 97 b1 40 44 ba 31 4e 98 ba 31
       5.4302123e-09 -4.4110515e-09 5.4210716e-09 5.4306275e-09
000110 50 c1 9b 31 9d 2c ba 31 7e 8f ba 31 17 98 ba 31
       4.533071e-09 5.4183844e-09 5.4296256e-09 5.430603e-09
000120 03 7e b7 31 df 8e ba 31 e5 96 ba 31 68 4d 8c 31
       5.340327e-09 5.429555e-09 5.430467e-09 4.0833363e-09
000130 70 4c ba 31 a4 8a ba 31 d5 fb b6 31 8b 5c ba 31
       5.4220024e-09 5.429074e-09 5.325527e-09 5.4238334e-09
000140 30 8d ba 31 d7 97 ba 31 6a 0d ba 31 52 85 b9 31
       5.4293636e-09 5.4305747e-09 5.4148375e-09 5.3993654e-09
000150 9c dd bc af 27 6e 5f b2 20 12 b8 31 d7 97 ba 31
       -3.4354464e-10 -1.3005354e-08 5.3571654e-09 5.4305747e-09
000160 f5 8d ba 31 a0 ad b9 31 f7 7c ba 31 d9 cf b3 31
       5.429451e-09 5.4039475e-09 5.4275193e-09 5.233215e-09
000170 a7 95 ba 31 c3 0a 8e b1 b9 97 ba 31 00 87 ba 31
       5.430326e-09 -4.1339674e-09 5.4305613e-09 5.42866e-09
000180 62 1f 3b 31 2c 8f ba 31 03 96 ba 31 f1 93 b2 31
       2.722992e-09 5.4295892e-09 5.430367e-09 5.197301e-09
000190 25 a5 16 b1 2e fa b9 31 a5 22 22 b2 09 92 ba 31
       -2.1921747e-09 5.4126508e-09 -9.437518e-09 5.4299147e-09
0001a0 fa 99 ba 31 e1 97 ba 31 9f 8c ba 31 47 e4 29 32
       5.4308176e-09 5.430579e-09 5.4292992e-09 9.888999e-09
0001b0 17 56 ba 31 85 78 b9 31 98 d9 8b b1 e5 97 ba 31
       5.4230997e-09 5.39791e-09 -4.07017e-09 5.430581e-09
0001c0 c1 97 ba 31 c4 89 ba 31 59 d4 b9 31 4a 00 e0 30
       5.430565e-09 5.4289746e-09 5.4083498e-09 1.6298227e-09
0001d0 33 c2 12 b2 ad 26 5f 31 f7 85 ba 31 f2 92 b9 31
       -8.542474e-09 3.2472756e-09 5.4285425e-09 5.4009144e-09
0001e0 dc ec a0 31 9e 89 ba 31 88 32 b8 31 e8 d3 b9 31
       4.6835407e-09 5.4289577e-09 5.3608495e-09 5.4082996e-09
0001f0 fe 69 af 31 0f ff b5 31 96 bf b8 31 70 20 ba 31
       5.1052202e-09 5.29679e-09 5.3768856e-09 5.417e-09
000200 d0 5e 0d 3b 89 05 0a 3b 76 29 0d 3b e9 5e 0d 3b
       0.0021571405 0.0021060428 0.0021539605 0.0021571463
000210 83 3d e7 3b 46 55 0d 3b d1 59 0d 3b 70 5e 0d 3b
       0.0070568933 0.002156572 0.0021568427 0.0021571182
000220 41 e7 0c 3b cc 5e 0d 3b c7 5e 0d 3b 9a 1f e1 3a
       0.0021500143 0.0021571396 0.0021571384 0.0017175556
000230 85 5f 0d 3b 79 6f 0d 3b 5b ac 0c 3b 08 54 0d 3b
       0.0021571827 0.0021581335 0.0021465037 0.002156498
000240 99 56 0d 3b f1 5e 0d 3b 21 4b 0d 3b 1a 4f 0d 3b
       0.0021566509 0.0021571482 0.0021559673 0.002156204
000250 ad 12 33 bc 26 89 fb bc 10 65 0c 3b bc 5e 0d 3b
       -0.010929746 -0.030705046 0.0021422543 0.0021571359
000260 14 60 0d 3b af 2a 0d 3b 1d 5e 0d 3b 3e 70 0a 3b
       0.002157216 0.0021540334 0.0021570988 0.002112403
000270 c1 5e 0d 3b ac 8e 49 bc cb 5e 0d 3b 1a 54 0d 3b
       0.002157137 -0.012302082 0.0021571394 0.002156502
000280 90 57 b4 3a cf 5d 0d 3b 83 5e 0d 3b 25 f4 09 3b
       0.0013759006 0.0021570807 0.0021571226 0.0021050062
000290 ff 21 6f 3d ee 26 0d 3b af 43 e1 3c 77 5e 0d 3b
       0.05838203 0.0021538096 0.027498094 0.0021571198
0002a0 8e 5e 0d 3b c1 5e 0d 3b 11 5c 0d 3b 16 26 a0 3c
       0.0021571252 0.002157137 0.0021569768 0.01954941
0002b0 85 54 0d 3b de a4 0d 3b 07 75 c6 3c ed 5e 0d 3b
       0.002156527 0.002161316 0.024225725 0.0021571473
0002c0 d8 5e 0d 3b 9e 6c 0d 3b f9 5f 0d 3b 66 f4 cb 39
       0.0021571424 0.0021579633 0.0021572097 0.00038901268
0002d0 e8 90 77 3d 4d 46 a0 3a 76 5f 0d 3b ad 22 0d 3b
       0.060440928 0.0012227983 0.0021571792 0.002153556
0002e0 5b b3 37 3b 45 52 0d 3b b8 2e 0d 3b 42 44 0d 3b
       0.0028030488 0.002156393 0.002154274 0.0021555577
0002f0 e3 93 4d bb a7 5b 0b 3b 38 ac 0c 3b 9d 46 0d 3b
       -0.0031368665 0.0021264346 0.0021464955 0.0021556981
000300 c0 53 72 3b d1 af 2b ba da 82 72 3b 9e 53 72 3b
       0.0036976188 -0.0006549331 0.0037004263 0.003697611
000310 f8 4e 76 bc 65 5a 72 3b d9 5a 72 3b 65 53 72 3b
       -0.015033476 0.003698015 0.003698042 0.0036975977
000320 5f 6e 75 3b ce 53 72 3b c2 53 72 3b e1 99 8c 3b
       0.003744982 0.003697622 0.0036976193 0.0042908047
000330 85 55 72 3b 14 4b 72 3b d9 78 73 3b 57 5c 72 3b
       0.0036977243 0.003697102 0.0037150888 0.0036981308
000340 20 5e 72 3b c9 53 72 3b fd 5e 72 3b dd a0 72 3b
       0.0036982372 0.003697621 0.0036982887 0.0037022152
000350 bd d7 22 bd 03 57 e4 bc ac 0d 73 3b b9 53 72 3b
       -0.039756525 -0.027873522 0.0037087006 0.0036976172
000360 63 52 72 3b 82 79 72 3b 21 57 72 3b 05 7b 74 3b
       0.0036975376 0.0036998694 0.0036978202 0.003730477
000370 d1 53 72 3b 83 88 1a bd 63 53 72 3b 85 5e 72 3b
       0.0036976228 -0.037727844 0.0036975972 0.0036982608
000380 81 6f 71 3b 5a 54 72 3b 79 53 72 3b 53 dc 73 3b
       0.0036840143 0.0036976547 0.0036976023 0.003721018
000390 c2 e2 24 bc a8 82 72 3b 9b 8a bd bc de 53 72 3b
       -0.010063829 0.0037004147 -0.023137381 0.0036976258
0003a0 3b 53 72 3b 7c 53 72 3b 3b 55 72 3b 8f 88 d3 3c
       0.0036975879 0.003697603 0.003697707 0.025821952
0003b0 bb 5d 72 3b cd 78 73 3b fa f1 f7 3b 8e 53 72 3b
       0.0036982137 0.003715086 0.0075666877 0.0036976072
0003c0 af 53 72 3b 62 4c 72 3b be 57 72 3b 6f c3 94 3b
       0.003697615 0.0036971797 0.0036978568 0.004539899
0003d0 50 a1 95 3c 9b 42 92 3b cd 52 72 3b 3c cc 72 3b
       0.018265396 0.0044635064 0.0036975623 0.0037048003
0003e0 f8 15 84 3b 1a 60 72 3b 66 24 73 3b 3e 7e 72 3b
       0.004030939 0.003698355 0.0037100553 0.0037001516
0003f0 cb bf e6 bc cf 4a 74 3b dd d1 72 3b b6 6e 72 3b
       -0.028167626 0.0037276035 0.0037051358 0.0036992258

gcn.gc2.bias f4 [64]
000000 b9 79 8f bc 39 76 9a bc f9 74 8f bc ba 79 8f bc
       -0.017514097 -0.018855201 -0.017511832 -0.017514098
000010 ac 79 a0 bd 80 79 8f bc fc 78 8f bc c7 79 8f bc
       -0.07835707 -0.01751399 -0.017513745 -0.017514123
000020 74 6e 8f bc b7 79 8f bc b9 79 8f bc f4 83 8c bc
       -0.017508723 -0.017514093 -0.017514097 -0.017152764
000030 a9 78 8f bc db 79 8f bc 29 6e 8f bc 7f 79 8f bc
       -0.01751359 -0.01751416 -0.017508583 -0.017513989
000040 a4 78 8f bc b4 79 8f bc 6f 78 8f bc 4a 77 8f bc
       -0.01751358 -0.017514087 -0.017513482 -0.017512936
000050 49 c4 b8 bc 83 44 e2 3d aa 73 8f bc b9 79 8f bc
       -0.022554534 0.11048224 -0.017511208 -0.017514097
000060 b1 79 8f bc 8f 78 8f bc 7f 79 8f bc a2 64 8f bc
       -0.017514082 -0.017513542 -0.017513989 -0.01750404
000070 b5 79 8f bc e0 fe 19 bd b7 79 8f bc 8a 78 8f bc
       -0.01751409 -0.037596583 -0.017514093 -0.017513532
000080 a1 b3 8f bc a5 79 8f bc b5 79 8f bc ac 6a 8f bc
       -0.017541708 -0.01751406 -0.01751409 -0.01750692
000090 60 b1 1c bd 6e 76 8f bc 23 13 3b bd b1 79 8f bc
       -0.038255095 -0.017512526 -0.045672547 -0.017514082
0000a0 be 79 8f bc b7 79 8f bc 67 79 8f bc c8 a3 b3 bc
       -0.017514106 -0.017514093 -0.017513944 -0.021928683
0000b0 51 79 8f bc d0 6a 8f bc 61 ad cf bc bd 79 8f bc
       -0.017513903 -0.017506987 -0.025351228 -0.017514104
0000c0 ba 79 8f bc de 79 8f bc 6f 79 8f bc b1 69 8c bc
       -0.017514098 -0.017514165 -0.017513959 -0.017140241
0000d0 5d db 4c bd b9 cb 8f bc bf 79 8f bc 93 70 8f bc
       -0.05001389 -0.017553197 -0.017514108 -0.017509734
0000e0 b1 6d 8e bc 61 78 8f bc 62 6f 8f bc c0 78 8f bc
       -0.01738629 -0.017513456 -0.017509166 -0.017513633
0000f0 a0 67 eb 3d 65 65 8f bc c3 73 8f bc f1 78 8f bc
       0.11494374 -0.017504403 -0.017511254 -0.017513724

gcn.ln2.weight f4 [64]
000000 59 c1 21 b4 df 77 b4 3c 2b a7 30 39 59 2b f4 32
       -1.5064633e-07 0.022029815 0.00016846943 2.842505e-08
000010 f7 33 3f 3f fd a2 90 35 cb 3a 8f 38 55 a1 2a b4
       0.7468867 1.0776272e-06 6.8297224e-05 -1.5891176e-07
000020 72 df df 39 cd 8e e1 95 32 de 70 b6 dd 3c 5d 3a
       0.00042700354 -9.1102076e-26 -3.5892122e-06 0.00084395503
000030 2b 1a ce b7 42 64 f7 38 12 e8 23 b9 db af c2 37
       -2.4569299e-05 0.00011796552 -0.00015631344 2.3208491e-05
000040 33 ef b8 38 7b fb e5 b5 13 d6 dc 38 fe d2 e3 38
       8.818358e-05 -1.713502e-06 0.00010530292 0.00010863504
000050 f2 80 c0 3e 0f 87 f9 3e 59 f3 05 39 18 f8 4b aa
       0.37598377 0.48735854 0.00012774522 -1.8116097e-13
000060 2f 33 eb ad 6d 94 99 ac 3b 54 d4 38 46 14 c2 39
       -2.6739137e-11 -4.365e-12 0.00010124637 0.00037017668
000070 d2 25 dd b2 d9 7d d7 3e 83 d6 90 26 a3 4a dc 38
       -2.5744985e-08 0.42088202 1.0050151e-15 0.0001050432
000080 1a a1 99 3a 58 01 43 a9 d2 e2 de b6 11 ba c1 34
       0.0011720986 -4.3299863e-14 -6.642521e-06 3.6084433e-07
000090 87 e0 ee 3e d5 fb ff 38 64 87 13 3f 54 5d b6 23
       0.46655676 0.00012206255 0.57628465 1.9772006e-17
0000a0 2d a1 d9 b4 a4 6b ac a8 3e fd bf 37 86 80 d5 3e
       -4.053667e-07 -1.9142518e-14 2.28869e-05 0.41699618
0000b0 cd 10 37 38 c6 c1 9f b9 26 d4 75 3e ee df 2b ab
       4.3646247e-05 -0.00030471216 0.2400671 -6.106217e-13
0000c0 e4 cc ad a4 42 cb d5 38 cf 92 fb 38 e2 1d a9 3a
       -7.537389e-17 0.00010194491 0.00011995958 0.0012902583
0000d0 5c af 0f 3f ff e6 54 3a 0c 29 5a 9e 8a 04 79 b9
       0.5612695 0.00081215793 -1.1549312e-20 -0.00023748181
0000e0 97 f0 3e 3a 76 d0 e3 38 84 62 55 b9 6f ab a6 38
       0.00072837755 0.000108630324 -0.00020349963 7.947429e-05
0000f0 68 c2 06 3f 67 b4 bf 39 06 f8 1e 39 e9 45 eb 38
       0.5264039 0.0003656477 0.0001516045 0.00011218695

gcn.ln2.bias f4 [64]
000000 2d 00 23 36 e1 bf ab 3d c7 8c 19 3e bd 6e bc b4
       2.4288995e-06 0.08386207 0.14995109 -3.5098302e-07
000010 64 98 e1 3d 68 6e 03 37 a8 e2 36 3d 45 c5 40 b6
       0.11015394 7.833914e-06 0.04464975 -2.8725055e-06
000020 4d b5 95 3d 0e cb 87 97 a8 5d 5a 37 d4 93 d7 3d
       0.07309971 -8.775429e-25 1.3015619e-05 0.10526243
000030 59 4b 87 3d 02 42 7b 3c d3 af 6e 3d 1b 4b 3a bb
       0.06606168 0.015335562 0.058273148 -0.0028426114
000040 6f e6 1f 3e 24 71 01 b8 13 84 39 3d 46 56 4e 3d
       0.15615247 -3.0861367e-05 0.04529197 0.050375246
000050 b0 e2 cf 3d 53 fc 71 3e b4 05 59 3d 2d c3 f9 ac
       0.10150659 0.2363141 0.052983955 -7.0986745e-12
000060 93 49 bd b1 7f d8 36 b0 12 21 9d 3c 84 62 d3 3d
       -5.5089884e-09 -6.6518874e-10 0.019180808 0.10321525
000070 c5 11 a8 b4 b0 ee fa 3d 63 13 e3 a8 55 4e 76 3d
       -3.1305368e-07 0.12252557 -2.521047e-14 0.060133297
000080 25 a0 9f 3d d6 62 3f ac 75 e9 5b b9 3a dd 48 3d
       0.07794217 -2.7197597e-12 -0.00020972437 0.049039103
000090 a5 a8 f9 3d d1 54 95 3d 9f 4f 20 3e a6 20 43 a6
       0.121903695 0.07291568 0.15655373 -6.769846e-16
0000a0 34 bc cc b6 d3 ba 67 aa 89 a8 43 3e 3b a2 c4 3d
       -6.1015835e-06 -2.0581739e-13 0.1910726 0.096012555
0000b0 46 b0 5f 3c 83 d6 88 3d 52 73 b0 3d 30 6d 35 2c
       0.013652867 0.0668154 0.086157456 2.5782258e-12
0000c0 92 c4 04 26 ed 5e ef 3c 74 3b 47 3c 91 e5 4d 3d
       4.60631e-16 0.029220069 0.012160171 0.05026776
0000d0 13 d4 07 3e be 19 8d 3d d8 c9 55 a1 5d 78 41 3e
       0.13264494 0.068896756 -7.2434345e-19 0.18893571
0000e0 11 b3 92 3d 7d 57 bf 3d 2c 9b 90 3d f8 52 8b 3c
       0.071630605 0.09342859 0.07060847 0.017007336
0000f0 5c 9b 3b 3e ab 33 c5 3d 6a 5d 84 3d f8 0d c5 3c
       0.18320984 0.096289955 0.0646313 0.024054512

attention.fc1.weight f4 [16, 64]
000000 d4 6e 43 33 46 5b 12 ba 0c 94 51 ba 4b 29 0d b2
       4.5502773e-08 -0.0005583059 -0.0007994778 -8.216669e-09
000010 55 00 e6 bd 11 d5 22 b4 84 ea eb b9 88 33 3e 33
       -0.11230532 -1.5164939e-07 -0.0004499742 4.428469e-08
000020 d6 dd 0f ba 5f 44 92 94 ba fd fb 34 aa 1e 28 ba
       -0.0005488073 -1.47692e-26 4.6937004e-07 -0.00064132607
000030 e7 ec 07 ba 09 88 88 b9 57 d7 01 ba 5e 0d 72 b8
       -0.00051851425 -0.00026041295 -0.00049530476 -5.7709745e-05
000040 ea ff 56 ba 4c c6 d5 34 62 e3 ef b9 79 ba f9 b9
       -0.00082015863 3.9818622e-07 -0.00045755046 -0.00047631914
000050 07 e8 ab bc fb 36 fe 3d c3 76 fe b9 d5 82 00 ab
       -0.020984663 0.124128304 -0.0004853514 -4.56563e-13
000060 d9 c0 a2 ab 59 1f 83 2b 9d 70 9d b9 e1 7e 28 ba
       -1.1564318e-12 9.316811e-13 -0.00030029277 -0.0006427598
000070 06 26 8e b1 66 6b 0d bd 2b 14 13 a6 e6 56 04 ba
       -4.1370667e-09 -0.03452625 -5.1028203e-16 -0.0005048349
000080 5b 63 12 ba e9 37 a6 a9 5a 84 c2 34 7d d3 f1 b9
       -0.0005584263 -7.38158e-14 3.6231614e-07 -0.00046124673
000090 f4 14 1d bd d7 b9 0f ba 52 b2 83 bd 87 09 c4 a3
       -0.03835006 -0.00054827094 -0.06430496 -2.1254398e-17
0000a0 e0 13 90 33 16 14 da a7 c0 f9 76 ba b7 1d e6 bc
       6.709138e-08 -6.052893e-15 -0.0009421371 -0.028090341
0000b0 46 23 7f b9 1d 46 09 ba 75 32 29 bc 80 4f 0a 2a
       -0.00024331835 -0.0005236583 -0.010326971 1.2284444e-13
0000c0 8a 53 88 23 09 4c bf b9 cd 43 64 b9 b3 e4 f3 b9
       1.478053e-17 -0.0003648701 -0.00021769032 -0.00046518966
0000d0 4a 12 84 bd 99 e8 0b ba 78 3d 33 9f e5 aa 75 ba
       -0.06448801 -0.0005337089 -3.795557e-20 -0.00093714736
0000e0 6b 70 07 ba 34 03 20 ba 3f 5b 0c ba d1 96 93 b9
       -0.0005166593 -0.0006103993 -0.0005354173 -0.00028150392
0000f0 0d 70 02 3e 79 c9 22 ba 7d fb 08 ba d3 db af b9
       0.12738056 -0.00062098313 -0.0005225463 -0.00033542383
000100 44 2d 46 33 17 df 14 ba 98 52 55 ba ee e3 13 b2
       4.6141636e-08 -0.0005678995 -0.00081376126 -8.608351e-09
000110 50 ab e9 bd a5 b1 62 b4 84 5c ed b9 f1 5d 3e 33
       -0.114096284 -2.1112517e-07 -0.00045273092 4.432326e-08
000120 85 20 11 ba 88 fc 41 11 d0 93 ec 34 16 4b 2a ba
       -0.0005536157 1.5302833e-28 4.4065973e-07 -0.0006496174
000130 ba 0e 09 ba be 21 8b b9 32 d2 02 ba 17 44 67 b8
       -0.00052283297 -0.00026537286 -0.0004990428 -5.5138105e-05
000140 6d f7 5a ba 19 07 eb 34 45 61 f1 b9 51 69 fb b9
       -0.00083529094 4.3777325e-07 -0.00046039573 -0.00047952918
000150 f4 7c ad bc 75 16 01 3e c1 1d 00 ba 29 d6 f8 aa
       -0.021177746 0.12606223 -0.0004887246 -4.4202253e-13
000160 65 20 99 2c b9 90 d5 2b ef 71 9f b9 8b 8a 2a ba
       4.352118e-12 1.5174729e-12 -0.0003041173 -0.000650563
000170 fb 78 2e b1 86 68 0f bd db d6 0e a6 4b 5b 05 ba
       -2.5389102e-09 -0.03501179 -4.955733e-16 -0.0005087151
000180 1e c8 13 ba 72 28 a5 a9 1a bb a7 34 ff 6a f3 b9
       -0.0005637425 -7.334488e-14 3.1242308e-07 -0.0004642829
000190 fe 49 20 bd e9 fd 10 ba 89 65 86 bd 38 8a c7 a3
       -0.039133064 -0.00055309996 -0.06562335 -2.1634161e-17
0001a0 d9 c0 b1 33 83 6e e3 a7 cd fd 7b ba 6a 21 ea bc
       8.2772836e-08 -6.3124974e-15 -0.00096127094 -0.028580386
0001b0 c8 6a 83 b9 c7 6c 0a ba 45 63 2c bc a8 9f 0f 2a
       -0.00025065825 -0.00052804913 -0.010521715 1.2756343e-13
0001c0 e3 79 8c 23 8e 6c c0 b9 4e 9b 6a b9 33 97 f5 b9
       1.5230451e-17 -0.00036701973 -0.00022373835 -0.00046842694
0001d0 09 36 87 bd 76 14 0d ba e5 3d 33 9f 32 a1 7a ba
       -0.06602103 -0.0005381772 -3.7955922e-20 -0.0009560763
0001e0 ea d5 08 ba d6 c4 21 ba 70 94 0d ba 21 20 96 b9
       -0.0005219864 -0.00061709934 -0.0005400842 -0.00028634167
0001f0 92 74 04 3e b4 9d 24 ba 3a 16 0a ba 25 43 b1 b9
       0.12935093 -0.0006279603 -0.0005267594 -0.00033810097
000200 b2 60 41 b3 ab 98 1b 3a 5f b4 60 3a b4 49 19 32
       -4.5024258e-08 0.000593553 0.0008571799 8.92253e-09
000210 c8 0c ef 3d 42 7c 92 34 0d 2d f3 39 db 53 31 b3
       0.1167236 2.728503e-07 0.00046382137 -4.128729e-08
000220 ae 16 16 3a 28 92 ad 94 31 70 cf b4 91 e9 31 3a
       0.00057254254 -1.7526184e-26 -3.8638385e-07 0.0006786818
000230 47 87 0d 3a 93 2b 8f 39 62 c3 06 3a 6a ef 51 38
       0.0005398881 0.0002730755 0.00051408086 5.0052455e-05
000240 ea db 66 3a bf 71 fb b4 16 55 f7 39 20 0b 01 3a
       0.00088065735 -4.6835154e-07 0.00047174905 0.0004922617
000250 e3 64 af 3c 26 f0 02 be 14 a5 03 3a 14 33 ee 2a
       0.021410411 -0.12786922 0.0005021852 4.2312735e-13
000260 f9 3c 54 ad c4 d1 18 ac 6e 2b a3 39 60 e2 31 3a
       -1.20643434e-11 -2.1716942e-12 0.0003112214 0.00067857467
000270 f9 8d 26 30 91 c9 11 3d 98 43 03 26 c4 66 09 3a
       6.0592203e-10 0.03559262 4.554136e-16 0.00052414485
000280 cf 1d 19 3a ff 49 a1 29 2a 78 ee b3 10 e9 f9 39
       0.00058409286 7.1626726e-14 -1.1104596e-07 0.00047666626
000290 81 47 24 3d 03 f0 15 3a a6 d2 89 3d fc 90 c6 23
       0.040107254 0.00057196635 0.06729631 2.1528606e-17
0002a0 84 eb da b3 a6 3f e8 27 da 43 85 3a a5 04 ef 3c
       -1.0194256e-07 6.4461943e-15 0.0010167316 0.02917702
0002b0 1f b8 88 39 d8 fa 0e 3a c5 5b 30 3c 7a 94 12 aa
       0.00026077122 0.0005454249 0.010764067 -1.3018918e-13
0002c0 c8 6b 8c a3 08 47 c4 39 52 78 73 39 47 4d fc 39
       -1.5224478e-17 0.00037436956 0.00023219109 0.00048122762
0002d0 84 36 8b 3d f9 b4 11 3a cb b8 29 1f c9 84 84 3a
       0.067975074 0.0005558278 3.594e-20 0.0010110374
0002e0 54 e7 0d 3a 14 4d 28 3a ae 63 12 3a b8 3e 9a 39
       0.0005413194 0.0006420177 0.00055843114 0.00029419898
0002f0 61 3a 06 be 54 5e 2b 3a 06 73 0e 3a dd d7 b4 39
       -0.13108207 0.00065371883 0.000543401 0.00034493106
000300 23 4a 4f b3 25 06 1a 3a 08 51 5d 3a bc 59 21 32
       -4.826337e-08 0.00058755494 0.00084425556 9.391837e-09
000310 60 97 f1 3d 21 50 ac 34 2e 2f f0 39 44 6f 19 b3
       0.117964506 3.2095798e-07 0.0004581152 -3.5724284e-08
000320 62 af 13 3a a4 63 0b 95 b2 0d c2 b4 50 f8 2e 3a
       0.0005633739 -2.814943e-26 -3.614528e-07 0.00066745747
000330 9c 50 0b 3a 8f e5 8f 39 07 cd 04 3a 75 35 40 38
       0.0005314441 0.0002744612 0.0005065952 4.5826153e-05
000340 43 65 63 3a 4d 5a f6 b4 e8 55 f4 39 95 bc fe 39
       0.0008674452 -4.5886773e-07 0.00046603312 0.0004858716
000350 bb dd b0 3c 54 7f 05 be 1a e4 01 3a a7 86 e8 2a
       0.021590104 -0.13036853 0.0004954949 4.1304913e-13
000360 d2 31 8c ad f0 ef 29 ac f4 f4 a2 39 28 ed 2e 3a
       -1.5938282e-11 -2.4149537e-12 0.00031081552 0.0006672912
000370 51 f4 01 b0 79 d8 13 3d f8 56 f8 25 af 64 07 3a
       -4.727712e-10 0.036095116 4.3080075e-16 0.00051648443
000380 e1 a2 16 3a 60 16 a0 29 ad fc 1f 34 c5 94 f6 39
       0.0005746317 7.109309e-14 1.4899952e-07 0.00047031618
000390 0a 6c 27 3d 47 8c 13 3a c8 5c 8c 3d 2e 42 c9 23
       0.04087452 0.0005628508 0.06853634 2.1820492e-17
0003a0 b3 85 f1 b3 1b 72 ec 27 33 31 83 3a 44 78 f3 3c
       -1.1246757e-07 6.562687e-15 0.0010009169 0.029720433
0003b0 76 d2 8a 39 a5 c0 0c 3a d6 6a 33 3c 3d 7d 1a aa
       0.00026478217 0.00053692824 0.010950765 -1.3721398e-13
0003c0 5a a9 93 a3 0d 68 c2 39 54 a5 76 39 23 f6 f8 39
       -1.6009495e-17 0.00037080087 0.00023521978 0.00047485632
0003d0 42 4b 8e 3d e9 6b 0f 3a 1e e2 20 1f c7 79 82 3a
       0.06947948 0.0005471097 3.4068358e-20 0.0009954505
0003e0 29 af 0b 3a 5a 7b 25 3a 98 0d 10 3a c4 bd 9a 39
       0.000532853 0.00063126313 0.00054951897 0.00029514555
0003f0 f5 e0 08 be 9f 7f 28 3a af 4f 0c 3a b2 ab b3 39
       -0.13367064 0.00064277084 0.000535245 0.00034269464

attention.fc1.bias f4 [16]
000000 d2 96 05 be 79 0a 08 be 19 33 07 3e 5f aa 0d 3e
       -0.13045815 -0.13285245 0.13203086 0.13834523
000010 aa ef 04 be 0e 0e 0c 3e 68 a0 0c be 7b 40 0b 3e
       -0.1298205 0.13677236 -0.13733065 0.13598816
000020 f9 d5 0c 3e 1d 88 08 be f7 5f 08 be b3 d9 05 3e
       0.13753499 -0.13333173 -0.13317858 0.13071327
000030 8d 82 0f be 0b cc 0a 3e 2d 35 08 be de 3e 07 3e
       -0.14014645 0.13554399 -0.13301535 0.13207576
